Game Loop final - capitolul 7/runs/position_evaluation/train7/chessModel.pth (torch, 454946 bytes, 9 tensors)

conv1.weight f4 [32, 13, 3, 3]
00000000: aa53 fe39 6bb5 ae38 987f 1bbb daf6 2339
00000010: 51b0 2bbc fbe9 68bc 5788 403c c85f 043c
00000020: e990 bd3b 592a 4f3b 4018 e33a 3ae6 0d3c
00000030: bf9e 33bc e9ba cabc e0b5 883d 54ba b13c
00000040: 57be c9bc 4f24 cb3d e2dc ab3b ef0a 7d3c
00000050: 3059 4b3c a78d 9f3b dd14 ae3d 0ef4 cb3c
00000060: 9537 3abc 2e66 db3c d54a 043e d03f 2d3d
00000070: 76ee b53d 8bc4 443d 4382 9b3d 5b16 083e
00000080: 60fc 613d 289d 8f3d 42d1 4d3e f81c 283e
00000090: eb8a 6e3d 160e 633d 0a68 513c 8de0 8bbb
000000a0: 8dd2 923e 4d1a 693d 6e7e 1f3d 9412 f03d
000000b0: 6540 c63e 07b5 b63c 4f43 8bbe 384f 0ebb
000000c0: 88a7 873c 7b47 3e3d cf5c a73c 1a74 453d
000000d0: ef21 c43b 9f39 043c 5568 133d 53f5 683d
000000e0: 13df e13c 4355 713d 2975 5f3c 88a8 393d
000000f0: 0165 243d fcc7 193e 9ee4 023d daee 6fbb
00000100: 4673 3e3d e4c9 02bd efea 9a3c 2b36 08bd
00000110: e019 bfbc 37b6 503c c2b2 4e3d 59e2 603b
00000120: 1f77 b9bc 0f58 d4bd 078e ccbb 9441 d0bb
00000130: 65ea b9bd 0639 e8bd 126a 71bd 681e adbd
00000140: 33ed 9bbd 0fc3 8fbd 3445 14bd 862b 35bd
00000150: 53f3 273c 8524 19be d0e4 ca39 5d2c c3bd
00000160: c634 38bd d548 22be bb4d 12bf 3414 2f3b
00000170: 61b5 68bd 6885 af3d 6670 16be 28e5 2f3d
00000180: 682f 33be d3b1 3bbc 5df3 36be 2ff4 88bc
00000190: 2cab aebd 7f46 dfbc 0c33 663d 1db8 cbbc
000001a0: 801d 3a3c f851 35bc d9c6 093a a908 40bd
000001b0: 1485 563c 7aa8 99bd d265 abbc 7b74 ce3c
000001c0: 52e4 7cbd 454d 9d3c f6db fe3c 67ee edbe
000001d0: d787 0bbd 7dd9 023e fa68 5b3d f3f3 cd3d
000001e0: 671d 8d3d cda6 ac3b 387e 2c3e 5ff0 853d
000001f0: add3 7d3b ed3e aeb9 a7a4 ce3b d03e 193c
00000200: 0b3e 3cbd 8890 99bb db61 5bbc ee1a 47bd
00000210: c875 10bd 1a6c 1abd 9342 18bd d444 d7bc
00000220: 5153 f2bb 3ff7 74bc 82b0 abbd cf6d 59bc
00000230: cbf2 16bd bddd adbc 28f9 9ebd 1749 86bc
00000240: 06df 563c 2216 8ebc 9aa4 97bb 1210 04bd
00000250: 1336 ec3b 84b1 9ebb 0ec8 e13c 001f 0abd
00000260: fd24 ce3a 2abe b73c 8d03 4f3d 3764 c7bb
00000270: eee6 153c 470e 78bc 1fa4 b5bc 0989 1cbd
00000280: 2c7a ffbd ec68 1abe 5e99 b4bc 830e dd3c
00000290: 9212 653d 60f6 a83c 05a3 9d3c c7bd 683d
000002a0: 2fe5 3bbc a1f2 5a3d 780d 8f3d 5c66 d73c
000002b0: 28ee 573d c04e 873d 9a20 553d e4d3 813d
000002c0: 2ccb 253d 4bbd 8d3b b7a9 95bc 3374 143d
000002d0: 9ca1 3d3d 756f 583d 11e2 503d 44e2 083d
000002e0: 2600 073e 0683 8d3d e484 923d 4362 803c
000002f0: 8aca 083d f4d0 4e3d aa02 273c 0036 363e
00000300: 5292 083e 4a3b a1be 43ca eb3d 6b57 9ebd
00000310: b54c abbd b1e2 3e3b b699 233d edaa f33d
00000320: 2ac3 e83c 0695 223d 8a83 3f3d e812 e03c
00000330: dd4e d83c 59ae f83c 3cd5 843c e8e2 903d
00000340: 692d 063e 0406 513d 782c 293d 2f9b 953d
00000350: 978c af3d 14d7 8f3d 8264 8a3d 7ce0 223d
00000360: bd4e 61bc c0e9 e3bc de2d 87bd d2e6 d7bc
00000370: 2d0c 2fbc 45ff 52bd abe0 033c c269 5dbc
00000380: 2922 a23b bd55 733d 8455 c83d 16c8 c93d
00000390: 72e4 013c 776b a83d cfb4 9e3d 96b6 2a3c
000003a0: 34e5 b63c c431 363c d1c3 c13b cf29 183d
000003b0: 4d97 7d39 e7dd d13c 0cbf 053d ca1d e43c
000003c0: a54d 1b3c f4d7 ba3c a024 7e3c aa36 ecbb
000003d0: 38c4 5a3d 33e5 ab3c 4f71 033e 2ba9 4cbc
000003e0: 3597 953b d19a ca3d fc36 c03c 9e0d 5dbc
000003f0: d97a 303d 3283 c53d 1b28 243d cc04 043e
0.0004850899 8.330758e-05 -0.0023727175 0.00015636851 -0.010479049 -0.014215942 0.011751256 0.008079477
0.005785097 0.0031610935 0.0017325953 0.008660847 -0.010963141 -0.024747329 0.06675315 0.021695293
-0.024626894 0.09919035 0.005244837 0.015444501 0.012411401 0.004869181 0.08500073 0.024896648
-0.011365791 0.026782122 0.12919171 0.042297184 0.088833734 0.048039 0.07593205 0.13289778
0.055172324 0.07012397 0.20099357 0.164173 0.05823795 0.055433355 0.0127811525 -0.004268712
0.28676262 0.056909848 0.038938932 0.117222935 0.38721004 0.022303117 -0.2719979 -0.0021714699
0.016559377 0.046454888 0.020429997 0.048206426 0.0059854905 0.008070379 0.03598817 0.056874584
0.02757219 0.058919203 0.013638773 0.04532674 0.040135387 0.15017694 0.031956308 -0.0036610872
0.046496652 -0.03193082 0.018910853 -0.033254784 -0.023327768 0.012738756 0.050463445 0.0034314601
-0.02263981 -0.10368358 -0.006242517 -0.006355474 -0.0907791 -0.11339001 -0.058939047 -0.08453065
-0.076136015 -0.07019626 -0.03619881 -0.04423096 0.010250884 -0.14955337 0.0003869892 -0.09529946
-0.044972204 -0.15848096 -0.5714986 0.0026714923 -0.0568136 0.08570367 -0.14691314 0.04294315
-0.17498553 -0.011455971 -0.17866273 -0.016717998 -0.08528742 -0.027255295 0.056201026 -0.024868065
0.011359572 -0.011066906 0.0005255766 -0.04688326 0.013093252 -0.075028375 -0.020922575 0.025202027
-0.06174118 0.019201884 0.031110745 -0.4647095 -0.034065094 0.12778278 0.05356691 0.10056295
0.06890374 0.0052689076 0.16845024 0.06539988 0.0038730905 -0.0003323475 0.006306249 0.009353355
-0.045957606 -0.004686419 -0.01339003 -0.048609667 -0.035268575 -0.03770075 -0.037172865 -0.026277937
-0.007395186 -0.014951526 -0.083832756 -0.013270809 -0.03685264 -0.021223897 -0.077623665 -0.016392274
0.013114696 -0.017344538 -0.0046277763 -0.03224189 0.0072085946 -0.004842939 0.027561214 -0.03372097
0.0015727576 0.022429544 0.050540496 -0.0060849446 0.009149296 -0.015140123 -0.022172986 -0.038216624
-0.12474474 -0.15079087 -0.022045787 0.026984459 0.055925913 0.020625293 0.019242773 0.05682161
-0.011468216 0.053454045 0.06984991 0.026293926 0.052717358 0.06606817 0.052033044 0.06339243
0.040476963 0.004325544 -0.018269403 0.03624363 0.0462967 0.05284067 0.050996844 0.03341891
0.1318365 0.06909756 0.07154253 0.015671855 0.03339628 0.050492242 0.010193506 0.17794037
0.13337067 -0.31490546 0.11513188 -0.077315174 -0.0836424 0.0029126818 0.039941512 0.11897836
0.028413374 0.0396929 0.046756305 0.027352765 0.026404792 0.030356573 0.01621496 0.07074529
0.1310326 0.051031128 0.041302174 0.073049895 0.08571737 0.07023445 0.067574516 0.039764866
-0.013751683 -0.027821422 -0.06600545 -0.02635518 -0.010684055 -0.051512975 0.0080491705 -0.013513984
0.00494792 0.05940794 0.09781936 0.098526165 0.007928001 0.08223622 0.0774933 0.010419508
0.02232609 0.0111202635 0.0059132357 0.037149247 0.00024184324 0.025618507 0.0326529 0.027846236
0.009478961 0.022808053 0.015511662 -0.007208665 0.053409785 0.020983314 0.12836193 -0.012491505
0.0045651444 0.0989281 0.023463719 -0.013492016 0.043085907 0.09644164 0.04007731 0.12892455

conv1.bias f4 [32]
00000000: 6b01 3fbd 7dd1 f8bc b890 f13c 4f57 f73d
00000010: d0bb 223c 2cf2 4ebd ffdd 233c 7c57 75bc
00000020: e7f6 e1ba 15cc eb3d fc14 873d 4e7b 863d
00000030: d84b 8d3d d83f 8abb 2836 6b3d eb98 18bd
00000040: d765 833d 8acc 31bd 4a42 403e 0112 2bbd
00000050: cb4b eb3d 8841 513c 8d67 f9bb 3e7b 21bc
00000060: 70a0 ee3d 4fe2 e3bc 6aa7 ab3d 14fe b63d
00000070: 1dcd 903d 8658 c53d 57b0 80ba 8cd4 2dbd
-0.04663221 -0.03037333 0.029487953 0.120772 0.009932473 -0.05052392 0.010001658 -0.014974471
-0.001723972 0.11513535 0.06595799 0.06566487 0.06899232 -0.0042190365 0.057424694 -0.03725521
0.06415909 -0.043407954 0.18775287 -0.041765217 0.11489066 0.0127719715 -0.007611221 -0.009856043
0.11651695 -0.027817873 0.08381541 0.0893518 0.07070372 0.09636025 -0.0009818178 -0.04243903

conv2.weight f4 [64, 32, 3, 3]
00000000: 94e0 273d e866 523c 85b5 ddba ebb1 083d
00000010: 7c19 533d fd25 ff3b da68 24bc 282b bdbd
00000020: 5fe3 11bc 20fe 48bc 885d 163d 42f0 893c
00000030: e8f7 073d ac03 c1bb 3c20 c03c 8e86 343d
00000040: 149a 863d 1ae7 813c 6dfe 753c d5d7 343d
00000050: b021 253d 473f 6c3c d30d bdbd 5f3c 49bd
00000060: 8da1 353d fc81 c3bc a37d 8a3c 78ee 8dbd
00000070: 5683 ac3c 0e99 f7bc 8438 28be a7a9 38bb
00000080: be85 803c 3341 4fbd 78b0 093c 8eef be3d
00000090: bc3e d7bc c809 fcbb 358f 153d 72b8 09bd
000000a0: 373e a6bb e352 313d 248d 96bd 484f 30be
000000b0: 2244 89bc af21 1dba 63fd b2bd e85d 803d
000000c0: 8cf5 1a3d fed8 663e e475 0d3e d833 49be
000000d0: 2afd f9bb 5d0d 49bd b31f bfbb 7251 a33d
000000e0: a9fe 35bd 9600 3abe fa8a 85bd 0edb 01bd
000000f0: 3faa 53bd 71ff 97bc 4c12 adbc 6e7e e8bb
00000100: a1e9 a23d 9057 99bc b8c6 f3bd 0c66 2abe
00000110: 44b0 39bd 4fd8 23bd 1053 d4bd bcf0 06bd
00000120: df19 753b a9d4 8dbd 6096 96bc 39ed 09bd
00000130: 01ac 3c3e ec9c df3d bd92 613c b1fe 65be
00000140: 376f 62be 304e 113c 9cc2 393d 7dc7 143d
00000150: 12d4 9c3d d49f 753d 466d d83d 046b c0bb
00000160: b7ee c0bd d29c 853c 351d a0bc c750 8d3b
00000170: 09e7 1c3d 8558 ccbc 481d 8ebd b081 28bd
00000180: 7d57 bdbd c436 eebc 0232 a13b c182 c7bd
00000190: 5d98 6bbd 1659 9bbd 835a df3b fbd2 b23d
000001a0: 026b 65bb c2ec 04bd 6c0e c2bd bced fdbc
000001b0: f181 1f3d 1351 0b3d eef4 a53d b1ba 83bb
000001c0: 07e3 a3bd acef 82bc c6fd 06be 0aac 0dbe
000001d0: 79de e3bc 303f 1cbc eebe 93bc 3ed8 28bd
000001e0: 2a50 813c 7d71 08be 95b0 383d e1d0 e1bc
000001f0: 357f ffbd 1867 72bc 39c6 2d3b e6b7 09bc
00000200: 6e05 8abc c30d ca3d 8454 89bc a783 83bd
00000210: d8e3 483d fb5f eebc ba0b eb3b e7f4 ac3d
00000220: 96f1 18bd f73b 8abc e592 2d3d 6882 54bd
00000230: 466a 1f3d ce50 ad3d 9c98 a13c c67d b73d
00000240: 2fa7 e23b 794e 943d 4631 87bd 4b77 493c
00000250: a00c 503e a73d 34bd 160f 43bd 05a9 30bd
00000260: 9d3e 03bd bddc 0e3d f83a 44bc 7404 adbd
00000270: 24b9 b5bc 1c6a 36bd e6e5 813d da6b 3cbd
00000280: 4534 dfbc a85a 07bd c898 b5bd 96b8 bf3c
00000290: 19d8 313d 3dc4 27bd 1df2 a7bc e200 90b9
000002a0: 2698 1fbd 7bdc 943d 383d 98bc d023 053d
000002b0: 7b92 5f3d b2d4 cb3c b6a4 86bd 197e b83d
000002c0: b75c f03a 6679 70bd 37b0 f6bc 312e 03bd
000002d0: 3c55 133d b9dc 69bc a461 103e 12ac fb3b
000002e0: fa62 753c d0e5 af3c 97b6 0bbd 1be0 68bc
000002f0: ed72 7ebd 1303 80bd a134 063d 10d2 a9bc
00000300: c759 a13c 3753 8c3d 76a3 05be a846 383d
00000310: 3e81 883d 7a0b 30be 3bb4 26bd 273d 893c
00000320: 9f19 4d3d ab08 1bbd 8065 6a3c fb3c 46bc
00000330: 7690 0bbd 7b7a 3ebc 4dc4 e23c 5f83 51bd
00000340: 2cc6 023d ee4e b7bb c667 74bd 9b36 a8bd
00000350: 2310 8cbd a2ec dabc 574b ab3d 9a1f 02bc
00000360: 70d0 f4bb 9c3c 423d 4e3a 833d 0537 df3c
00000370: bb0f 673d 50c8 9c3d 036a 423d 6cb5 1f3c
00000380: 4b45 f0bb 7894 2c3c 71f2 b03c 02b6 623c
00000390: 44b4 7ebc 9c4b 6dbc d045 09bd ab0a a0bd
000003a0: da87 873d cb11 b93b 11e1 503c 3738 713c
000003b0: 96a1 763d 1f71 a53d 8a16 cc3d 73ed 953d
000003c0: 5905 9fbc 8751 54bd a73b 8b3d 0b57 6bbc
000003d0: 6926 903c 6c8b 0f3d 0555 38bd e51c 2fbd
000003e0: da26 663b 4b66 013b c6e4 7c3d 2800 19bc
000003f0: 6411 81bd 39bf 163d c37d 803d d18e b43c
0.04098566 0.012841918 -0.0016915059 0.0333728 0.051537976 0.007786511 -0.010034764 -0.09236747
-0.008904307 -0.012267619 0.036710292 0.016838197 0.033195406 -0.0058903303 0.02345287 0.044073634
0.06572357 0.015857268 0.015014273 0.044151146 0.04031533 0.014419383 -0.092311524 -0.04912984
0.04434352 -0.023865692 0.016905611 -0.0693025 0.02105872 -0.03022435 -0.16427809 -0.0028177293
0.015688773 -0.05059929 0.00840389 0.09323035 -0.026275031 -0.0076915957 0.036513526 -0.033623166
-0.0050733346 0.043291938 -0.07351139 -0.17217743 -0.016756121 -0.0005994094 -0.08739736 0.06267911
0.037831828 0.22543713 0.13814503 -0.19648683 -0.0076290565 -0.04908501 -0.0058326363 0.07974519
-0.044432316 -0.18164286 -0.06520648 -0.031703047 -0.05167603 -0.018554421 -0.021126889 -0.0070951497
0.079547174 -0.01871851 -0.11903137 -0.1664049 -0.045334116 -0.04000121 -0.103674054 -0.032944426
0.0037399454 -0.06925327 -0.018382251 -0.0336735 0.1842499 0.10918602 0.013767895 -0.22460438
-0.22112738 0.008868739 0.04535161 0.03632306 0.07657637 0.059966877 0.10567717 -0.0058721323
-0.09420531 0.01631013 -0.019545177 0.004312608 0.03830627 -0.024944553 -0.06939179 -0.041139305
-0.09245203 -0.029078849 0.0049192915 -0.09741736 -0.05751835 -0.07585351 0.0068162098 0.087316476
-0.0035006409 -0.032452352 -0.09475407 -0.03099715 0.03894228 0.034012865 0.08103357 -0.004020058
-0.080022864 -0.015983425 -0.13182744 -0.13835159 -0.027816044 -0.009536549 -0.018035378 -0.04122185
0.015785296 -0.13324542 0.045090277 -0.027565422 -0.12475435 -0.014795087 0.0026515855 -0.008405661
-0.016848292 0.09865906 -0.016763933 -0.06421595 0.049045414 -0.029098501 0.007173029 0.08445149
-0.03733977 -0.016874297 0.042376418 -0.051882178 0.03891971 0.08462678 0.01972609 0.08959536
0.0069169025 0.0724153 -0.06601195 0.012296508 0.20317316 -0.04400411 -0.04762181 -0.04312994
-0.032042135 0.03487848 -0.01197695 -0.08448115 -0.022183008 -0.044534788 0.06342678 -0.046001293
-0.027246604 -0.03304544 -0.08867031 0.023403447 0.043418977 -0.04095863 -0.02050119 -0.00027466478
-0.03896346 0.07268616 -0.018583879 0.032504857 0.054583054 0.024881694 -0.06574385 0.09008426
0.0018338178 -0.058709525 -0.030113323 -0.032026473 0.035969958 -0.014273816 0.14099747 0.0076804245
0.014977211 0.021471888 -0.034109678 -0.014213587 -0.06212132 -0.06250586 0.032765035 -0.020730048
0.01969613 0.068518095 -0.13050637 0.044989258 0.06665276 -0.17191878 -0.040699225 0.016752793
0.050073262 -0.037850063 0.014306426 -0.0120995 -0.034073316 -0.011625881 0.027681494 -0.051150676
0.031927273 -0.005594126 -0.05966928 -0.0821354 -0.06839015 -0.026724163 0.08363979 -0.007942105
-0.0074711367 0.047421083 0.06407605 0.027247915 0.056411486 0.07655394 0.047464382 0.009747844
-0.007332479 0.010533445 0.02159998 0.013837339 -0.015545908 -0.014483359 -0.033513844 -0.07814535
0.066177085 0.005647873 0.0127489725 0.014722875 0.060212694 0.08078217 0.099652365 0.073206805
-0.01941173 -0.051835563 0.06798487 -0.014364014 0.01759644 0.035045072 -0.045002956 -0.042752165
0.0035118372 0.001974481 0.061741613 -0.009338416 -0.06302145 0.036803458 0.06273987 0.022040756

conv2.bias f4 [64]
00000000: 1e8f 903d de00 7bbc 92b6 65bd 343e cf3d
00000010: 46b3 0a3d edc3 a2bd 10ff 143c 8875 b73d
00000020: 0616 afbc 3033 d7bd 49b7 a8bd aed7 7fbd
00000030: ba0c 963b 4777 a1bd 85e0 dbbc 1691 d4bc
00000040: cc3e b7bc 66bd 67bd 1704 723d b3f9 0a3e
00000050: c189 88bd 7319 673d d996 eabc 2120 573d
00000060: a667 86bd 7b17 623d 0467 bcbb d837 39bd
00000070: 028c 2d3d a936 97ba 807b b53d a81f 613d
00000080: b544 8e3d e92a 38bd bd96 ddbb 3da7 f23d
00000090: 7445 373d 8ff6 40bd 46bb 7a3c f8d6 4dbc
000000a0: 1404 71bb ac66 80ba afd5 4a3d e873 153d
000000b0: e282 a2bd 2315 a7bd 9a65 ce3c 1a7a f0bc
000000c0: 1a35 463d 552c e1bc 03b8 80bb 6a67 333d
000000d0: fdae 35bd be5c 6abd ac7c 703d 7fb1 25bd
000000e0: 8511 9a3d 4a3c 8fbd 075d 2abd fd3f 103c
000000f0: 2036 5e3d c96b 823d ce1a 443d cc15 ab3c
0.070585474 -0.015320031 -0.056082316 0.10119286 0.033862375 -0.07947526 0.009094015 0.08957964
-0.021372806 -0.1050781 -0.08238084 -0.062461548 0.004579154 -0.078840785 -0.026840458 -0.025948089
-0.022368811 -0.05657711 0.05908593 0.13571815 -0.066668995 0.056420755 -0.028636383 0.052520875
-0.06562738 0.055198174 -0.005749585 -0.045219272 0.04236985 -0.0011536676 0.088614464 0.05496183
0.069466986 -0.044962797 -0.006762354 0.118483044 0.04474397 -0.047110137 0.0153034385 -0.01256346
-0.0036776112 -0.0009796224 0.04952019 0.03648749 -0.0793512 -0.081583284 0.025194932 -0.029355098
0.048390485 -0.02748696 -0.003928186 0.043799795 -0.044356335 -0.057217352 0.058712646 -0.040452477
0.07522873 -0.06993921 -0.041592624 0.0088043185 0.054250836 0.06368215 0.047877125 0.020884417

conv3.weight f4 [128, 64, 3, 3]
00000000: f8e3 b23c e063 41bd 6e9c 6cbc c3a9 2d3d
00000010: 2da0 e73b c7c0 153d 428e d83b 35c3 643c
00000020: 9045 04bd a779 a03b 1800 153d 5d90 11ba
00000030: af5c 113d 0806 8ebc 7a1a 8bbc 2d4d aabc
00000040: 9e0c 33bc ccb6 f0bc 043d fa3c e66c 003b
00000050: 0f2f 2cbc f616 cbbc e29d c53c c221 df3b
00000060: 945a 27bb 57ce 1a3c c4cd c43c 78d0 ec3c
00000070: bbbe acbd 6efa 99bd 1c13 523d 78a8 233d
00000080: 96a8 51bd b425 9cbb 28bc d33c eb41 aabc
00000090: 4f06 57bc 58d7 673d 7c4f 5e3c 142b 8f3c
000000a0: ab21 18bd caab b73a 280e cb3c 6620 233d
000000b0: b1eb 6e3d d52f 803c ce22 07be 4a06 bdbd
000000c0: ec9e 84bd b168 1dbd 6c45 ea3d a442 0cbd
000000d0: cc0e c13d 7d5a 903d 8329 96be 7c5b ca3d
000000e0: 0255 03bd 4a52 49be 664c 40bc dd89 eb3a
000000f0: 2938 94bd f8fd 043d 4a46 f5bb a59a d93d
00000100: a354 3cbd 76de a2bd 53b9 3bbc 2620 b4bc
00000110: 1ff7 6cbc 19a1 95bd 30d2 edbd dbb9 17be
00000120: fd2a a3be dfec 263e 7602 cd3c 12b1 22bd
00000130: 140e d6bc e5a6 f93d 531f 243c 76c9 24bd
00000140: 3f71 e9bc 0dd2 dfbd ee4c 603c e634 fc3c
00000150: 7fe4 6dbd 9048 99bb 8821 123d 6b51 e93c
00000160: 3328 a13b 660e 9f3a 776a 21be 7115 6ebe
00000170: 6349 243d d93a ff39 b3b1 d939 5081 b63d
00000180: 382b abbc 4165 cbbc 3aa6 13ba a3e7 f63c
00000190: 014b 0f3e 9528 943b 9a19 1b3d 7682 0bbd
000001a0: bbbc 8e3c 039a 853d 425f 193c 79b2 ad3d
000001b0: f8c6 f83d 7aad b93c f160 c5bd e03d 043e
000001c0: 4a22 cf3d 769a 78bc 8f50 cc3d 1ceb aebd
000001d0: da37 f5bb 8b83 69be 1c79 9abc e8f3 b1bd
000001e0: 55f6 49bc 5469 903d e6c2 c3bb d298 733b
000001f0: c807 ab3c 5d69 a0bc 2b00 613d 1b69 b53d
00000200: e8e7 833d 54f3 36bd 873c 6ebb ef80 c03d
00000210: 9139 583b 9cd6 8c3d 66e4 8a3c 0615 d53d
00000220: 2d3c 813d c397 d0bc 8cab 0a3e e755 3bbd
00000230: cb3f 1fbc 4279 283e 1e31 62bd b8ec 423d
00000240: 142e 59be ea92 18be 9baf 33bd 2efa 48bd
00000250: 48c8 92bc c69d d53d b390 b03c a489 30bd
00000260: c431 a9bc a815 b73e 7f6c f43d 865d 413d
00000270: 3959 7e3d 910b eabc 217b cdbc a652 51bd
00000280: 2ce6 bdbc 36d3 953d 23f2 c5bd 6497 91bd
00000290: 7ff4 9c3c 4f48 d1bc 23d6 89bd 619b 253c
000002a0: 5494 ae3d eb9f a9bb ef74 aeb8 8a2e 68be
000002b0: 5c67 a33d 584b 8dbd 0fd2 cfbc 976a 06be
000002c0: 7b1e c2bd c5c9 05be 208d 653d 42a8 35bd
000002d0: 00d0 57bd 3b2a d93e 5c87 3cbc d200 c83d
000002e0: da19 3b3d 560f 353d 15fc f0bd 6b35 95bc
000002f0: 848a 68bd f79b 29be e7ae 193e c652 813d
00000300: 5806 21be 68a6 b63c 242f 26bd 7d29 7cbd
00000310: 1bb3 3dbd 9e1a 183e 402b 5bbe 800b 69be
00000320: 156a e93a f76c 41bc d3f8 eb3c 51a7 503d
00000330: 5ec8 a0bc 2345 133d e8b1 08bc 2d95 e53e
00000340: f3a2 ba3d 609d 063d 292f cd3d c83b a4bd
00000350: f140 213d 1086 a6bd ab8f f8bc 9c04 363a
00000360: cb17 f7bc 86e8 dbbc 5950 6b3d 7d2a c9bc
00000370: c3a2 cf3c 94dc 1c3b 8474 873d a18c b73c
00000380: 39c8 a1bc 3352 0ebd 5fb7 73be 6340 a03c
00000390: de31 833d 0656 dbbc 05b3 c63d a6ec ab3d
000003a0: 8ea1 bcbc eea6 e63c af0e 293d 8aa1 c53a
000003b0: ee71 b9bd 9aab 553c 3ded 393d a2d4 233d
000003c0: 8355 92bd f860 ecbc 785d 1dbb 9c09 26bd
000003d0: 137a 3a3b 592e 173d 5dd4 203d 6800 303b
000003e0: 02dc 683d 3f8f abbd 490d 13bd f9cd 5d3d
000003f0: 8c50 48be a46b 93bd d696 333d 193d 113d
0.02183722 -0.04721439 -0.014441593 0.042398226 0.007068655 0.0365608 0.0066087553 0.013962557
-0.032292902 0.0048973146 0.036377043 -0.0005552823 0.03548878 -0.01733686 -0.016980398 -0.020788753
-0.010928301 -0.02938404 0.030546673 0.0019596159 -0.0105092665 -0.024791222 0.024123136 0.006809444
-0.0025536167 0.009448609 0.024023898 0.028908 -0.084348164 -0.07518469 0.051287755 0.039955586
-0.051186167 -0.0047652368 0.025846556 -0.020783385 -0.013124063 0.056601852 0.013568755 0.017476596
-0.037141483 0.0014012989 0.024787024 0.03982582 0.05833024 0.015647808 -0.1319687 -0.09229715
-0.064756244 -0.03842992 0.114390224 -0.03424324 0.094266504 0.07048509 -0.29328546 0.098807305
-0.03206349 -0.19660297 -0.011736965 0.0017970164 -0.07237274 0.032468766 -0.0074851857 0.10625199
-0.045979153 -0.07952587 -0.011457759 -0.021987986 -0.014463215 -0.073061176 -0.11612356 -0.14816992
-0.31868735 0.16301297 0.025025588 -0.03971965 -0.02612976 0.12190036 0.010017234 -0.04023119
-0.028496383 -0.10928736 0.0136902165 0.030786943 -0.05807924 -0.0046778396 0.03567651 0.028481206
0.004918122 0.0012135028 -0.1576327 -0.23250367 0.04010905 0.00048681235 0.00041521862 0.08911383
-0.020894632 -0.024828555 -0.00056323747 0.03013975 0.13993455 0.0045214393 0.037866212 -0.034059964
0.017423978 0.06523516 0.00936109 0.084813066 0.12147325 0.022665728 -0.09637631 0.12914228
0.10113962 -0.015173545 0.09976303 -0.08540937 -0.0074834647 -0.22804086 -0.018856578 -0.086890996
-0.012326797 0.0705134 -0.0059741614 0.0037169945 0.020877734 -0.019581491 0.0549318 0.08857938
0.06440717 -0.04466565 -0.0036351995 0.09399592 0.0032993297 0.06876871 0.016954612 0.104044005
0.06310306 -0.02546299 0.13542002 -0.04573622 -0.009719799 0.16452506 -0.055222623 0.047589034
-0.21208984 -0.14899793 -0.043868642 -0.049066715 -0.017917767 0.104304835 0.021553373 -0.043100014
-0.020653613 0.3575871 0.119347565 0.04720833 0.062096808 -0.028569968 -0.025083127 -0.05110421
-0.023181044 0.07315676 -0.096653245 -0.071089536 0.019159554 -0.025547175 -0.067302965 0.010107846
0.08524385 -0.0051765344 -8.318747e-05 -0.22674003 0.079786986 -0.06899136 -0.025368718 -0.13126598
-0.0947847 -0.1306525 0.05604279 -0.044349916 -0.0526886 0.42415032 -0.011506882 0.097657815
0.04567895 0.04420408 -0.11766831 -0.018213948 -0.056772724 -0.16563402 0.15008126 0.06314616
-0.15725076 0.022296146 -0.0405723 -0.061563004 -0.046313386 0.14853904 -0.21403217 -0.22758293
0.0017808104 -0.011805764 0.028805172 0.050940815 -0.019626793 0.035954606 -0.008343197 0.44840375
0.09113111 0.03286493 0.10018761 -0.08019215 0.039368574 -0.08131039 -0.030341944 0.0006943436
-0.030162713 -0.026844274 0.057449672 -0.024556393 0.025346166 0.0023935186 0.066140205 0.022405924
-0.019748794 -0.03474636 -0.2380042 0.019561952 0.06405996 -0.026774418 0.09702114 0.083947465
-0.023026254 0.02815577 0.04127377 0.001507805 -0.090549335 0.013041401 0.045392264 0.039997704
-0.07145216 -0.028854832 -0.002401201 -0.040536508 0.002845411 0.036909435 0.039265025 0.002685571
0.05685044 -0.083769314 -0.03590134 0.05415151 -0.19561976 -0.07198265 0.04384502 0.035458658

conv3.bias f4 [128]
00000000: 8e39 843c 608a 363b 2510 213c 121d 113d
00000010: ebc1 46bd b8d4 a9bd 4ae6 d53b 15f7 d3bc
00000020: 9e2c 343d a554 ac3c 2fa8 55bd 6eac 49bd
00000030: 1552 c8bc f156 84bd 8cf2 383e 96bd b4bc
00000040: bb81 633c 2cf1 f33c cd7b 27bd 567c 6bbc
00000050: 9f2f 1d3c 6e29 91bd 8a87 d83c 6c17 a93d
00000060: 563e 493c 632a 38bd 753f 39bc 1f3b 373c
00000070: 759c 12bd 7bfd 873b 403b 2ebd f00c 4e3d
00000080: 6b3b e9bc da2b 1dbd 4e27 5bbc da48 1ebd
00000090: f3aa 9fbb 3c65 21bd 96cd dd3c 5d23 e6bc
000000a0: 4c03 4f3d e247 9bbb ccd7 ec3d 97d5 31bc
000000b0: 4a4d 44bc dd7b d43c 6edb b3bc e537 d73c
000000c0: d789 c0bc 5154 6bbd afb9 ca3c e9b3 d63c
000000d0: 7bae 643d 4e5b 163d 3877 5abd 749b 59bd
000000e0: beb0 8c3c 811a 0bbd 3c44 25bd 09e1 e4bc
000000f0: 1f9b 26bd f83c 88bd 6470 b9bc cbe0 e93b
00000100: 5380 c03c 5f9a 8ebc 14f9 a6bc c3c6 293d
00000110: bda5 103c 543d 91bd ef86 703b 596f 583c
00000120: 7c2b 43bd b018 a0bd f1c1 bbbc 0747 3a39
00000130: de6c d03c b98b febc 1404 1ebd 9308 a23b
00000140: 6aed 233d 3a68 cb3b 7711 24bd 8546 15bb
00000150: 1db1 5a3c 0d8f 143b 113f 83bd b963 1d3e
00000160: 6227 b33b a714 863d cadf 3abd 1fff cb3b
00000170: 8284 47bd a565 283d 65e4 c7bc 6367 933d
00000180: 5080 cebc dcb9 34bb 1e8f 59bc ca1a 56bd
00000190: 23e1 8cbd 525b 90bd a7e0 023e 8d91 99ba
000001a0: 5f60 653c de4a 353c 1b66 bd39 4c5c 603c
000001b0: 980d 6fbd ecc9 1f3e d774 19bd 3be8 d13d
000001c0: a2be 46ba aa9d fabc 5466 efbc 468a 0a3c
000001d0: 3dc4 ccbd 13d0 82bc fbac 27bd b955 65bd
000001e0: 490d 7abc 0b6b 8abc c35a 3d3c adde 11bd
000001f0: eea7 b8bc 55be 82bb ac9a e6bd f824 043d
0.016140725 0.0027853474 0.009830509 0.035428114 -0.04852478 -0.08292526 0.0065276967 -0.025874654
0.043987863 0.021036455 -0.052162345 -0.049236707 -0.024453202 -0.06461895 0.18061274 -0.022063058
0.013885911 0.029778086 -0.04088955 -0.014372906 0.009593873 -0.0708798 0.026431818 0.082564205
0.012282928 -0.044962298 -0.011306633 0.011183529 -0.03579374 0.0041500903 -0.042536974 0.050305307
-0.028470716 -0.0383719 -0.01337607 -0.038643695 -0.0048726737 -0.039403185 0.02707557 -0.028093034
0.050540254 -0.0047387937 0.115645975 -0.010854146 -0.011981318 0.025937969 -0.021955218 0.02627177
-0.023503227 -0.057453457 0.024746744 0.026208835 0.05583046 0.03670817 -0.053336352 -0.053126767
0.017174121 -0.033960823 -0.040348276 -0.027939336 -0.04067528 -0.06652254 -0.0226366 0.007137393
0.02349869 -0.017407594 -0.020382442 0.04144932 0.008828578 -0.070917755 0.003670152 0.013210141
-0.04764889 -0.07817209 -0.022919627 0.00017764802 0.025442537 -0.031072484 -0.038578108 0.00494487
0.040021338 0.006207493 -0.04005572 -0.0022777629 0.013347891 0.0022668273 -0.06408513 0.15370072
0.0054673413 0.06546908 -0.045623578 0.006225481 -0.048710354 0.04111256 -0.0244009 0.07197454
-0.025207669 -0.00275766 -0.013278751 -0.05227164 -0.06878879 -0.07048668 0.1278101 -0.0011716351
0.014000027 0.011065213 0.00036124964 0.01369388 -0.058362573 0.15604371 -0.037464943 0.102493726
-0.0007581507 -0.030592758 -0.029223599 0.0084558185 -0.09998367 -0.015968358 -0.04093645 -0.055989955
-0.0152619565 -0.016896745 0.011557284 -0.03561275 -0.022541013 -0.0039899745 -0.1125997 0.03226182

fc1.weight f4 [128, 128]
00000000: d0e2 9a3b 748d 49bd b67f bb3d ab14 743c
00000010: d983 3cbc 3caa 1e3d ce18 7d3d 94d6 7a3d
00000020: 2767 4ebd 3411 3f3b 0df7 9d3d 9bbb 883d
00000030: 8110 80bd 9e89 8b3d f522 443d 8a97 a33d
00000040: cc74 05bd 9db2 f1bb 6b0d dd3c 5218 8d3c
00000050: 2e44 97bd a52f c9bd 94a2 78bd 6ae0 723d
00000060: a5cb bcbd 8786 bc3d ecd7 473d 8c89 b3bd
00000070: 7a87 a03d 31fc 763c 3c6c ed3c 8a99 36bd
00000080: 7497 4b3d 1e94 abbd 02b0 2ebd 7b89 e43d
00000090: 13bf adbd 8b95 cd3c 37db 06bd 570d ba3c
000000a0: 38e1 5d3d 6921 94bd c62a d13d 44d3 3fba
000000b0: 8c2c 10bd f81b aa3d df75 28bd eeae 55bd
000000c0: 3d08 ad3d c9b9 bdbc 9c2b 53bc ce69 90bc
000000d0: 61e5 80bd cfdc 6a3d 5f79 d33d 4acb 5b3c
000000e0: 87dd e93c 3c97 503d 85bc 86bd 0aac 8abd
000000f0: ee29 ae3b 5170 ae3d d224 3c3c 774d 59bd
00000100: 5e14 a1bd 36e2 92bc 9dc6 db3b 12b0 c73c
00000110: 030e bd3d a07a 02bc ad46 9bbb c377 f1bc
00000120: 489d 663d 7f41 5c3d af74 923c 6118 0ebd
00000130: 2939 ec3c 8f41 12bd f686 3f3d 1c8f e43c
00000140: 8c22 173e 1107 77bc e4f8 403d 0934 ad3d
00000150: 93bf c83d ef68 3f3d 4143 1dbd 7c12 b23c
00000160: cea7 603b 49d7 f6bc 0fce 8d3d 1c60 303c
00000170: 1db5 393c 1f2f 92bd f69d 7dbd f35c 873c
00000180: 60db f63c f922 f23d 2cd3 3d3d 4fa0 303d
00000190: 91ec 5b3c fdf9 66bc 88f4 3cbd 3323 b4bd
000001a0: f36c bcba 707c b6bc b036 cc3d 700a 82bb
000001b0: f44d b53d 1d28 3cbc e2a2 743d 961a 483d
000001c0: 2a81 e53d 59e8 c13d ca2e 823d 5286 c73c
000001d0: efbb b43c 43b1 8a3d 7bfc 413d 1bfd 6abc
000001e0: 87c4 b73c 5fb0 4cbd 575b debc 8816 aebd
000001f0: 6465 453e 7286 33bd 8a13 a23d 9b02 7bbd
00000200: 7c3f 763c 5a42 a2bd 2490 3ebc 9e59 54bd
00000210: 74b9 983d c73b 59bd d153 d73c 8987 d13c
00000220: 3cb1 093d 19f0 4f3d 0787 a73d 5794 833d
00000230: bc57 3ebd 9f11 433d 2d50 ccbd 06ee bbbc
00000240: 39ef 983c 65f5 573c aeee b5bd fb3c 163c
00000250: 3990 31bb 2805 0abd 439d 223c 4ab0 a6bb
00000260: 2433 0dbd 0352 73bd 95d6 79bc 8b78 06bd
00000270: 5368 b9bd 9f21 7bbd d437 393d c81e 8cbd
00000280: 5dab c8bd 774b 403d 6e35 9e3d 681c b83c
00000290: 9fb1 5a3c 40e8 dc3a b769 513d 8671 d23b
000002a0: 7aab 79bd e65b 503c 55a6 61bb 22bb 463d
000002b0: f1eb 9d3c 4a9c 883c d0b5 553d 92d5 123c
000002c0: d3f2 c9bc f353 483d 2ba7 813d 6c85 aabc
000002d0: efcf e63c 8cad 0ebd b250 f33c ba21 61bd
000002e0: a33f 80bd 155b 763b 3e2f c7bc 42e0 8ebd
000002f0: d9cd d63c bb94 d8bb 11b9 22bd 0aa8 3c3d
00000300: 0e7c 1d3d b56c 99bd 9188 1dbd dfb1 9bbd
00000310: 56a0 5abd e984 9bbc 67ea a0bd d7ff a2bd
00000320: 056e b9bd b2ff af3b 4628 67bd 6b01 08bd
00000330: 4407 d53c 90b1 a4bd a6e5 8cbb 5bdb b9bd
00000340: 1403 c1bd aeee 6cbd 6bec 8dbd f131 953d
00000350: b7c7 30bc 3bf4 a6bd be08 a23c a578 3cbd
00000360: 2ff4 683d 475f 313d e7cd dcbb e0a1 33bd
00000370: 75ab 92bb 3661 02bd 763c 0f3d ec89 7dbd
00000380: 93e8 a6bd 7444 cdbc b3d3 213c 7cdc 90bd
00000390: 9334 5e3d f240 69bb c001 0a3d 5f27 6f3d
000003a0: 3d80 9e3c ea2c 28bd 40ca 243d 3759 933d
000003b0: 06ac bbbd cba9 303d 0386 12bd 6ce8 d3bd
000003c0: 97c3 96bd 5d66 d6bb 55df 9abd d52d 7ebb
000003d0: 74de aebd 3f12 853d 647b a13d 727e 14bd
000003e0: da7f 98bd dae8 84bb bb9c 64bd 8598 e6bc
000003f0: 1d80 b0bd 7fd7 afbc 35b7 4f3d d854 443d
0.004726745 -0.049207166 0.09155218 0.014897506 -0.011506044 0.038736567 0.061791234 0.061239794
-0.050391342 0.002915454 0.07713137 0.06676408 -0.06253148 0.06813358 0.0478849 0.07987888
-0.03258209 -0.0073760287 0.026983937 0.01722351 -0.07386051 -0.098235406 -0.06070192 0.05929605
-0.092185296 0.092053466 0.048789904 -0.08766469 0.0783834 0.015074776 0.028982274 -0.04458002
0.049704984 -0.083778605 -0.042648323 0.11159035 -0.0848371 0.025095722 -0.032923903 0.022711439
0.054169863 -0.07232935 0.102132365 -0.0007317553 -0.035198733 0.08306116 -0.041128036 -0.05216878
0.08448837 -0.023159878 -0.012888815 -0.017628577 -0.062937506 0.057339486 0.10325884 0.013415167
0.028548015 0.05092548 -0.06578926 -0.06771095 0.005315057 0.085175164 0.011483388 -0.05305239
-0.07865213 -0.017930131 0.006707026 0.024375949 0.09231188 -0.007963806 -0.00473865 -0.029476052
0.05630234 0.0537734 0.017877905 -0.03469122 0.02883585 -0.035707053 0.04675957 0.027900271
0.14759272 -0.015077368 0.04711236 0.084571905 0.09802165 0.04673093 -0.038394216 0.02173733
0.0034279707 -0.030131953 0.06924068 0.010765102 0.011334685 -0.07137894 -0.06191822 0.016523814
0.030133903 0.11823077 0.046343967 0.043121632 0.013423101 -0.014097688 -0.04613164 -0.08795776
-0.0014375731 -0.022276133 0.09971368 -0.0039685294 0.08852759 -0.011484173 0.05972565 0.04885348
0.11206277 0.09468145 0.063565806 0.024356041 0.02206227 0.06772091 0.047359925 -0.014342572
0.022432579 -0.049972888 -0.027143164 -0.08500391 0.19276959 -0.04382939 0.07913883 -0.06128178
0.015029784 -0.07922812 -0.0116310455 -0.051843278 0.074572474 -0.053035524 0.026285084 0.025577324
0.03361629 0.050766084 0.08180051 0.06424778 -0.04647039 0.047624227 -0.0997623 -0.022940647
0.018668758 0.013181065 -0.08883415 0.009169812 -0.002709402 -0.033696324 0.009925189 -0.0050869333
-0.0344726 -0.059404384 -0.015248914 -0.032829802 -0.090531014 -0.06131136 0.045219257 -0.068418086
-0.0979831 0.04694697 0.07725035 0.022474483 0.013348012 0.0016853884 0.05112621 0.0064222245
-0.06095455 0.012717223 -0.0034431417 0.048518308 0.019277545 0.016676087 0.052175343 0.008962052
-0.02465192 0.048908185 0.06330713 -0.020815574 0.028175322 -0.034833476 0.029701564 -0.054963805
-0.06262138 0.003759091 -0.024314519 -0.069763675 0.026221203 -0.006609527 -0.039727274 0.046058692
0.038448386 -0.07491437 -0.038460318 -0.076022856 -0.053375565 -0.018984275 -0.07857209 -0.07958954
-0.09054188 0.0053710574 -0.056434892 -0.033204477 0.026004441 -0.0804168 -0.004299837 -0.09075042
-0.09424415 -0.05784481 -0.06929859 0.07284916 -0.010789803 -0.08152052 0.01977956 -0.046013493
0.056873497 0.043303754 -0.0067384127 -0.043855548 -0.0044760057 -0.03183099 0.03496977 -0.06189911
-0.08149829 -0.025057055 0.009877133 -0.07073304 0.054249357 -0.003559169 0.033693075 0.058387157
0.019348258 -0.04105846 0.040231943 0.07194751 -0.0916367 0.043130677 -0.035772335 -0.10347065
-0.073615246 -0.0065429644 -0.075621285 -0.0038784642 -0.08538523 0.06497621 0.07884863 -0.0362534
-0.07446261 -0.0040560784 -0.055813532 -0.028148899 -0.08618186 -0.021465061 0.05071183 0.047932476

fc1.bias f4 [128]
00000000: 9527 713c 2ca9 db3c e614 fe3b 6292 c8bd
00000010: 1236 ccbd dd40 d23d 11fa 62bd e153 463c
00000020: 0e2a 6b3d de04 373d 8f11 a8bd 0f38 463c
00000030: 1855 84bd 33d9 073d a46c 923d 7d63 743d
00000040: 8db8 1e3d f2c7 6a3d d210 083e 32b6 dabc
00000050: 8867 493d f579 a8bd 68fa ad3d 5601 4e3d
00000060: 0e61 1c3d 13ee 9ebd 6f96 c7bd 74d4 853d
00000070: b845 3abd c3a3 b83d 18b6 d9bd 4983 cc3b
00000080: eeea d63d ecb9 93bd 7f8e c5bd b530 b3bd
00000090: 6db2 823b 03ff afbd 250f a7bd d122 8d3d
000000a0: 8698 de3c 00be 71bd 2f70 a03d 2d20 763d
000000b0: 2721 2c3d cf71 3b3d 6002 833d 4ad2 8e3d
000000c0: 3230 9a3d 0f35 f03d 70fc 4c3d 01e5 f0bd
000000d0: e7a9 b63d b2d4 c9bb 38fd 6bbe f15c d7bd
000000e0: 5b05 ea3c f699 8ebd 3bc3 5c3d 2022 f83c
000000f0: 3e39 fb3c 0280 23bd cfb4 c43d 4aa4 833d
00000100: 7dd2 4e3d 3428 833c d9a3 b33d b143 1d3c
00000110: d64d febc fbd9 d13c a9d6 e63d 6261 e83d
00000120: e46a b4bd 30ed 8bbd a9bc fcbc b9b2 f4bb
00000130: 992e b9bd e96a 91bd e574 053d d9b8 15bd
00000140: 25d7 d03b 9d4d 70bd 9769 8e3d 75d2 e63c
00000150: 81a1 36bc a94e 8c3c 09b7 7d3d 6101 46bc
00000160: 40d7 81bd 6316 34bc 8bdc dd3c 2150 033c
00000170: 157f 643c ee55 803c fc59 ad3d 3680 033d
00000180: 1dd9 cf3d 613b a2bd 107f 423c 8d3f db3b
00000190: 386f 363d 9fbf 073e 6a21 4c3c 8e60 b8bd
000001a0: ace3 6dbb 7165 c83d 8b61 56bc c89f 6e3c
000001b0: 1a18 bd3d 8f12 b5bd c1e2 34be f972 92bd
000001c0: 9fa3 c9bd bc77 d0bc 508f 593d 3ddc 903d
000001d0: 238b 84bc 55c9 933c 1de5 7e3d 25e1 bdbd
000001e0: 25fa ba3b 3984 c2bc 01c2 e83b 6659 2b3d
000001f0: 6dc8 e33c cd01 aabd 0725 8b3d 092c 35bd
0.01471891 0.026814066 0.007753956 -0.09793545 -0.099712506 0.10266278 -0.055414263 0.012104959
0.057413153 0.044682376 -0.08206474 0.012098326 -0.06461543 0.03316612 0.07149628 0.059665192
0.03875022 0.05731959 0.13287666 -0.026698206 0.049171 -0.082263865 0.08495027 0.050294243
0.038178496 -0.07760253 -0.0974549 0.06534663 -0.045476645 0.0901561 -0.10630435 0.0062412363
0.10494028 -0.07213196 -0.096463196 -0.087495245 0.003988555 -0.085935615 -0.081571855 0.06891406
0.027172338 -0.05901909 0.07833897 0.06008928 0.042023804 0.045762833 0.06396937 0.06973703
0.07528724 0.1172887 0.05004543 -0.11762429 0.08919125 -0.0061593885 -0.23045814 -0.10515774
0.028567007 -0.069629595 0.053897124 0.03028971 0.030666944 -0.039917 0.09604799 0.0642782
0.050493706 0.016010381 0.08771486 0.009598658 -0.031042974 0.025616636 0.11271412 0.11346699
-0.0880945 -0.06832349 -0.030851679 -0.0074675945 -0.09042091 -0.071004696 0.032582182 -0.036553238
0.0063733035 -0.058667768 0.069537334 0.028176526 -0.011146904 0.017127352 0.061942134 -0.01208529
-0.06339884 -0.010991666 0.027082702 0.00801471 0.013946314 0.015665974 0.08464429 0.032104693
0.10148833 -0.07921482 0.011871114 0.0066909255 0.04453966 0.13256691 0.012459138 -0.09002791
-0.0036299033 0.097849734 -0.0130847795 0.014564462 0.09233113 -0.088414304 -0.17664625 -0.071508355
-0.09845661 -0.025447719 0.05311519 0.07073257 -0.016179627 0.018040339 0.06223022 -0.092714585
0.005706089 -0.02374469 0.007103205 0.041833304 0.027805531 -0.08301125 0.06794172 -0.04423145

fc2.weight f4 [1, 128]
00000000: 7ea4 363d f6a3 07bd 4955 d7be d9f9 aebd
00000010: fa73 563d 6bc0 273d b284 833d bb68 18bf
00000020: 9f53 853c ba97 bb3c 1819 aa39 a8b3 2bbd
00000030: f1e8 b4bb 2a93 17be 0a90 82be 245d 27bd
00000040: a359 b03e ddcb 153d dc6b b9be 7107 85be
00000050: c12c 3cbd eb2d 33bd e695 843c 83f4 21be
00000060: 50a7 16be 3a5c 76bb 95d9 4ebc f8cd 53be
00000070: 6ec8 fe3b 93c5 923d 2d29 5d3d c11b 88bd
00000080: 5ab1 b03d 6f46 55bd 91d7 f63b dfe0 383c
00000090: 55d2 9cbd b10a 77bd d25b 6b3d 16e5 30bd
000000a0: ab46 c4be f8d8 60be 992c bf3d 3f8f d13d
000000b0: 8c4c eabd 1b7e 5a3d 546b 083d b137 94be
000000c0: 6878 843d bb30 aa3e a76c 89be 473b 24bf
000000d0: 5122 843e abe0 87ba 74b1 19bf 1fc9 d1bd
000000e0: 570a 58bd 0993 7b3a d7d9 6ebc 04ef 38bd
000000f0: 0948 943e d5e7 ddbe edb6 063d e8fe bf3d
00000100: 61a5 46be 5e47 493d a96a bd3d c9e4 08bc
00000110: 7903 b33d 8dc0 b7bd 93ca a9be 2743 c33d
00000120: 866b 613b c568 1dbd ea04 f93b f9a6 9cbe
00000130: 38ac ea3c 4226 9cbb b225 8f3d c474 ffbb
00000140: 3847 733d d6f0 853e 9841 453d 5e6e 543d
00000150: 92f5 00bb 94a9 d93d ceec 64bc 61a4 15be
00000160: 85af 623c 6f10 7e3d fb8a 9fbe 8148 723e
00000170: f3e0 4abc 2a2f 283d 7f1f 25be 296c e2bd
00000180: 5fce 553d 124a 85bd 145d f33e af22 383b
00000190: 7339 8e3d 9bb8 923e 2317 b5be e349 20bc
000001a0: e4b6 443c 6615 b23d c5ce ff3e ce73 aeba
000001b0: 643e 233d 0239 3c3e 56c7 1d3f 5531 23be
000001c0: 8f64 4a3d 5bed eb3e 4891 8ebd 3ecb d53d
000001d0: 16ed 5a3e 4202 fabe cb6a 91be 6ed8 103d
000001e0: 3ae5 b83d 9a6e 843d 5684 c23d 57fc 663d
000001f0: 75f3 96bd 9aca 223c 26c2 9ebd 499a 383e
0.044590466 -0.03311535 -0.42057255 -0.085437484 0.052356698 0.04095499 0.06421794 -0.59534806
0.016275225 0.022899497 0.00032443623 -0.04191938 -0.005520933 -0.14802232 -0.25500518 -0.04086031
0.34443387 0.036571372 -0.36215103 -0.2598224 -0.04594112 -0.043744963 0.016184758 -0.1581593
-0.14712262 -0.0037591592 -0.012625118 -0.2068404 0.007775358 0.071665905 0.053994346 -0.06645919
0.08627577 -0.052069124 0.0075330217 0.011284082 -0.07657305 -0.06031293 0.057460614 -0.043187223
-0.38335165 -0.21957767 0.09334678 0.102324 -0.114403814 0.05334292 0.03330548 -0.2894874
0.06468278 0.33240303 -0.26840708 -0.6415295 0.2580743 -0.0010366639 -0.60036397 -0.10243439
-0.052744236 0.00095968 -0.014578304 -0.045149818 0.28961208 -0.43340936 0.032889295 0.093747914
-0.19399025 0.049140327 0.092488594 -0.008355328 0.08740897 -0.08972273 -0.33162364 0.09534293
0.0034396364 -0.038429994 0.0075994628 -0.3059614 0.028646573 -0.004765303 0.06989612 -0.007795902
0.05939409 0.26160306 0.04815826 0.051863067 -0.0019677621 0.106280476 -0.013972474 -0.14613487
0.013835792 0.06202739 -0.3116072 0.2366047 -0.012382734 0.041060604 -0.16125296 -0.11055786
0.052198764 -0.065082684 0.4753195 0.0028096845 0.06944551 0.28656468 -0.35369214 -0.009783241
0.012006495 0.08695488 0.4996244 -0.0013309659 0.039854422 0.18381122 0.6163229 -0.15936787
0.049412306 0.46079525 -0.06961304 0.10439156 0.21379504 -0.48829848 -0.2840179 0.035362653
0.090280965 0.06466408 0.09497897 0.056392994 -0.073706545 0.009935999 -0.077518746 0.18027605
