chessModel.pth (torch, 169832 bytes, 3 tensors)

weight f4 [50, 832]
0.021505624 0.015021313 0.02684269 0.004431989 0.35339332 0.065791026 -0.0006929599 0.03771807
-0.016697759 -0.0049474575 0.026855912 0.022808388 0.00998288 0.05240568 -0.015746959 0.026570734
-0.017482312 0.018851299 0.06607013 -0.022542592 0.0016725361 0.05200479 -0.00557572 0.021056656
0.025981307 -0.13033885 0.041496616 0.020114945 0.014842552 0.07019997 0.10315518 0.080860324
0.96826226 0.82650566 0.51594627 0.26758772 0.19070093 0.15141283 0.1675398 0.12668562
-0.013976665 0.012580093 -0.014312562 0.02296669 -0.030278493 0.07807977 0.014973491 -0.007355135
-0.02485818 -0.029025847 0.009289501 -0.012093261 0.009870831 0.097828604 -0.027002351 0.032370042
0.06304985 0.020569112 -0.0049332418 0.022896193 0.37531585 0.050592944 -0.011199877 0.07884316
0.27159637 0.2509285 0.22134712 0.2251996 0.23678015 0.34928778 0.2547531 0.25796577
0.30265096 0.31265894 0.24292049 0.24424809 0.29599962 0.37494126 0.35662517 0.35962197
0.30017036 0.3091017 0.22324646 0.25731605 0.30776608 0.32665142 0.35558888 0.33688468
0.2441615 0.32238016 0.2241139 0.2574782 0.2051734 0.31024274 0.3338483 0.31035814
0.18209556 0.20817831 0.19214001 0.17645335 0.16778769 0.20610198 0.19308656 0.18093036
0.13736145 0.15996099 0.13455771 0.1056256 0.111577116 0.12048038 0.16391797 0.12037635
0.10349309 0.13211496 0.09714408 0.092090406 0.071420096 0.15379502 0.09051921 0.08922601
0.119674355 0.08951076 0.115752034 0.10940583 0.14135535 0.121778816 0.13318282 0.09515753
0.20971252 0.17670478 0.22636196 0.24542217 0.21441954 0.21171108 0.25202498 0.20766416
0.21422383 0.20830163 0.14788803 0.21517688 0.1882764 0.22670883 0.19587238 0.23140743
0.23623674 0.08679977 0.20325354 0.19008999 0.25570425 0.20541537 0.13229923 0.210172
0.09995431 0.10677427 0.1485143 0.14360309 0.15032627 0.14752883 0.16807827 0.11021482
0.12422192 0.15390652 0.100376785 0.13223064 0.16837208 0.12688708 0.10509022 0.03783762
0.11123748 0.062149733 0.06386378 0.08210222 0.108944096 0.075679846 0.056320123 0.102638215
0.11054399 0.11425875 0.040405765 0.05548303 0.044147197 0.060678322 0.09657889 0.052879043
0.032488514 0.060844388 0.033469014 0.08398046 0.07613175 0.02897707 0.037947394 0.032875463
0.2518954 0.18465948 0.20786037 0.20542884 0.22515815 0.19777748 0.21013932 0.20996405
0.24559338 0.18459071 0.22364499 0.17348008 0.19965307 0.19507863 0.26000968 0.21806806
0.16538171 0.15862212 0.20276108 0.15895747 0.20907006 0.19336084 0.22804837 0.12873858
0.13387638 0.118255004 0.18997683 0.19251485 0.15459168 0.17779283 0.11533672 0.1672801
0.09297055 0.13431777 0.082469374 0.17605495 0.15794797 0.14465684 0.17263527 0.09409606
0.1273361 0.096182555 0.11698533 0.087987065 0.12779681 0.14136186 0.08267351 0.08789491
0.07577672 0.039017983 0.06050467 0.073011585 0.050760392 0.07711448 0.09603811 0.08997911
0.07932755 0.04998762 0.06761876 0.043733947 0.07643025 0.06912398 0.06467476 0.034978956
00000000: 902c b03c f41b 763c 33e5 db3c 383a 913b
00000010: f8ef b43e 72bd 863d c0a7 35ba 437e 1a3d
00000020: bdc9 88bc 481e a2bb ee00 dc3c a8d8 ba3c
00000030: 3c8f 233c 57a7 563d c4ff 80bc deaa d93c
00000040: 1137 8fbc 0a6e 9a3c c74f 873d 3eab b8bc
00000050: 0039 db3a fa02 553d 88b4 b6bb 027f ac3c
00000060: c0d6 d43c 8c77 05be 5bf8 293d 19c8 a43c
00000070: 2d2e 733c 00c5 8f3d 0643 d33d 199a a53d
00000080: 09e0 773f e095 533f 0e15 043f 4201 893e
00000090: 1b47 433e f70b 1b3e 8e8f 2b3e e0b9 013e
000000a0: 62fe 64bc bc1c 4e3c 3c7f 6abc a424 bc3c
000000b0: 9a0a f8bc 49e8 9f3d 6053 753c 5803 f1bb
000000c0: 62a3 cbbc 9dc7 edbc fe32 183c d022 46bc
000000d0: 44b9 213c 5d5a c83d 0934 ddbc 7396 043d
000000e0: 4820 813d 8e80 a83c 08a7 a1bb cc90 bb3c
000000f0: 6629 c03e 8c3a 4f3d b07f 37bc 8678 a13d
00000100: ae0e 8b3e b379 803e d2a8 623e b99a 663e
00000110: 7f76 723e d9d5 b23e 006f 823e 1714 843e
00000120: 11f5 9a3e d514 a03e 26c0 783e 2c1c 7a3e
00000130: 438d 973e 4df8 bf3e 9397 b63e 5f20 b83e
00000140: eeaf 993e 9442 9e3e b89a 643e eebe 833e
00000150: 8493 9d3e db3e a73e bf0f b63e 267c ac3e
00000160: 7905 7a3e 030f a53e 1d7e 653e 2fd4 833e
00000170: fa18 523e 23d8 9e3e 2aee aa3e 43e7 9e3e
00000180: 4277 3a3e b22c 553e 5ac0 443e 30b0 343e
00000190: 89d0 2b3e 660c 533e 7cb8 453e cf45 393e
000001a0: 7ba8 0c3e d0cc 233e 7fc9 093e 3c52 d83d
000001b0: 8b82 e43d 6bbe f63d 1dda 273e e087 f63d
000001c0: 2ff4 d33d 2549 073e 7af3 c63d e599 bc3d
000001d0: b344 923d 717c 1d3e 2362 b93d 20bc b63d
000001e0: d417 f53d 6b51 b73d 670f ed3d 2a10 e03d
000001f0: 75bf 103e 2c67 f93d 1461 083e f3e1 c23d
00000200: e1be 563e 19f2 343e 6ecb 673e f34f 7b3e
00000210: cc90 5b3e caca 583e 6b09 813e eaa5 543e
00000220: 7e5d 5b3e 064d 553e f66f 173e 5457 5c3e
00000230: 87cb 403e 5c26 683e c592 483e 12f6 6c3e
00000240: 0be8 713e 14c4 b13d b221 503e f3a6 423e
00000250: abeb 823e 6858 523e 7379 073e 5437 573e
00000260: d8b4 cc3d 78ac da3d 2214 183e b00c 133e
00000270: 21ef 193e cc11 173e b61c 2c3e 4fb8 e13d
00000280: 1068 fe3d ac99 1d3e 5892 cd3d 7867 073e
00000290: bb69 2c3e b0ee 013e 8b39 d73d 9ffb 1a3d
000002a0: 7ad0 e33d b890 7e3d 03cb 823d 3525 a83d
000002b0: 151e df3d 09fe 9a3d eeaf 663d fc33 d23d
000002c0: e364 e23d 7e00 ea3d 8480 253d 2c42 633d
000002d0: b1d3 343d d589 783d 27cb c53d b297 583d
000002e0: ad12 053d f737 793d ce16 093d f3fd ab3d
000002f0: f7ea 9b3d 5261 ed3c ba6e 1b3d 6ca8 063d
00000300: 6ff8 803e 6017 3d3e 59d9 543e f05b 523e
00000310: dc8f 663e 2e86 4a3e c32e 573e d100 573e
00000320: d57c 7b3e 5905 3d3e 3103 653e c3a4 313e
00000330: db71 4c3e b1c2 473e fd1f 853e 3c4d 5f3e
00000340: d359 293e d66d 223e 9aa0 4f3e bfc5 223e
00000350: 7616 563e 6200 463e 8385 693e 0cd4 033e
00000360: e416 093e ae2f f23d 4989 423e 9d22 453e
00000370: 484d 1e3e 530f 363e a935 ec3d 794b 2b3e
00000380: 5867 be3d 998a 093e b4e5 a83d c047 343e
00000390: 1dbd 213e ec20 143e 4dc7 303e 6fb5 c03d
000003a0: 6564 023e 5cfb c43d 0196 ef3d 9032 b43d
000003b0: 2bdd 023e 2ac1 103e bb50 a93d 3f02 b43d
000003c0: d330 9b3d 52d1 1f3d bfd3 773d 1987 953d
000003d0: 21ea 4f3d 32ee 9d3d a1af c43d f846 b83d
000003e0: 7c76 a23d d2bf 4c3d b47b 8a3d 5e22 333d
000003f0: 7787 9c3d e090 8d3d 3374 843d 1846 0f3d

bias f4 [50]
0.3922508 0.46100825 0.3719648 -0.0130454395 0.45376727 0.40465212 -0.042459898 -0.034163304
-0.0100340685 0.4485162 0.500805 0.41621634 -0.04065824 0.445953 0.43321854 -0.018469218
-0.0038278531 0.43118188 0.47699767 0.40645397 0.35399485 -0.032445148 0.01280891 0.49940762
0.48720118 0.38515815 -0.03174798 -0.00090846716 -0.01501825 -0.03247261 0.42039785 0.013341786
0.37855625 0.012191151 -0.031658936 0.4252386 -0.026414538 0.42796117 -0.012080075 0.41050094
-0.0016929279 0.42646164 0.40158126 1.7368442 -0.014552396 -0.010034227 0.47984493 0.40045178
-0.01084711 2.0571206
00000000: 19d5 c83e 4609 ec3e 2c72 be3e 8abc 55bc
00000010: 2f54 e83e 902e cf3e 6eea 2dbd d2ee 0bbd
00000020: ef65 24bc eaa3 e53e c234 003f 4f1a d53e
00000030: 4189 26bd f453 e43e d2ce dd3e c24c 97bc
00000040: b8dc 7abb dfc3 dc3e 0a39 f43e bc1a d03e
00000050: d03e b53e 34e5 04bd 76dc 513c 5bb2 ff3e
00000060: 6f72 f93e 7333 c53e 2b0a 02bd 3326 6eba
00000070: 1b0f 76bc 0002 05bd 633e d73e 8297 5a3c
00000080: 20d2 c13e 65bd 473c cdac 01bd e0b8 d93e
00000090: 4d63 d8bc ba1d db3e 82eb 45bc 2e2d d23e
000000a0: 3ce5 ddba 2e59 da3e 0f9c cd3e e950 de3f
000000b0: 2c6d 6ebc 9966 24bc 3cae f53e 0408 cd3e
000000c0: 14b8 31bc dda7 0340

weight f4 [1, 50]
0.37148628 0.32527104 0.36862057 -0.029610062 0.346536 0.4082566 -0.05899297 -0.09234845
-0.023463987 0.335234 0.2952201 0.35226008 -0.050053757 0.34333837 0.35231534 -0.013111034
-0.075431086 0.3270544 0.31309822 0.34492296 0.4074876 -0.10599325 -0.07086433 0.30236763
0.30939132 0.3786664 -0.03165198 -0.0035501793 -0.061914697 -0.047931336 0.36709 -0.10515885
0.35931003 -0.1148544 -0.047815315 0.3362081 -0.031208241 0.33266678 -0.049945053 0.37681547
-0.0615948 0.365213 0.38255924 1.1032109 -0.012958269 -0.13299537 0.303484 0.35130626
-0.008456422 2.2331913
00000000: 7333 be3e ed89 a63e d6bb bc3e cd90 f2bc
00000010: 2b6d b13e 0207 d13e 9da2 71bd 2f21 bdbd
00000020: 8c37 c0bc caa3 ab3e 1727 973e 6f5b b43e
00000030: 2b05 4dbd 0cca af3e ad62 b43e aacf 56bc
00000040: 9d7b 9abd ad73 a73e 694e a03e be99 b03e
00000050: 37a2 d03e fd12 d9bd 5121 91bd eecf 9a3e
00000060: 8a68 9e3e 90e0 c13e 82a5 01bd 20aa 68bb
00000070: 449a 7dbd a653 44bd 38f3 bb3e 865d d7bd
00000080: 7cf7 b73e c938 ebbd fed9 43bd 7823 ac3e
00000090: 6da8 ffbc 4d53 aa3e 2f93 4cbd f5ed c03e
000000a0: d44a 7cbd 33fd ba3e cede c33e 0436 8d3f
000000b0: eb4e 54bc f02f 08be 4162 9b3e 6ade b33e
000000c0: ce8c 0abc 9bec 0e40
