chessModel.pth (torch, 169832 bytes, 3 tensors)

weight f4 [50, 832]
000000 4f 39 7c 3d 1e a9 b4 3c 2d f9 85 3b 4e 0d f7 3c
       0.06157809 0.022053298 0.004088542 0.030157711
000010 4e fe 4c 3f de cb ab 3c 40 ec f6 3a 54 33 ae bb
       0.8007554 0.020971235 0.0018838719 -0.0053161774
000020 08 7f 2e bc b0 c9 ca 3b d6 b4 86 bc 00 a8 d0 38
       -0.010650404 0.006188594 -0.016443651 9.949505e-05
000030 f6 81 f9 bc c6 f6 d4 3c 62 59 d4 3c 46 8a a6 bc
       -0.030457478 0.025996577 0.025921527 -0.020329606
000040 64 ac cb 3c d3 a4 01 3d 25 ce 73 3c 60 c0 39 3c
       0.024862476 0.03165133 0.014880692 0.01133737
000050 c0 70 fb 3b 86 25 85 bc 04 99 e4 bb 62 f9 fb 3c
       0.007673353 -0.016253244 -0.0069762487 0.030758563
000060 1c 5b 03 bd 25 06 c7 bc 11 0f 5d bc 60 e1 d3 3d
       -0.03206931 -0.024294922 -0.013492362 0.10345721
000070 fb 9f 91 3c cf 21 78 3c a4 31 55 3c 50 c1 45 3d
       0.01777648 0.015144779 0.0130123235 0.04828006
000080 49 f6 25 3e cd 89 7d 3e 27 a5 72 3d 43 71 7f 3d
       0.16207232 0.24759598 0.059239533 0.062363874
000090 cd a2 94 3d 44 4f b8 3d f4 b1 86 3d 8a 98 74 3d
       0.07257614 0.08999494 0.065769106 0.059715785
0000a0 c4 8c 00 bc 53 d3 82 bc b2 f1 92 3c 5c 18 c0 3c
       -0.007846061 -0.015969908 0.017937515 0.023449115
0000b0 fc 3e 9a bb e2 ea ed 3c ea 4e 04 bc c2 1b af 3c
       -0.0047072154 0.029042665 -0.008075455 0.02137554
0000c0 1e 78 b9 3c 10 05 46 3b 1e 49 bd 3c d7 42 05 3d
       0.022640284 0.003021542 0.023106154 0.032534447
0000d0 7a a5 66 bc 0b b2 5a 3d 4f fa 03 3d 50 a9 c1 3b
       -0.014077539 0.05339245 0.032221135 0.005910076
0000e0 04 2b 0d 3d 14 c8 f0 bc 5b db 81 bc 98 a0 d8 3c
       0.03446485 -0.02939228 -0.015851667 0.026443765
0000f0 ba cf 53 3f 92 52 a2 3d 3a 21 f0 bc 22 eb b1 3c
       0.8273884 0.07925905 -0.029312719 0.021718565
000100 a7 c6 fe 3d 50 40 dc 3d 58 91 e4 3d c2 f8 18 3e
       0.12440234 0.10754454 0.111605346 0.14938644
000110 2e 17 e5 3d 31 59 fb 3d 57 3f 43 3e e7 c8 38 3e
       0.11186062 0.12272871 0.19067131 0.18045388
000120 29 a0 32 3e 86 72 4c 3e 0c 07 49 3e 8b 9d 0e 3e
       0.17443909 0.19965562 0.19631594 0.13927285
000130 a9 13 27 3e c3 43 40 3e c1 66 2e 3e fe 3b 49 3e
       0.16316094 0.18775849 0.17031385 0.19651791
000140 f4 07 3b 3e 55 6e 0a 3e 27 bf c4 3d 77 08 10 3e
       0.18264753 0.13518651 0.09606772 0.14065729
000150 0e 39 30 3e 1f 72 e7 3d 09 52 43 3e a6 72 21 3e
       0.17209265 0.11301064 0.19074263 0.15766391
000160 2d 56 f9 3d 6b ed 02 3e 41 10 02 3e fa 95 c5 3d
       0.1217464 0.1278588 0.12701513 0.096477464
000170 63 b3 c0 3d 3c d0 1f 3e b3 b7 17 3e ef f0 c1 3d
       0.09409215 0.15606779 0.1481617 0.094697826
000180 11 b8 14 3e 49 8f 1a 3e 5f 96 ee 3d 05 4d 05 3e
       0.14523341 0.15093721 0.11649775 0.13017662
000190 b7 61 0c 3e a7 8d fe 3d 2b 43 dc 3d 38 32 b0 3d
       0.1370915 0.12429362 0.10754999 0.086033285
0001a0 74 fc 05 3e de c7 bb 3d 58 11 06 3e 97 ca ac 3d
       0.13084584 0.09168981 0.13092554 0.084370784
0001b0 e0 15 a9 3d f7 79 fd 3d 8f 2d 95 3d 46 32 fa 3d
       0.082561255 0.123767786 0.0728408 0.1221662
0001c0 4b 67 5a 3d 0a cd 5b 3d 30 f9 a7 3d 68 fa ac 3d
       0.053321164 0.053662337 0.082018256 0.08446199
0001d0 dd 79 b8 3d 16 5a b2 3d 64 21 71 3d f8 e5 ba 3d
       0.090076186 0.08708589 0.058869734 0.09125894
0001e0 70 2d cb 3d 19 83 77 3d f3 d0 f0 3d 79 56 d3 3d
       0.09920776 0.06042776 0.11758604 0.10319228
0001f0 d5 7b b8 3d 53 f9 bf 3d 57 af 95 3d 7d 2f c7 3d
       0.09007994 0.09373727 0.07308834 0.097258545
000200 7e 00 84 3d 86 03 c3 3d 7f 74 cd 3d 1b e1 a4 3d
       0.064454064 0.095221564 0.100319855 0.08050748
000210 de a0 d5 3d fe 81 a6 3d 7a 8f d1 3d bf 57 0c 3d
       0.104310736 0.08130263 0.10232444 0.03426337
000220 60 f9 00 3d bb 70 e1 3d 32 70 86 3d 68 7e ce 3d
       0.031487823 0.1100783 0.06564368 0.10082704
000230 16 ef a9 3d 62 2f 2b 3e 8c 91 c3 3d 9d 2a 67 3d
       0.08297555 0.16717294 0.09549245 0.056437124
000240 35 fa 62 3d f1 2f ac 3d b5 94 e8 3d 4d 60 bf 3d
       0.055414397 0.084075816 0.113564886 0.0934454
000250 e8 10 ed 3d 4b ca f2 3d 88 4b 70 3d a5 c6 68 3d
       0.1157549 0.118549906 0.058665782 0.056830067
000260 ff 54 a0 3d aa 46 2d 3d 6e 89 67 3d cd bb c0 3d
       0.07828712 0.04230372 0.056527548 0.0941082
000270 f2 58 7d 3d 0a 16 0d 3e 4b 80 c8 3d 7b ba 99 3d
       0.061852403 0.13777938 0.09790095 0.075062715
000280 4c 4e 33 3d a7 e5 bc 3d 4b 0c c3 3c 8b db bb 3d
       0.04377584 0.0922349 0.023809573 0.09172734
000290 6f db 89 3d a7 26 88 3d 11 3a 09 3d 54 33 13 3d
       0.06731307 0.06647997 0.033502642 0.035937622
0002a0 6c 40 ee 3c 4d 78 81 3d 62 4d 97 3d d3 3d 0f 3d
       0.029083453 0.06321774 0.073878065 0.03497107
0002b0 d0 91 54 3d 3b 59 6d 3d ad 92 5b 3d b9 f3 47 3c
       0.05189687 0.057946425 0.053606678 0.012204104
0002c0 1a cf 20 3d 82 0d 98 3d 88 57 21 3d 90 1b 3a 3d
       0.039260007 0.074244514 0.039390117 0.045436442
0002d0 d9 72 d2 3c 2b a4 28 3d 8c 3c 73 3d 24 36 61 3c
       0.02568953 0.041172188 0.059383914 0.013745818
0002e0 8e 5b 14 3c 1c fd 46 3d 75 7a a0 3d e9 67 44 3d
       0.009055031 0.048581228 0.07835857 0.04795066
0002f0 07 b1 fd 3c 0f 4a f0 3c 3c 0e 8b 3d 12 35 79 3d
       0.030968202 0.029332189 0.06789824 0.060841627
000300 6c d4 5f 3d 7e 6e 2a 3d aa fe bb 3d e3 6c 69 3d
       0.05464594 0.04160928 0.09179433 0.056988608
000310 6d a9 71 3d e9 8b cb 3d e8 79 3f 3d 91 9a 12 3e
       0.058999468 0.09938795 0.04674712 0.14316775
000320 21 e2 1c 3d 14 44 0a 3e 27 30 da 3d 84 06 f7 3d
       0.03830159 0.13502532 0.106537156 0.1206179
000330 db 80 e0 3d 18 89 4a 3d e1 82 c1 3d e1 cf 03 3d
       0.10962077 0.04944715 0.09448791 0.03218067
000340 70 a8 fd 3d 1e 0c be 3d c2 c3 ae 3d c1 65 e8 3d
       0.123856425 0.09279655 0.085334316 0.11347533
000350 09 6b c8 3d a5 d5 b8 3d a1 06 e5 3d a3 01 b1 3d
       0.0978604 0.090251245 0.11182905 0.0864289
000360 b5 0f d0 3d cd a2 e6 3d 74 95 f8 3d 45 b6 ed 3d
       0.10159246 0.112615205 0.12137881 0.11607031
000370 e7 98 e9 3d 0d b2 09 3e 04 95 39 3d 43 dd e2 3d
       0.11406117 0.13446827 0.045308128 0.110773586
000380 b0 64 bf 3d f6 18 ce 3d 63 8a 7e 3d 2f 80 7c 3d
       0.093453765 0.10063355 0.062143695 0.061645683
000390 6b 64 00 3e 64 6e 89 3d 96 a2 fd 3d 0a 9e 4d 3d
       0.12538306 0.067105085 0.123845264 0.050199546
0003a0 93 15 38 3d 29 29 db 3d 0e 1b 1f 3d d8 0f f8 3c
       0.04494245 0.1070121 0.03884416 0.030280992
0003b0 5b 41 b0 3d 0a 7d ef 3d 01 86 9b 3d 28 c6 ff 3c
       0.086062156 0.11693771 0.075939186 0.031222418
0003c0 a0 fc 49 3d 8e ff e6 3c ba 93 ab 3c 00 ca 6a 3d
       0.049313188 0.02819803 0.020944465 0.05732155
0003d0 44 02 7b 3d 0b 9a 12 3d 59 06 9c 3c c7 06 b7 3d
       0.061281458 0.035791438 0.019045996 0.089368396
0003e0 08 db 23 3d 70 db 89 3d b8 ab 93 3d 79 4a c1 3c
       0.040003806 0.067313075 0.07210487 0.023595082
0003f0 0a 1d c3 3d bc ef 65 3d 3d 6f da 3c d2 a1 62 3d
       0.09527023 0.05613683 0.02666437 0.055330105

bias f4 [50]
000000 0b a3 57 3f 9b c4 68 3f 7e 70 52 3f f6 5b ae bd
       0.8423316 0.90924996 0.822029 -0.08513634
000010 77 a4 59 3f 15 6f 5c 3f 55 c7 79 3f 6c 96 ad bd
       0.8501658 0.86107 0.9756978 -0.08475956
000020 f9 6c 6d 3f 00 60 58 3f 37 a0 6e 3f a1 f6 45 3f
       0.92744404 0.84521484 0.9321322 0.7732945
000030 10 ef 88 3f 81 b8 be 3d 7e ae 7c 3f c2 a5 54 3f
       1.0697956 0.09312535 0.98703754 0.83065426
000040 f8 00 6e 3f 71 9a c4 3f f7 5d ac bc 07 48 31 be
       0.9297023 1.5359632 -0.0210409 -0.17312633
000050 a5 13 4d 3f 0f 3e 45 3f 79 14 40 3f bd a9 af 3b
       0.801081 0.7704782 0.7503124 0.0053608106
000060 4c 4c dd 3c 42 61 51 3f b9 6e 4a 3f d3 9a 80 3f
       0.02701392 0.8178903 0.790752 1.0047249
000070 f6 37 61 be 12 46 5b 3c bf 27 03 bd 83 e1 65 3f
       -0.21994004 0.013383405 -0.032020327 0.8979723
000080 f4 9c 4d 3f c1 67 58 3f c9 ed 7c 3f 45 05 eb be
       0.80317616 0.84533316 0.9880033 -0.45902458
000090 7b 9f 46 3f aa f4 2f bd 33 e8 f3 3f 4f a9 6b 3f
       0.775871 -0.04295794 1.9055237 0.9205522
0000a0 a5 e7 d9 bb d2 0c 59 3f 4c 26 71 3f d7 0e 6f 3f
       -0.0066499286 0.8478519 0.9419906 0.9338202
0000b0 87 96 45 3f 4e 94 05 3d 66 b2 4a 3f 49 0c 61 3f
       0.7718281 0.032612137 0.79178464 0.8790937
0000c0 90 d9 5a 3f aa ed bd 3d
       0.85488224 0.092738464

weight f4 [1, 50]
000000 5d 58 c8 3e db 44 c7 3e 38 c7 da 3e 1a 51 e2 bf
       0.39129916 0.3891972 0.42730117 -1.7681
000010 e7 19 c8 3e 93 b1 bd 3e 3b 2b ab 3e 71 21 cb bf
       0.39082262 0.3704954 0.3343142 -1.586958
000020 02 2b b3 3e 75 ed cf 3e 32 e2 c1 3e cc e5 d8 3e
       0.3499375 0.40610853 0.37867886 0.4236282
000030 a6 a8 c2 3e e6 91 05 c0 30 06 b9 3e 3c 79 d5 3e
       0.38019294 -2.08703 0.36137533 0.41694057
000040 aa 60 bb 3e fe 35 55 3f 19 30 c7 bf e1 e7 bf bf
       0.36597186 0.8328551 -1.5561553 -1.4992639
000050 27 bb d9 3e 79 4c d7 3e 08 6a da 3e 8a 90 8b bc
       0.42525598 0.42050532 0.4265902 -0.017036695
000060 f7 43 00 c0 6f 14 cd 3e 81 0b d7 3e 0d 54 ae 3e
       -2.0041482 0.40054652 0.42000964 0.340485
000070 a2 b8 98 bf c3 6d 08 c0 ac b3 eb bf 4c 8a bc 3e
       -1.1931345 -2.1316993 -1.8414207 0.36824262
000080 dd ef e0 3e 91 9e d1 3e f7 9d b7 3e 49 c3 c0 bf
       0.43933 0.4094129 0.35862705 -1.5059596
000090 1b 35 d9 3e dc 7c b9 bf b6 47 23 40 a8 37 bf 3e
       0.4242333 -1.4491229 2.551252 0.3734715
0000a0 c3 53 dd bf 8b 0e c5 3e f5 77 ae 3e 54 31 bb 3e
       -1.7291187 0.38487658 0.34075895 0.36561072
0000b0 39 c8 d4 3e a5 ea d1 bf a5 63 db 3e b5 ce bb 3e
       0.41559008 -1.6399733 0.4284946 0.36681142
0000c0 ba fd cb 3e 86 3c f2 bf
       0.39842016 -1.892472
