Game Loop final - capitolul 7/runs/position_evaluation/train5/chessModel.pth (torch, 454946 bytes, 9 tensors)

conv1.weight f4 [32, 13, 3, 3]
0	0xbd19106b	-0.037369173
1	0xbd68a121	-0.05679429
2	0x3db64c15	0.0890123
3	0x3d04f668	0.032461554
4	0x3d9d35fe	0.07676314
5	0x3d4f1842	0.050560243
6	0x3d521e4d	0.05129843
7	0xbbe8c48d	-0.007103509
8	0xbcd99ad2	-0.026563082
9	0xbc230ed7	-0.009952269
10	0x3de66849	0.112503596
11	0x3dcbb3bf	0.09946393
12	0xbdacf495	-0.08445088
13	0xbdaf40cf	-0.08557283
14	0xbda68d8c	-0.08132467
15	0x3cb7eedc	0.022452764
16	0xbd63e6d1	-0.055640046
17	0x3d0a38af	0.033745464
18	0xbd327ffc	-0.043579087
19	0x3d80da4e	0.06291638
20	0xbdce25f8	-0.10065836
21	0x3d725a13	0.059167933
22	0x3dace8d3	0.08442845
23	0x3d8c6f7f	0.06857204
24	0x3cf750a0	0.030189812
25	0xbd279bc5	-0.040920038
26	0xbca1711b	-0.019707253
27	0xbd8cfb57	-0.06883877
28	0xbb93096c	-0.004487207
29	0x3d091222	0.03346456
30	0xbd7fcfe5	-0.062454123
31	0x3b68b403	0.0035507686
32	0xbb8fc931	-0.0043879976
33	0xbc969e7a	-0.018386114
34	0x3ce4a278	0.027909502
35	0x3c6e9f4b	0.014564346
36	0xbd12c13e	-0.03582882
37	0x3d019543	0.031636488
38	0x3cc48688	0.02398993
39	0xbc3927d7	-0.011301002
40	0x3ca3c1e0	0.019989908
41	0xbc7cd9e0	-0.015432805
42	0x3d97c311	0.07410253
43	0xbd7ed9df	-0.062219497
44	0x3c2670db	0.010158743
45	0x3e01425c	0.1262297
46	0x3da2abbd	0.07942913
47	0x3daf1f71	0.08550919
48	0xbc1cab7d	-0.00956237
49	0x3c1a313e	0.009411154
50	0x3d2d43ae	0.042300873
51	0x3d6f24c5	0.058384676
52	0x3d4034c3	0.046925317
53	0xbdca74d4	-0.098855644
54	0xbce5b600	-0.028040886
55	0x3d38ba2d	0.045099426
56	0x3b7719d1	0.0037704597
57	0xbdc5e3bb	-0.09662577
58	0x3d98460d	0.07435236
59	0x3ad25d5c	0.0016049552
60	0xbaab994a	-0.0013091948
61	0xbd9411a2	-0.07229926
62	0x3dbf0ea9	0.09328968
63	0xbcfface6	-0.031210374
64	0x3c82adcc	0.015952013
65	0x3d73f3c2	0.059558637
66	0xbda0a464	-0.07843855
67	0xbd34baed	-0.04412358
68	0x3d708696	0.0587221
69	0x3d9821fa	0.074283555
70	0xbc363945	-0.011122053
71	0xbd37b38b	-0.04484896
72	0xbd8c72d6	-0.06857841
73	0x3d410337	0.047122207
74	0xbda95502	-0.08268167
75	0x3d62bd7f	0.0553565
76	0x3da04ea7	0.07827502
77	0x3c65c0e3	0.014023039
78	0xbd05d9bd	-0.032678355
79	0xbdcf9444	-0.10135701
80	0xbd303e4f	-0.043028172
81	0xbceabed1	-0.028655441
82	0x3d60b1c1	0.05485702
83	0x3c4c13a3	0.012455854
84	0x3c5520d8	0.013008319
85	0x3d0ac4bb	0.033879023
86	0xbb1bea69	-0.0023790842
87	0xbd1fa224	-0.03897299
88	0xbd61dba0	-0.05514109
89	0xbcd46716	-0.025928061
90	0xbd89c5b8	-0.06727165
91	0xbdbff3a1	-0.093726404
92	0x3d533f16	0.051573835
93	0x3c31f740	0.010862172
94	0x3d671645	0.056417722
95	0x3d189aa1	0.03725684
96	0xbb90bae6	-0.0044168113
97	0xbd527916	-0.051385008
98	0x3d75831f	0.0599395
99	0x3d9da196	0.07696836
100	0xbdd19d4a	-0.10235079
101	0x3d299b86	0.041408084
102	0xbc107fae	-0.008819504
103	0xbd09da0e	-0.03365522
104	0x3cd3fbea	0.025876958
105	0xbd8335ca	-0.06406744
106	0xbd9681d6	-0.07348983
107	0xbdb5874d	-0.08863697
108	0xbc652692	-0.013986247
109	0x3db941ef	0.09045779
110	0xbc86dbd6	-0.016462248
111	0x3d895698	0.067059696
112	0x3daa576a	0.08317454
113	0xbc081fbf	-0.00830835
114	0x3d164b4a	0.036692895
115	0x3d4340b3	0.047669124
116	0x3cf2e7d0	0.029651552
117	0x3da63de2	0.08117272
118	0xbd52a63c	-0.051428065
119	0xbd984b45	-0.074362315
120	0x3d4df55a	0.050282814
121	0x3d994668	0.07484132
122	0x3cdc2ce4	0.026876874
123	0x3d3f3ddb	0.04668985
124	0xbda65ff4	-0.0812377
125	0x3d42cb51	0.04755718
126	0x3dda75ee	0.106670246
127	0x3dc34095	0.095338024
128	0x3df119c9	0.11772496
129	0x3d97804d	0.07397518
130	0x3d041e0c	0.032255217
131	0x3ce2d60c	0.027689956
132	0x3d593b04	0.053034797
133	0x3bdd3533	0.0067507266
134	0x3ca2cf3e	0.019874211
135	0x3d5176c9	0.051138673
136	0x3c680480	0.014161229
137	0xbd5fc7d2	-0.054633923
138	0x3d2ba4ce	0.041905217
139	0x3dc493f7	0.095985346
140	0x3b95430d	0.004555112
141	0x3d3ae9d7	0.045633163
142	0x3d108a4b	0.035288136
143	0x3caf1c3b	0.021375766
144	0x3c63e4b0	0.013909504
145	0xbd7c225a	-0.061556198
146	0x3bfe5e6e	0.0077627217
147	0x3da5be4c	0.08092937
148	0x3cdd849a	0.027040768
149	0xbc0c0e4e	-0.008548332
150	0x3d662e43	0.056196462
151	0xbda56c72	-0.08077325
152	0x3d86c80d	0.065811254
153	0x3d99ee51	0.07516158
154	0x3deb96ec	0.115033954
155	0x3db8ec75	0.090294756
156	0x3d698da1	0.057019833
157	0xbcbed568	-0.02329512
158	0x3df5a7a3	0.11994865
159	0xbce0f640	-0.027461171
160	0x3c2e3ef5	0.010635127
161	0x3d310689	0.043219123
162	0x3dcb036a	0.099127606
163	0x3dfc6e77	0.12325757
164	0x3de823f1	0.1133498
165	0x3c5b1f41	0.013374151
166	0x3ce9831c	0.0285049
167	0x3d3e69bb	0.04648755
168	0x3dc5dda4	0.09661415
169	0xbd2f757a	-0.042836644
170	0x3cb7febc	0.022460334
171	0x3d8b7a96	0.06810491
172	0xbd1054f2	-0.03523726
173	0xbc9bfdd4	-0.019041933
174	0x3b187620	0.0023263767
175	0x3d9bdf81	0.07610989
176	0x3cbdb913	0.02315954
177	0x3a3e34c1	0.0007255786
178	0xbdb0b3e2	-0.0862806
179	0xbd5428ad	-0.051796604
180	0x3daf0d9a	0.08547516
181	0xbc400423	-0.011719736
182	0x3dad78da	0.08470316
183	0xbda6854a	-0.081308916
184	0x3c274e61	0.010211558
185	0xbdb02f5d	-0.08602784
186	0x3d31dbf4	0.043422654
187	0x3d32baa1	0.043635014
188	0xbd55c8b6	-0.052193366
189	0xbd6d3f37	-0.057921614
190	0xbd860aee	-0.065450534
191	0x3d93ab30	0.07210386
192	0xbdab8ade	-0.08376096
193	0x3d8dcc8b	0.06923779
194	0xbd966105	-0.07342724
195	0x3d4a7e60	0.049436927
196	0xbdd84c8b	-0.105614744
197	0x3d6b776e	0.057486944
198	0x3d7a8d60	0.061169982
199	0x3c1f13c1	0.0097093
200	0x3bd4d3d2	0.0064949775
201	0xbd8a5079	-0.0675363
202	0xbc8ccb2f	-0.01718673
203	0xbcee9fa4	-0.029128857
204	0xbd2dc7cd	-0.042426873
205	0xbd4f3d88	-0.05059579
206	0x3cd30e38	0.025763616
207	0x3d14fd28	0.03637424
208	0xbdb09f85	-0.08624176
209	0xbd2f11e3	-0.042741667
210	0xbd94206e	-0.07232748
211	0x3d53dcbb	0.051724177
212	0x3d4d20ca	0.0500801
213	0x3d358121	0.0443126
214	0xbd4d5686	-0.050131343
215	0xb991e58c	-0.0002782758
216	0xbdbe7b14	-0.09300819
217	0x3d3227cb	0.04349498
218	0x3dacfe8f	0.08446991
219	0x3cb633f3	0.022241568
220	0x3d9603ad	0.0732492
221	0x3d77d28e	0.060503535
222	0xbca18504	-0.019716747
223	0x3c9ff963	0.019528097
224	0xbdb833d7	-0.08994263
225	0x3db258e2	0.08708359
226	0xbd3ac43d	-0.045597304
227	0xbd38084d	-0.04492979
228	0xbcbce858	-0.023060009
229	0xbcf5f96c	-0.03002616
230	0x3da3fc2f	0.080070846
231	0x3cf609b1	0.030033918
232	0x3d82f175	0.063937105
233	0xbd155ffd	-0.036468495
234	0xbd0d2aae	-0.03446453
235	0x3b8cd9fc	0.0042984467
236	0x3d9bd51c	0.07609007
237	0x3d242b54	0.040080383
238	0x3d82ae7f	0.06380939
239	0x3aec643f	0.0018035247
240	0x3dd4bd4e	0.103876695
241	0xbb8b4c71	-0.004251056
242	0xbd3bcdd5	-0.045850594
243	0x3dbbbb0b	0.09166535
244	0x3c522c29	0.012827911
245	0x3c2b3c78	0.010451429
246	0xbd889c17	-0.06670397
247	0x3db56988	0.08858019
248	0x3c91d128	0.017799929
249	0x3dade8ca	0.084916666
250	0xbc66a303	-0.014076951
251	0x3d1dec6f	0.03855556
252	0xbd615839	-0.055015776
253	0xbd4ea9fa	-0.05045507
254	0xbb92a324	-0.0044750143
255	0xbb021d8c	-0.0019854037

conv1.bias f4 [32]
0	0xbccde18d	-0.025131965
1	0xbbd5676d	-0.0065125735
2	0x3dba2f57	0.090910606
3	0x3d2727e5	0.04080953
4	0x3d57f33a	0.052722193
5	0xbc9fa66d	-0.019488538
6	0xbd388e9a	-0.04505787
7	0xbd2b55e8	-0.041829973
8	0xbda430fc	-0.080171555
9	0xbd356f84	-0.044295803
10	0x3cfd6308	0.03093101
11	0xbd827619	-0.063701816
12	0xbcd5a2a6	-0.026078533
13	0x3caa6475	0.020799855
14	0xbd26cbdd	-0.040721763
15	0x3d608766	0.054816626
16	0x3cedd11d	0.029030377
17	0x3d0847b9	0.033271525
18	0xbc82d1a3	-0.015969103
19	0xbdb3e361	-0.087836035
20	0x3d87c639	0.06629605
21	0x3d517285	0.051134605
22	0xbd89c3ff	-0.067268364
23	0x3d803015	0.06259171
24	0xbd001c6a	-0.031277098
25	0xbc6b4171	-0.014358864
26	0x3ceec21b	0.029145291
27	0xbdb4f74f	-0.08836233
28	0xbd099b7a	-0.03359554
29	0xbc7b8040	-0.015350401
30	0x3c48fbef	0.012267097
31	0xbca4792a	-0.020077307

conv2.weight f4 [64, 32, 3, 3]
0	0xbd4e219b	-0.050325017
1	0x3d0a6a49	0.033792768
2	0x3c807aa6	0.015683483
3	0xbd26e9a5	-0.040750165
4	0xbbde4ce6	-0.0067840694
5	0xbce93c86	-0.028471243
6	0xbd0ccc6d	-0.034374643
7	0x3bf53888	0.0074835457
8	0xbd83c7ed	-0.06434617
9	0xbc688cee	-0.0141937565
10	0x3cfb96d8	0.030711576
11	0x3bd2817d	0.0064241276
12	0xbd358992	-0.04432065
13	0x3d11acb9	0.03556511
14	0xbd39a8f4	-0.045327142
15	0xbd673c35	-0.056453902
16	0xbd30be5b	-0.043150287
17	0x3b8b9d17	0.00426067
18	0x3d410ff7	0.047134366
19	0xbd1f3edf	-0.038878318
20	0x3cabc681	0.020968677
21	0xbc89f78f	-0.016841678
22	0x3d77c545	0.060490865
23	0xbd61ccd1	-0.05512697
24	0xbd54fbbf	-0.051997896
25	0xbcc46d73	-0.02397797
26	0x3cce1544	0.025156625
27	0xbbda32d0	-0.0066588894
28	0xbbb8d976	-0.0056411577
29	0xbbe68252	-0.0070345784
30	0xbc7428c2	-0.014902296
31	0x3c85235b	0.01625221
32	0xbd3fcc97	-0.04682597
33	0x3cdc8a0f	0.0269213
34	0xbc4e8c9e	-0.012606768
35	0x3d1a1841	0.037620787
36	0xbc81277d	-0.0157659
37	0x3d6c46e1	0.057684783
38	0x3cf264b0	0.029589027
39	0x3c8ee43f	0.01744282
40	0xbbd0cc3e	-0.006372004
41	0x3d65dfb3	0.05612154
42	0xbc2d59a1	-0.010580451
43	0xbcc12264	-0.023575969
44	0x3b9148c3	0.0044337227
45	0x3d291d89	0.041287933
46	0xbd0480b4	-0.032349303
47	0x3cbd56da	0.023112703
48	0x3c89a12f	0.016800491
49	0x3c6c870e	0.014436496
50	0x3d68dfa2	0.056853898
51	0x3d02a00d	0.031890918
52	0x3d2a3b08	0.041560203
53	0xbced1f87	-0.028945697
54	0xbd3ebc69	-0.0465664
55	0xbd1397e2	-0.03603352
56	0xbc61a485	-0.013772135
57	0xbd34c920	-0.04413712
58	0x3d23953f	0.039937254
59	0x3d2b55e4	0.04182996
60	0xbc2bb238	-0.010479502
61	0x3c75e84e	0.015008999
62	0x3cefa3d0	0.029252917
63	0xbd0ae2fb	-0.03390787
64	0x3d59cfdc	0.053176746
65	0xbd34cd9a	-0.04414139
66	0x3d34e3b2	0.04416246
67	0xbc9fe5fa	-0.019518841
68	0xbd3a281b	-0.045448404
69	0x3d4e77cf	0.050407227
70	0x3d18ff8e	0.03735309
71	0xbd00f933	-0.031487655
72	0x3c65ef72	0.014034139
73	0x3bbc60f0	0.0057488605
74	0x3be241fd	0.006904839
75	0xbbae5627	-0.0053203288
76	0x3ce84788	0.028354421
77	0xbd1c01b3	-0.038087558
78	0x3cfe8258	0.031068012
79	0x3cd89991	0.026440414
80	0xbb80e7db	-0.0039338893
81	0xbd112c8b	-0.03544287
82	0xbcd12cf1	-0.025534125
83	0x3cf900c7	0.030395878
84	0x3ca4da0b	0.020123502
85	0x3ca4a041	0.020095946
86	0xbcd39d1e	-0.025831755
87	0xbce998c2	-0.028515223
88	0xbc3787cc	-0.01120181
89	0x3d46559d	0.04842149
90	0xbc534cc2	-0.012896718
91	0x3d6ca9eb	0.057779234
92	0x3d2a5deb	0.041593473
93	0x3d4d61d2	0.050142117
94	0xbc6e8840	-0.014558852
95	0xbcf5f742	-0.030025128
96	0xbcbacf06	-0.022803795
97	0x3bc5d875	0.0060377666
98	0x3d651094	0.055924013
99	0x3d3ab536	0.045582972
100	0x3c7653de	0.015034644
101	0xbd2d5b45	-0.04232337
102	0x3c88a5e9	0.016680675
103	0xbcd508bc	-0.026005141
104	0xbc38d087	-0.011280186
105	0x3c1cd19c	0.009571459
106	0x3d4f79f2	0.050653405
107	0x3c4409eb	0.011965255
108	0x3d2aba82	0.041681774
109	0xbc994aa4	-0.01871235
110	0x3d1225aa	0.03568045
111	0xbc71194b	-0.014715503
112	0xbd22d04b	-0.039749425
113	0xbd0d15c0	-0.03444457
114	0x3bee7f09	0.0072783274
115	0x3d20269a	0.039099313
116	0x3c89677d	0.01677298
117	0x3d408fc2	0.047012098
118	0xbc283fe0	-0.010269135
119	0xbd54ce73	-0.051954698
120	0x3d659575	0.056050736
121	0x3d62c79d	0.055366147
122	0x3ce26581	0.027636291
123	0x3ca6fbf5	0.020383814
124	0xbcd3e9c6	-0.025868308
125	0xbd79c8b8	-0.060982436
126	0xbcee624f	-0.029099612
127	0x3d273c81	0.040829185
128	0x3ccfd210	0.02536872
129	0xbd606118	-0.054780096
130	0x3c2210f9	0.009891742
131	0x3d3a5468	0.045490652
132	0x3d78c349	0.060733113
133	0x3d548566	0.05188503
134	0xbd2bc5b7	-0.041936602
135	0x3c6ac1f1	0.014328466
136	0x3cf6ba93	0.030118262
137	0x3cfef927	0.031124664
138	0xbc59c134	-0.013290692
139	0xbc6882fe	-0.014191387
140	0xbc77f6ac	-0.015134495
141	0xbd4f9b8d	-0.050685454
142	0xbd0bc4fc	-0.034123406
143	0xbd44deea	-0.04806415
144	0x3d5811b6	0.052751265
145	0xbca6c05d	-0.020355398
146	0x3c7705c9	0.015077063
147	0xbc2263cb	-0.009911488
148	0xbd78faa0	-0.06078589
149	0xbc888479	-0.01666473
150	0xbd790fbd	-0.060806025
151	0x3c99e208	0.018784538
152	0x3c81ce26	0.01584537
153	0x3cba07c6	0.022708785
154	0x3d6a00ab	0.057129543
155	0x3d34c02d	0.044128586
156	0xbc83599f	-0.016033946
157	0x3c9ba865	0.019001195
158	0x3d52c10b	0.05145363
159	0x39805fe7	0.00024485515
160	0x3bbbd238	0.005731847
161	0xbd0e1e50	-0.034696877
162	0x3c8cc96d	0.017185891
163	0x3c4c15e1	0.012456388
164	0x3d132be0	0.035930514
165	0x3c1191c3	0.00888485
166	0xbcd87aaa	-0.026425678
167	0xbca7b5a1	-0.02047235
168	0x3ce6fdce	0.028197195
169	0xbd804e13	-0.062648915
170	0x3d15f71c	0.036612615
171	0x3d106519	0.035252664
172	0xbc95a728	-0.018268183
173	0x3d088907	0.033333804
174	0x3c977d25	0.01849229
175	0x3d635d78	0.05550906
176	0x3d76281e	0.060096852
177	0xbcd018a5	-0.025402376
178	0x3b37b1bc	0.0028029522
179	0x3d2dd942	0.04244352
180	0xbca69e7d	-0.020339245
181	0x3d4b603b	0.04965232
182	0x3bab03ce	0.0052189594
183	0x3d1e5ace	0.038660817
184	0xbce08469	-0.027406888
185	0x3cfecd47	0.031103743
186	0x3d4575b0	0.04820794
187	0x3d39d905	0.04537298
188	0x3c83fca1	0.016111674
189	0x3d69d3b6	0.05708667
190	0x3ceb3477	0.02871154
191	0xbd0d8e4d	-0.034559537
192	0x3d603a1a	0.05474291
193	0xbd3f1fc1	-0.046661142
194	0xbb0cac6c	-0.0021465076
195	0xbc8defb0	-0.017326206
196	0x3cb92e01	0.022604944
197	0x3d5e9d28	0.054349095
198	0xbcef5639	-0.029215919
199	0x3ce9bc40	0.028532147
200	0xbd7da526	-0.061925076
201	0xbd66b9a7	-0.056329396
202	0xbd643a93	-0.055719923
203	0x3d15d031	0.0365755
204	0xbaff114f	-0.0019460114
205	0xbd3e1539	-0.04640696
206	0x3d4118a1	0.04714263
207	0xbc300aa4	-0.010744724
208	0xbcb5ca66	-0.022191238
209	0xbc1ce01e	-0.009574918
210	0xbba8c724	-0.0051506925
211	0x3d2ff8d8	0.042961925
212	0x3c5b6200	0.013390064
213	0xbd2fe950	-0.042947114
214	0xbd3d565a	-0.04622493
215	0x3cc9722c	0.024590574
216	0xbc552d38	-0.013011269
217	0x3c69302c	0.0142326765
218	0x3d62776f	0.055289682
219	0xbca53371	-0.02016613
220	0xbcfb2bca	-0.030660529
221	0x3c37baa9	0.011213937
222	0x3cecdd29	0.028914051
223	0xbd442887	-0.047890212
224	0xbd66968f	-0.056295928
225	0x3c606c64	0.013697717
226	0x3d68c4e0	0.05682838
227	0xbce9b1cc	-0.028527163
228	0x3d20101f	0.039077874
229	0x3d132626	0.035925053
230	0xbd6f9a0a	-0.058496512
231	0x3cee9575	0.029124001
232	0xbc8c518f	-0.017128734
233	0x3a8822af	0.0010386313
234	0xbc15c856	-0.009142002
235	0xbc45afae	-0.012065811
236	0xbd4c2e32	-0.049848743
237	0xbcde212b	-0.027115425
238	0xbce4f1a4	-0.027947254
239	0x3bb0a741	0.005391032
240	0x3b9fc899	0.004876208
241	0xbc8c24b5	-0.017107347
242	0xbd474e28	-0.04865852
243	0xbcd2d794	-0.025737561
244	0xbca3fdba	-0.020018447
245	0x3ce4bbf2	0.02792165
246	0xbcbdcd2d	-0.023169124
247	0xbc3a134b	-0.011357139
248	0xbd35a692	-0.044348307
249	0x3c5048fc	0.012712713
250	0xbb89dc15	-0.004207144
251	0xbd0cc193	-0.034364294
252	0xbc8078c7	-0.015682591
253	0x3c412849	0.01178939
254	0x3a3f81e6	0.0007305428
255	0x3b034ead	0.0020035908

conv2.bias f4 [64]
0	0x3cff2983	0.031147724
1	0x3d1a66d7	0.037695732
2	0xbd43b3d2	-0.047778912
3	0xbca6749f	-0.020319281
4	0x3b09eddc	0.0021046316
5	0x3b8a995a	0.0042297067
6	0xbd66dcb9	-0.05636284
7	0xbd0c4dd4	-0.03425391
8	0xbd0f14f8	-0.034932107
9	0xbd00a878	-0.031410664
10	0xbd551685	-0.05202343
11	0x3d572137	0.05252191
12	0x3d033545	0.032033224
13	0xbd159dae	-0.03652733
14	0x3cad1718	0.021129176
15	0x3d2b65ad	0.041845012
16	0x3d10e390	0.03537327
17	0x3d530641	0.051519636
18	0x3d199fe5	0.037506003
19	0x3aed1c70	0.001809014
20	0xbc493bbd	-0.012282309
21	0x3d521e8b	0.05129866
22	0x3c2eb6c8	0.010663696
23	0x3d414c94	0.04719217
24	0x3d21ccc8	0.039501935
25	0x3b19422d	0.002338539
26	0xbd45c2d0	-0.04828149
27	0xbca340e5	-0.019928405
28	0xbca1c3cf	-0.01974669
29	0xbc04ca83	-0.008104923
30	0x3c311652	0.010808544
31	0xbd4204a3	-0.047367703
32	0xbcaf9724	-0.021434374
33	0x3d43abcc	0.04777126
34	0xbd18b94c	-0.037286088
35	0xba8b412d	-0.0010624282
36	0x3c89f095	0.016838351
37	0xbca8df4e	-0.020614292
38	0x3cfb502e	0.030677881
39	0xbcb3970d	-0.021922613
40	0xbd46ce41	-0.048536543
41	0x3cc840b0	0.024444908
42	0x3d249ade	0.040186755
43	0xbcf9291d	-0.030415112
44	0x3d50f870	0.05101818
45	0xbc84d0d5	-0.01621286
46	0x3cb0cecb	0.021582982
47	0xba2f8b2c	-0.00066964584
48	0x3cc6285b	0.024189165
49	0x3d57c74b	0.052680295
50	0x3d4a8c23	0.04945005
51	0x3cfcd724	0.030864306
52	0xbabb0768	-0.0014269175
53	0xbcdf950b	-0.027292749
54	0x3baef2dd	0.00533901
55	0x3bc4b261	0.0060027097
56	0x3c88c1d3	0.016693985
57	0x3b5950f9	0.0033159836
58	0x3d06760f	0.032827433
59	0x3c625f3e	0.013816653
60	0x3d1d1847	0.03835323
61	0x3ccfcc7c	0.02536606
62	0xbc3738c5	-0.0111829685
63	0x3b87b7ef	0.0041417996

conv3.weight f4 [128, 64, 3, 3]
0	0x3b9b6de8	0.0047433265
1	0xbc415624	-0.011800323
2	0x3ab4a61e	0.0013782417
3	0xbc5460e6	-0.0129625555
4	0xbd3ea877	-0.04654738
5	0xbb606480	-0.003423959
6	0xbc7c344f	-0.015393331
7	0xbcfa1c9b	-0.030531218
8	0xbd1a29ea	-0.03763763
9	0x3a99c520	0.0011731721
10	0xbd018f64	-0.03163089
11	0x3c2b232f	0.0104454
12	0xbd06780c	-0.03282933
13	0x3c68f005	0.014217381
14	0x3c04df86	0.008109933
15	0x3ca3d64c	0.019999646
16	0x3c5c61e2	0.013451071
17	0x3bb8f4b2	0.0056444043
18	0xbca23ea6	-0.019805264
19	0xbc6bd18c	-0.014393222
20	0xbbe9185a	-0.0071134986
21	0xbd181b56	-0.037135445
22	0xbcdf94a7	-0.027292563
23	0xbc841b02	-0.01612616
24	0xbd28be88	-0.04119733
25	0x3c9d4b37	0.019200904
26	0xbd3ede8b	-0.046598952
27	0xbccc0b28	-0.024907663
28	0xbbce5576	-0.006296809
29	0x3ad8f9e4	0.0016553965
30	0xbb49737a	-0.0030738995
31	0xbce49e4b	-0.027907511
32	0xbcb190c6	-0.021675479
33	0x3ca63348	0.020288125
34	0xbd47780a	-0.048698463
35	0x393b38c9	0.00017854864
36	0xbba8a040	-0.0051460564
37	0xbd24012c	-0.04004018
38	0xbd0ea450	-0.03482467
39	0x3c878132	0.016541097
40	0x3d022aec	0.031779215
41	0xbc21e503	-0.009881261
42	0xbc0775cc	-0.008267831
43	0x3c9052cf	0.017617611
44	0xbb3440d6	-0.0027504466
45	0xbd184ff7	-0.037185635
46	0xbcb4b179	-0.022057282
47	0xbbc8d25d	-0.006128593
48	0x3cf701ee	0.030152287
49	0xbd20dbed	-0.039272238
50	0x3d0071e1	0.031358603
51	0x3cfc3813	0.030788457
52	0xbabbb934	-0.0014322163
53	0xbbb1e179	-0.0054284898
54	0x3cccced2	0.025000963
55	0xbcbd55b7	-0.023112161
56	0xba8967e0	-0.0010483228
57	0x3c347e0a	0.011016378
58	0xbccc4e91	-0.024939807
59	0xbceeb498	-0.029138848
60	0xbd09d0f6	-0.033646546
61	0xbd073781	-0.033011917
62	0x3ce39890	0.027782708
63	0xbcd65feb	-0.026168784
64	0x3c28004f	0.01025398
65	0x3c8062be	0.015672084
66	0xbb69b58f	-0.0035661196
67	0x3bbfa45f	0.005848452
68	0x3b696ebf	0.0035618988
69	0x3cc7e148	0.024399415
70	0xbcf2be64	-0.029631801
71	0x3c638026	0.013885533
72	0xbca22693	-0.019793784
73	0xbc735b96	-0.014853379
74	0xbce3fe80	-0.027831316
75	0x3ccffabe	0.025388118
76	0xbd3a3d4e	-0.04546862
77	0xbc9bef47	-0.019034995
78	0xbb8326b8	-0.0040024184
79	0xbc9d197e	-0.019177195
80	0xbcbeaa6a	-0.02327462
81	0xbd202f90	-0.03910786
82	0xbc8d506b	-0.01725026
83	0xbce35eb0	-0.027755111
84	0x3bfa4b4c	0.0076383706
85	0x3cebfd75	0.028807381
86	0xbc839349	-0.016061442
87	0xbc261a30	-0.0101380795
88	0xbca99c9c	-0.02070456
89	0xbc91014e	-0.017700817
90	0xbced8763	-0.028995221
91	0x3c9190ff	0.017769335
92	0x3cbb0475	0.022829274
93	0xbb990c20	-0.004670635
94	0xbc615e0a	-0.013755331
95	0xbd1dd399	-0.038531873
96	0xbd1c5e90	-0.03817612
97	0xbc9b74fd	-0.018976683
98	0x3cf615bc	0.03003966
99	0xbb6971f0	-0.003562089
100	0xbcbf776c	-0.023372374
101	0xba59c98f	-0.00083079276
102	0x3cae0292	0.02124146
103	0x3be660f6	0.0070306016
104	0xbca3cd6c	-0.019995414
105	0xbcefda65	-0.029278943
106	0xbac94030	-0.0015354212
107	0xb9c5150f	-0.00037590458
108	0xbd22b4bb	-0.03972314
109	0x3c22d76a	0.009939054
110	0xbc807643	-0.015681392
111	0x3cd225c9	0.025652783
112	0x3c264b46	0.0101497825
113	0x3c6a38e3	0.014295789
114	0x3bd9f5a5	0.0066515976
115	0xbd219dbd	-0.03945707
116	0xbcbb8e22	-0.022894923
117	0x3cb5254e	0.022112515
118	0x3cdfcaef	0.027318446
119	0x3cce6c42	0.025198106
120	0xba3971c9	-0.0007074145
121	0x3ccc541a	0.024942447
122	0xbd03185b	-0.03200565
123	0xbccb939d	-0.024850661
124	0xbc3336a3	-0.010938319
125	0xbc47aa43	-0.01218659
126	0x3ccb5f6e	0.024825778
127	0xbcd98c80	-0.026556253
128	0xbc9b8333	-0.01898346
129	0x3c7f762d	0.01559214
130	0x3cf90fdd	0.030403072
131	0x3c45f2c2	0.012081804
132	0xbb79ffc7	-0.003814684
133	0xbce3725c	-0.027764492
134	0xbcc316be	-0.023814555
135	0xbba6b5e8	-0.005087603
136	0xbc53066e	-0.012879951
137	0xbc42c49a	-0.011887694
138	0xbd373dd3	-0.044736695
139	0xbd36c5ef	-0.044622358
140	0xbc9fc7fd	-0.019504542
141	0x3a32f292	0.0006826307
142	0xbc2d6fc4	-0.010585729
143	0x37cc86fe	2.4381556e-05
144	0x3c95594a	0.018231053
145	0xbcd5ba69	-0.026089864
146	0xbcbdb450	-0.023157269
147	0xbd2cabd1	-0.042156044
148	0x3ca417ab	0.020030817
149	0xbcd4ab92	-0.025960717
150	0x3ba79f35	0.0051154145
151	0x3cb9ee6a	0.022696692
152	0xbc6d8d28	-0.014498986
153	0x3b9881e8	0.004654158
154	0xbd38b741	-0.04509664
155	0xbbc4adb0	-0.0060021505
156	0x3c51e97b	0.012812014
157	0xbcf6dae4	-0.030133672
158	0xbd077773	-0.0330729
159	0xbbf66fd8	-0.007520657
160	0xbc8da862	-0.017292205
161	0xbd4a5c60	-0.049404502
162	0x3d1bda25	0.038049836
163	0xbcee4390	-0.02908495
164	0xbd231e40	-0.03982377
165	0x3c80f6cb	0.01574268
166	0xbc3ddcf0	-0.01158832
167	0x3cebd2fa	0.028787125
168	0x3c8a61ae	0.01689228
169	0xbd254519	-0.0403491
170	0x3cefed3f	0.029287932
171	0x3cf13c42	0.029447678
172	0xbd1c66c1	-0.03818393
173	0xbbacbad4	-0.005271295
174	0xbd430c2a	-0.047619022
175	0xbcdc2f94	-0.026878156
176	0x3c18db76	0.009329667
177	0x3d0aee6e	0.03391879
178	0xbc8e5562	-0.017374698
179	0xbc8e1d64	-0.017347999
180	0xbcaa84c0	-0.020815253
181	0xbd2ab0c4	-0.041672483
182	0xbc219277	-0.00986158
183	0x3c86ecb1	0.016470285
184	0x3c18ce5f	0.009326546
185	0xbc70ec77	-0.014704815
186	0x3c2c09a9	0.01050035
187	0x38b31c8b	8.540702e-05
188	0x3c9e3308	0.019311443
189	0xbb584ff0	-0.003300663
190	0x3cfdcd20	0.0309816
191	0x3ca68a24	0.020329542
192	0xbcd022dd	-0.02540725
193	0x3cf51b91	0.029920371
194	0x3cbc1124	0.022957392
195	0xba117527	-0.0005548768
196	0x3d074295	0.033022482
197	0xbc28a9a4	-0.010294352
198	0x3c25c5f4	0.0101179965
199	0xbd0e3f70	-0.034728467
200	0xbd1c0c6e	-0.03809779
201	0x3cbba796	0.02290706
202	0xbc8fb76d	-0.017543519
203	0x3b2a98f2	0.0026031104
204	0x3b5667e0	0.0032715723
205	0xbd270170	-0.040772855
206	0xbd097c30	-0.0335657
207	0xba6b2bc0	-0.0008971058
208	0xbd0a7ce4	-0.03381051
209	0xbd457a70	-0.04821247
210	0x3cda7a19	0.026669549
211	0xbbcb37cc	-0.00620172
212	0xbcb56cb4	-0.02214656
213	0x3b5ca43c	0.0033667227
214	0xbc83780e	-0.016048457
215	0xbd1f6d8c	-0.03892283
216	0xbd28ee34	-0.041242793
217	0xbd3b8264	-0.045778647
218	0xbd2c2e72	-0.04203648
219	0xba624f5d	-0.0008633042
220	0xbbfb6f5c	-0.007673187
221	0xbc90cc0f	-0.017675428
222	0x3c89fdc7	0.016844643
223	0xbc260144	-0.010132138
224	0xbc29e8c8	-0.010370441
225	0xbb957cc0	-0.0045619905
226	0xbd4aa9f3	-0.049478482
227	0x3c92f2ca	0.017938036
228	0x3c8ebd30	0.017424196
229	0xbd227973	-0.039666604
230	0xbca61045	-0.02027143
231	0x3d059d38	0.03262064
232	0xbc2dca53	-0.01060732
233	0x3bc52604	0.0060164947
234	0x3d0252ad	0.031817127
235	0xbcf0d8de	-0.029400285
236	0xbcbc9741	-0.023021342
237	0xbc604520	-0.013688356
238	0xbcb28bfd	-0.021795267
239	0xbd04d954	-0.032433823
240	0x3d10fbaf	0.035396274
241	0xbc466d0e	-0.012110962
242	0x3c33c945	0.010973279
243	0xbcde917e	-0.027168985
244	0x3cf6f767	0.030147268
245	0x3c644e8a	0.013934741
246	0xbce6ff19	-0.028197812
247	0xbb947d5d	-0.004531546
248	0xbd07dbc4	-0.03316857
249	0x3ad8e65d	0.0016548146
250	0xbd1acafe	-0.037791245
251	0x3c837134	0.01604519
252	0x3cc2c5b6	0.023775917
253	0xbc77a94c	-0.015116047
254	0xbc90aa8c	-0.017659448
255	0x3d252195	0.04031523

conv3.bias f4 [128]
0	0xbc3a2ec6	-0.011363691
1	0xbb8859ec	-0.00416111
2	0xbc560196	-0.013061902
3	0x3d479047	0.048721578
4	0x3c1f8678	0.00973665
5	0x3d28289c	0.041054353
6	0x3ca69291	0.02033356
7	0xbd0d448b	-0.034489196
8	0x3d316a87	0.043314483
9	0x3cd7a7f2	0.0263252
10	0x3d13263f	0.035925146
11	0x3cc87628	0.024470404
12	0xbd2f94bc	-0.042866454
13	0xbd1512ab	-0.036394756
14	0x3cb60d9e	0.02222329
15	0x3c5cdc20	0.013480216
16	0x3cb166bb	0.021655431
17	0x3cf0c6d8	0.029391691
18	0xbd2725f7	-0.04080769
19	0xbd07309f	-0.033005353
20	0x3c9061f0	0.017624825
21	0xbcd927f9	-0.026508318
22	0xbc76d477	-0.015065304
23	0x3bd8aac3	0.0066121533
24	0x3cd875b7	0.026423318
25	0x3bfe1ddf	0.0077550258
26	0x3ccd01e3	0.025025314
27	0x3ba49544	0.0050226767
28	0x3c3cf284	0.01153243
29	0x3cd50e77	0.026007874
30	0x3a26b8b9	0.0006359923
31	0x3bcc57f6	0.0062360717
32	0x3c367d03	0.011138204
33	0x3d3699ac	0.044580147
34	0xbc985561	-0.0185954
35	0x3c0a6328	0.008446492
36	0x3c68906a	0.014194587
37	0x3c5d0cbb	0.013491805
38	0x3d3fd577	0.046834435
39	0x3c48b119	0.012249255
40	0x3cd9d9b8	0.026593074
41	0x3cf9d302	0.030496124
42	0x3b63f229	0.003478179
43	0xbc2b277b	-0.010446425
44	0xbc5e8c6a	-0.013583282
45	0xbc12bf9f	-0.008956819
46	0x3d473c3c	0.04864143
47	0xbd2e117c	-0.042497143
48	0xbd12e490	-0.035862505
49	0xbd1c9093	-0.038223814
50	0xbccb5416	-0.024820369
51	0xbd0f741c	-0.03502284
52	0xbcebee5d	-0.028800184
53	0xbc70662f	-0.0146728
54	0xbc0ab761	-0.0084665725
55	0xbc359ddb	-0.011084999
56	0x3d3e015a	0.046388008
57	0xbc325bec	-0.010886174
58	0x3c8e84d6	0.017397325
59	0xbbcf5658	-0.0063274316
60	0xbcd4a0f8	-0.025955662
61	0xbba0e26a	-0.004909803
62	0xbca6864d	-0.020327711
63	0xbc7fd5ce	-0.01561494
64	0x3bb636c1	0.0055607264
65	0xbd248f2f	-0.040175613
66	0x3d38481e	0.04499065
67	0xbd08ff5a	-0.033446647
68	0x3ca48e91	0.020087512
69	0xbd1c92c4	-0.038225904
70	0xbd1611e3	-0.03663815
71	0xbcb7b030	-0.02242288
72	0x3c9c7d01	0.019102575
73	0x3b52cb50	0.003216464
74	0x3c74e93d	0.014948186
75	0x3c3e0592	0.011598008
76	0x3cb8c823	0.02255637
77	0x3cd36003	0.025802618
78	0x3b1fe378	0.0024397057
79	0x3c835348	0.016030923
80	0x3ce4939b	0.027902415
81	0x3bda4276	0.006660755
82	0xbc999c66	-0.018751334
83	0xbc59dea4	-0.013297711
84	0xbadf1658	-0.0017020209
85	0xbce2b95b	-0.027676275
86	0xbc5e23b4	-0.013558317
87	0xbb894f8d	-0.0041903914
88	0xbd283c0e	-0.041072898
89	0x3c0ad9ba	0.008474762
90	0x3ca11bae	0.019666519
91	0x3ca34595	0.01993064
92	0xbc1d7067	-0.009609318
93	0xbbe70218	-0.00704981
94	0xbd003914	-0.031304434
95	0xbcbfaaa9	-0.023396807
96	0xbc9292b4	-0.01789222
97	0xbc273c4f	-0.01020725
98	0xbc65ad45	-0.014018361
99	0xbc8b8423	-0.017030781
100	0xbc52c678	-0.012864701
101	0x3ce04611	0.02737716
102	0xbbd97166	-0.0066358326
103	0xbc120916	-0.008913299
104	0xbbd6453c	-0.006539015
105	0x3c9d1fc0	0.019180179
106	0x3b25ad3a	0.0025280253
107	0x3d4d7473	0.050159883
108	0xbcbb53d4	-0.02286712
109	0xbc1ad277	-0.009449593
110	0x3cea28f9	0.02858399
111	0x3cf2e6f8	0.02965115
112	0xbcc51924	-0.02405984
113	0xbc69f616	-0.014279863
114	0x3d191d3a	0.03738139
115	0x3c51d38d	0.012806785
116	0x3d17596a	0.036950506
117	0xbd368014	-0.04455574
118	0x3d02b034	0.03190632
119	0xb980b39c	-0.00024547882
120	0x3cbed485	0.023294697
121	0x3c303b3b	0.010756309
122	0x3cebac79	0.028768765
123	0xbc913984	-0.01772762
124	0xbd06672d	-0.03281324
125	0xbae68f34	-0.0017590285
126	0xbcc7d08e	-0.024391439
127	0x3cc6d296	0.024270337

fc1.weight f4 [128, 128]
0	0xbd23dad5	-0.040003616
1	0x3d855ce5	0.06511859
2	0x3d59df83	0.053191673
3	0xbcb03359	-0.02150886
4	0x3c121554	0.008916218
5	0xbba26c8c	-0.0049567875
6	0x3bd5759a	0.0065142633
7	0xbbaa4a60	-0.0051968545
8	0xbd81a187	-0.06329637
9	0x3c898567	0.016787244
10	0x3d906b24	0.070516855
11	0x3d63c891	0.055611197
12	0xbc89eecf	-0.016837506
13	0x3b3a120b	0.0028392102
14	0x3d249b31	0.040187065
15	0xbd0cfe55	-0.034422237
16	0x3d9c3c63	0.07628705
17	0xbdaa42ad	-0.08313499
18	0xbd9f6099	-0.077820964
19	0x3c87ae72	0.016562674
20	0xbcd2013a	-0.02563535
21	0x3cd0daf6	0.025495034
22	0xbd8418e8	-0.06450063
23	0x3cec6fb2	0.028861854
24	0xbda409b4	-0.08009663
25	0xbd98654a	-0.07441194
26	0xbda51de9	-0.080623455
27	0xbc89c4b7	-0.016817434
28	0xbd1db71d	-0.03850471
29	0x3d80535a	0.06265898
30	0xbcc1d4f6	-0.023661118
31	0x3d85fd5f	0.06542467
32	0xbd6c6700	-0.057715416
33	0x3d8ba109	0.068178244
34	0x3d21f771	0.03954262
35	0xbd735e2f	-0.059415992
36	0xbd54ff68	-0.052001387
37	0x3d3508e0	0.044197917
38	0x3d2c4e15	0.042066652
39	0x3d509c07	0.05093005
40	0x3cf282ed	0.029603446
41	0xbd753ee9	-0.05987445
42	0x3d9c7685	0.07639793
43	0xbcb50689	-0.022097843
44	0xbd591fd5	-0.053008873
45	0xbb8987ae	-0.0041970825
46	0x3cb58515	0.022158185
47	0x3d14b010	0.03630072
48	0xbcae996d	-0.021313393
49	0xbd9f710d	-0.077852346
50	0x3d4bf12a	0.04979054
51	0xbd58ce83	-0.05293132
52	0xbd7e1552	-0.06203205
53	0x3d754316	0.05987843
54	0x3c94b392	0.018152032
55	0xbb234a90	-0.002491627
56	0xbc2a08d5	-0.010378082
57	0x3ce6cdef	0.028174369
58	0xbc8d5676	-0.017253142
59	0xbccba102	-0.024857048
60	0xbba2ff50	-0.0049742833
61	0x3d1a54da	0.037678577
62	0xbd89e657	-0.06733387
63	0xbdb75385	-0.08951477
64	0x3bdb7a69	0.006697942
65	0x3d6555e6	0.055990122
66	0x3cc94d42	0.024572972
67	0xbd92b24b	-0.07162913
68	0xbcb44267	-0.02200432
69	0x3d95b599	0.07310028
70	0x3d2a372e	0.04155653
71	0xbd2c146a	-0.042011656
72	0xbdae47bf	-0.08509778
73	0xbd7f8aa7	-0.06238809
74	0x3d457974	0.04821153
75	0x3d6a00a3	0.057129513
76	0x3ca71a89	0.020398395
77	0x3d2142fa	0.039370514
78	0xbd72dd74	-0.059293225
79	0x3d37d43c	0.044880137
80	0x3d255737	0.040366378
81	0x3cd97b9c	0.0265482
82	0xbc85494f	-0.016270308
83	0x3d3c8c46	0.046032213
84	0xbc858682	-0.01629949
85	0x3d35a36b	0.0443453
86	0xbdab9531	-0.083780654
87	0xbd3301ad	-0.04370277
88	0x3ca30a4f	0.019902376
89	0xbce1f39c	-0.027581982
90	0x3d7526c0	0.059851408
91	0xbda7a62e	-0.08185993
92	0xbce8c574	-0.028414465
93	0xbd816cf3	-0.063196085
94	0xbd86b84e	-0.06578122
95	0x3d8761a4	0.0661042
96	0xbce63094	-0.028099336
97	0x3b82534b	0.0039772145
98	0x3cbb4ca3	0.022863692
99	0x3b40ce7a	0.0029419945
100	0xbc756f23	-0.01498011
101	0x3bdd87b7	0.0067605632
102	0x3d00ef67	0.031478312
103	0xbd131055	-0.035904247
104	0xbd65a392	-0.056064196
105	0x3ca6e8b4	0.020374633
106	0xbc9fc51e	-0.019503172
107	0x3d8adc0d	0.067802526
108	0x3c904322	0.017610136
109	0x3d7d5efb	0.06185816
110	0xbd68f5e1	-0.056875113
111	0x3d583c31	0.052791778
112	0xbd102a40	-0.035196543
113	0x3d76ac56	0.060222946
114	0x3d95b2a6	0.07309465
115	0xbc765bb0	-0.015036508
116	0xbd18488b	-0.037178557
117	0xbd60bbfa	-0.05486677
118	0xbcc55e8d	-0.024092937
119	0x3d5ed366	0.054400824
120	0xbd53948e	-0.051655345
121	0x3d1e8163	0.03869761
122	0x3b053be8	0.0020329896
123	0x3d8b7484	0.06809333
124	0xbd1ab94d	-0.037774373
125	0x3cc5e64c	0.024157666
126	0xbc0221d8	-0.007942639
127	0xbd518b3f	-0.051158186
128	0x3d52459e	0.051335923
129	0xbd217d13	-0.03942592
130	0x3ca68c11	0.02033046
131	0xbd74c200	-0.059755325
132	0xbd095e0b	-0.033536952
133	0xbd0f0ac8	-0.03492239
134	0x3d508bf7	0.05091473
135	0xbd495990	-0.04915768
136	0x3cf8e0d6	0.030380648
137	0xba701d30	-0.0009159623
138	0xbdbc6cf4	-0.09200469
139	0x3c00d0c6	0.0078622755
140	0xbd3ded03	-0.04636861
141	0x3d3cdb1d	0.0461074
142	0x3bb2016b	0.005432298
143	0xbda4279b	-0.08015367
144	0xbb3771df	-0.0027991456
145	0xbd97030a	-0.073736265
146	0x3c596333	0.01326828
147	0x3c5d9340	0.013523877
148	0xbd6f9b8e	-0.058497958
149	0xbd9b6eeb	-0.07589515
150	0x3bbec09c	0.0058213007
151	0xbd87bdd9	-0.066280074
152	0x3d9faf45	0.07797102
153	0xbc450fce	-0.012027694
154	0xbc1e9542	-0.0096791405
155	0xbc27d02d	-0.010242504
156	0x3d99b9d0	0.07506144
157	0xbd97b866	-0.07408218
158	0xbda5a0f0	-0.08087337
159	0xbd504146	-0.0508435
160	0xbdb7822b	-0.089603744
161	0x3d2a65db	0.041601043
162	0xbd15db2a	-0.036585964
163	0xbdadf756	-0.08494441
164	0x3d8c2127	0.06842261
165	0x3d338263	0.04382552
166	0xbc878f47	-0.016547812
167	0x383867c8	4.3965672e-05
168	0xbcbe6e14	-0.023245849
169	0xbd8ae3aa	-0.06781705
170	0x3ccf4aa4	0.025304146
171	0xbdc7ff4e	-0.097654924
172	0xbda45d9d	-0.08025668
173	0x3d00bb5e	0.031428687
174	0xbcd9d121	-0.026588978
175	0x3da07a61	0.07835842
176	0xbbbff889	-0.005858485
177	0x3c165992	0.009176629
178	0x3d806ecd	0.062711336
179	0x3da2a359	0.07941312
180	0x3ca49839	0.020092117
181	0xbd8f3587	-0.069926314
182	0x3d9c7338	0.07639164
183	0xbc2eceba	-0.010669405
184	0xbd0c2938	-0.034218997
185	0xbd0c6045	-0.034271497
186	0xbcfa4e07	-0.030554784
187	0x3cabd953	0.020977652
188	0x3d13ac10	0.036052763
189	0x3d4fad35	0.050702292
190	0x3d1f903e	0.03895592
191	0xbdb0b744	-0.08628705
192	0xbbb87ce2	-0.0056301216
193	0xbcb3ec4c	-0.021963261
194	0x3d7b55b2	0.061361022
195	0xbd6915b1	-0.056905452
196	0x3d6513f4	0.055927232
197	0xbd8f0aa4	-0.069844514
198	0xbd4e707f	-0.050400253
199	0xbd23ea8a	-0.040018596
200	0xbbd37b49	-0.0064539057
201	0x3bdfcd33	0.0068298816
202	0x3d89d5ca	0.0673023
203	0xbd95adb5	-0.073085226
204	0x3da2381d	0.07920859
205	0x3d49c98f	0.049264487
206	0x3d97c171	0.07409943
207	0x3bd8e7f1	0.0066194464
208	0xbdba866b	-0.091076694
209	0x3d7e7429	0.062122498
210	0x3d82bf09	0.06384093
211	0x3d9de003	0.077087425
212	0x3d843d82	0.06457044
213	0x3d3668cc	0.044533536
214	0x3da6b7e7	0.08140545
215	0x3bbd19d0	0.0057708994
216	0x3db31c0c	0.08745584
217	0x3d2ab289	0.04167417
218	0x3c044061	0.00807199
219	0x3cdd9533	0.027048683
220	0xbcc36c91	-0.02385548
221	0x3d29e0b7	0.04147407
222	0x3ce4f898	0.02795057
223	0xbd1d110e	-0.038346343
224	0x3d8dcbf7	0.06923669
225	0xbd045f57	-0.032317486
226	0x3d5dd780	0.054160595
227	0x37f331b3	2.8991e-05
228	0x3cbae12a	0.022812445
229	0x3d6977b8	0.05699894
230	0xbca7e78b	-0.02049615
231	0xbdac215e	-0.08404802
232	0x3d57c6aa	0.052679695
233	0xbd8a2b8a	-0.06746586
234	0x3d76c06f	0.060242113
235	0xbbdca694	-0.006733725
236	0xbd9e224f	-0.077213876
237	0xbc416088	-0.0118028
238	0xbcb0a3d9	-0.021562504
239	0xbbf0b3ae	-0.0073456382
240	0xbd98d50a	-0.07462509
241	0xbd443fa9	-0.047912274
242	0xbd955682	-0.07291891
243	0x3d9b0c3a	0.075706914
244	0xbc9f3471	-0.019434186
245	0x3d77453a	0.060368754
246	0xbd2cf504	-0.042225853
247	0xbdc7f032	-0.097626105
248	0x3b113c48	0.0022161175
249	0x3d0a1bdf	0.033717986
250	0x3d79995f	0.06093728
251	0x3d8ab212	0.067722455
252	0xbd02b7e3	-0.03191365
253	0x3d896bea	0.06710036
254	0xba279780	-0.00063931197
255	0xbc643cd7	-0.013930521

fc1.bias f4 [128]
0	0xbccc8d24	-0.024969645
1	0x3add0f9c	0.0016865614
2	0x3dad82fc	0.08472249
3	0xbd2daa06	-0.042398475
4	0x3caeee28	0.021353796
5	0xbc238db0	-0.009982511
6	0xbc10a80b	-0.008829127
7	0x3bd9b695	0.00664408
8	0x3caea026	0.0213166
9	0xbd9e1917	-0.07719629
10	0x3da59e3b	0.08086821
11	0x3c4e0c2d	0.012576145
12	0xbcdb2738	-0.0267521
13	0x3d899c38	0.067192495
14	0x3d6fed8b	0.058576148
15	0x3d30d63a	0.043173052
16	0x3d4ee9b4	0.050515845
17	0x3d9c53a1	0.076331384
18	0x3c0947ff	0.008378982
19	0xbcc8af54	-0.024497665
20	0xbc7e89e0	-0.015535802
21	0x3d1ef42c	0.03880708
22	0xbcf55215	-0.029946366
23	0x3c8ac758	0.016940758
24	0xbda4cfe7	-0.08047467
25	0xbd7e686c	-0.062111303
26	0xbd313146	-0.04325988
27	0xbd46c675	-0.048529107
28	0x3d948db8	0.07253593
29	0x3dac6b70	0.084189296
30	0x3c8e4439	0.017366515
31	0x3db3a055	0.08770815
32	0xbd4d423a	-0.050111987
33	0xbd652610	-0.055944502
34	0xbd296fea	-0.041366495
35	0x3d45f58c	0.048329875
36	0x3bd7d3ac	0.0065865126
37	0x3b9e1cab	0.004825195
38	0xbcb2e564	-0.021837898
39	0x3d4f4726	0.05060496
40	0x3d832f7c	0.06405541
41	0x3d767774	0.060172513
42	0x3ce49e64	0.027907558
43	0x3d3028e5	0.04300775
44	0xbd904b10	-0.07045567
45	0xbd36f088	-0.044662982
46	0x3cf141b4	0.029450275
47	0xbbd2876e	-0.006424836
48	0xbd544a26	-0.051828526
49	0xbd460841	-0.048347715
50	0x3dc1416b	0.094363056
51	0xbd80b2e8	-0.06284124
52	0xbd5918fb	-0.05300234
53	0x3d84d37e	0.064856514
54	0x3d992257	0.07477253
55	0x3dbc2d17	0.09188288
56	0xbcac3374	-0.021020629
57	0xbcfb7e92	-0.030700002
58	0xba2d676f	-0.0006614839
59	0x3ce3b04c	0.027794026
60	0xbd9879d0	-0.07445109
61	0xbd6c1062	-0.05763281
62	0xbc999586	-0.018748056
63	0xbd65a3da	-0.056064464
64	0x3d373a2e	0.04473322
65	0x3d25131d	0.04030143
66	0x3c8342aa	0.016022999
67	0xbd826e6c	-0.063687176
68	0x3d9cd816	0.076584026
69	0xbce9d0b8	-0.028541908
70	0xbce7abfc	-0.02828025
71	0x3d90f7f1	0.07078541
72	0x3d88b720	0.06675553
73	0xbc03ba66	-0.008040046
74	0x3d2e60bc	0.04257272
75	0xbd8047d8	-0.06263703
76	0x3c9190a8	0.017769173
77	0x3d29aa00	0.04142189
78	0x3d5031c2	0.050828703
79	0xbd404f3a	-0.046950556
80	0x3d837132	0.06418075
81	0x3cec5242	0.028847817
82	0x3c7fdb23	0.015616211
83	0xbbc1fe83	-0.0059202327
84	0xbd3c2d59	-0.045941684
85	0xbd5633cc	-0.05229549
86	0xbda634b0	-0.08115518
87	0x3b2e68e0	0.0026612803
88	0x3beb6020	0.00718309
89	0x3b048653	0.0020221665
90	0xbc6b5367	-0.014363146
91	0xbd9bfa00	-0.07616043
92	0x3d7d0fa9	0.061782513
93	0x3b34ac46	0.0027568503
94	0x3b5c7cc0	0.0033643693
95	0x3cb32da4	0.02187235
96	0x3c600af3	0.0136744855
97	0xbcf1a67e	-0.029498335
98	0x3d511c08	0.051052123
99	0x3d26fdf6	0.04076954
100	0x39bb74b2	0.00035754364
101	0x3d7d6147	0.06186035
102	0x3d545615	0.051839907
103	0xbd46f65e	-0.048574798
104	0x3d3e0544	0.04639174
105	0xbbaa5f10	-0.0051993206
106	0x39fab000	0.00047814846
107	0x3d8c908e	0.06863509
108	0x3d4fdd0a	0.05074791
109	0x3d27d8b9	0.040978167
110	0xbc3cb128	-0.011516847
111	0x3db5a8cb	0.08870085
112	0x3d9e0916	0.07716577
113	0xbda08d71	-0.07839478
114	0xbd979a73	-0.07402506
115	0xbd3d415f	-0.04620492
116	0x3cfa6d3a	0.030569661
117	0x3d2d1418	0.04225549
118	0xbda70c3d	-0.08156631
119	0xbc1216eb	-0.008916597
120	0xbd07f273	-0.033190202
121	0x3dc21f5d	0.09478638
122	0x3d485c45	0.04891612
123	0xbc0c7ee8	-0.008575179
124	0xbd762786	-0.060096286
125	0xbd184aa9	-0.037180576
126	0xbcc89abe	-0.02448785
127	0x3d0e7863	0.03478278

fc2.weight f4 [1, 128]
0	0xbc940368	-0.01806803
1	0xbd58611c	-0.052826986
2	0x3db02b08	0.086019576
3	0xbd0fe9b3	-0.035134982
4	0x3d6a55e5	0.05721082
5	0xbd1e982c	-0.03871934
6	0xbd28f076	-0.041244946
7	0xbc0227e6	-0.007944083
8	0xbc18cc8e	-0.009326113
9	0x3cd14034	0.02554331
10	0x3c1b0a2c	0.009462874
11	0x3d82904b	0.06375178
12	0x3bfea180	0.007770717
13	0xbd9a8ffa	-0.075469926
14	0xbd104d17	-0.03522977
15	0x3d0504fb	0.032475453
16	0x3d1e1a2d	0.038599182
17	0x3db9ca7c	0.09071824
18	0xbd83af48	-0.064299166
19	0xbcd9af84	-0.02657295
20	0xbd80dc17	-0.06291979
21	0x3cd24a26	0.025670122
22	0xbbe3a8c7	-0.00694761
23	0x3dae4ec0	0.08511114
24	0xbd3fa06d	-0.046783853
25	0x3d431c82	0.04763461
26	0x3da049bf	0.07826566
27	0xbd834783	-0.06410124
28	0xbd0c73d3	-0.034290146
29	0x3d2b11b7	0.04176494
30	0xbd68f0c8	-0.056870252
31	0x3d0b974c	0.034079835
32	0xbcb54259	-0.022126364
33	0x3d568bd6	0.05237945
34	0x3d9bb5bc	0.076030225
35	0x3dbf135c	0.093298644
36	0x3d612572	0.05496735
37	0x3a54e367	0.0008121044
38	0xba2fc600	-0.00067052245
39	0xbd8f0535	-0.06983415
40	0x3d8e0f50	0.069365144
41	0x3dbfa795	0.093581356
42	0xb7b23632	-2.124449e-05
43	0xbd7885ac	-0.060674354
44	0x3c022648	0.007943697
45	0x3d828060	0.06372142
46	0xbcc25f35	-0.023727039
47	0xbd23645f	-0.039890643
48	0x3d89e923	0.067339204
49	0x3c4cc09b	0.012497093
50	0x3dae1ba8	0.08501369
51	0xbd8bb792	-0.06822123
52	0xbd1f7c9c	-0.038937196
53	0x3cf55650	0.029948384
54	0x3cefbfe2	0.029266302
55	0x3c825cc7	0.01591338
56	0x3db32dd5	0.08748976
57	0xbbe5149d	-0.0069909827
58	0xbd307a6e	-0.043085508
59	0x3d9f3cb3	0.07775249
60	0xbd85cc8a	-0.06533153
61	0xbd284ecf	-0.041090783
62	0xbda89d27	-0.082330994
63	0xbd822bf1	-0.063560374
64	0xbc262fe3	-0.010143253
65	0xbd0db0ed	-0.034592558
66	0x3c62fe18	0.013854526
67	0x3d9d9515	0.07694451
68	0xbd8a9ea6	-0.06768541
69	0x3ca17fb0	0.019714206
70	0xbd468dff	-0.04847526
71	0x3b00fb96	0.0019681207
72	0xbce6c914	-0.028172053
73	0x3b788d81	0.003792614
74	0x3c480fbf	0.012210785
75	0xbd94ce14	-0.07265869
76	0x3d9de98d	0.07710562
77	0xbd98300f	-0.074310414
78	0x3d7312bd	0.059344042
79	0xbd7ca825	-0.061683793
80	0xbd87b7a5	-0.06626824
81	0xbd8c61a5	-0.06854562
82	0xbd7180a0	-0.058960557
83	0xbb991fb8	-0.0046729706
84	0xbd329029	-0.043594513
85	0x3daddb45	0.08489088
86	0x3d794352	0.060855217
87	0x3c175681	0.009236933
88	0xbd7de07f	-0.061981674
89	0x3d11a031	0.03555316
90	0x3c671846	0.014104908
91	0x3d44e274	0.048067525
92	0x3cec3c11	0.028837236
93	0x3c8a643c	0.016893499
94	0xbd20b26f	-0.039232668
95	0x3daad5c4	0.08341554
96	0x3d0fd700	0.03511715
97	0x3d2413c2	0.040057905
98	0x3d78f4d3	0.060780358
99	0xbd5779d0	-0.052606404
100	0xbd8b8b17	-0.06813639
101	0xbd1712dd	-0.036883224
102	0x3cb66c37	0.022268398
103	0xbbbc47b1	-0.005745851
104	0x3daedc05	0.08538059
105	0xbd9b3bfc	-0.075798005
106	0x3bd48ea0	0.006486729
107	0x3ced21e7	0.02894683
108	0xbd3cefa6	-0.046126984
109	0xbd03b439	-0.032154296
110	0xbc571710	-0.013128057
111	0x3d807f8e	0.06274329
112	0x3da57547	0.080790095
113	0x3d78796e	0.06066268
114	0x3c49db28	0.012320317
115	0xbc0f323b	-0.008740003
116	0x3d43f3b3	0.04783983
117	0xbd80f318	-0.062963665
118	0xbd9debec	-0.07711014
119	0x3b6d3a5c	0.0036198115
120	0xb8866a5d	-6.4094296e-05
121	0x3d9adf1e	0.075620875
122	0x3d87b6d1	0.06626666
123	0xbce453a4	-0.027871914
124	0x3d0e57b2	0.0347516
125	0xbd287091	-0.041122977
126	0x3d8aacfc	0.067712754
127	0x3d81bb89	0.063345976
