Game Loop final - capitolul 7/chessModel.pth (torch, 336616 bytes, 3 tensors)

weight f4 [100, 832]
0.0042658914 -0.0010224432 -0.011727884 -0.025518492 0.012749851 -0.014197031 -0.0072728954 -0.029782096
-0.031766545 0.015345953 -0.009946685 0.00062731653 -0.01671605 -0.02121083 -0.0278333 -0.022129301
-0.033645883 0.023863949 -0.028266937 0.025897544 0.026106078 -0.02419477 0.031398196 0.015810695
-0.0198319 -0.015205134 0.008194968 -0.031967346 -0.026429458 0.016450128 -0.046637196 -0.036016673
-0.016464824 -0.027972404 -0.009732417 -0.0028691038 -0.022201924 0.0022374298 -0.047988523 -0.018738544
-0.015171906 0.009679202 0.004259128 0.022186156 -0.016194392 0.010586649 0.00019637868 -0.03354979
-0.03363443 -0.012503741 0.029058537 0.012429018 0.011417862 -0.030259883 0.022704162 -0.016304797
-0.03276915 0.029483896 0.020633213 0.013063848 -0.044886924 0.03318495 0.03343023 -0.0032140964
-0.0358927 -0.010593199 -0.03333013 -0.022053592 0.005347889 -0.033321433 0.011298534 -0.016244445
-0.015773984 0.007966168 0.010344232 -0.01076671 -0.035271622 -0.01214885 0.010685551 -0.018366529
0.019409584 -0.026968637 -0.00031125103 -0.015293637 -0.0097497385 -0.029525623 -0.019378586 -0.03154101
-0.009444413 0.0150148235 0.012454337 -0.011746171 0.011855802 0.0011698391 -0.026760023 -0.009000677
0.019452358 -0.037321065 -0.02535277 -0.00010881468 -0.02215367 -0.003763025 -0.0346601 -0.007378262
-0.022926327 -0.0022456334 -0.0252425 -0.00054049044 -0.016474674 -0.015515608 0.018804152 0.014139565
0.016194765 0.004661068 0.0072323065 -0.028284455 -0.01080683 -0.036950007 -0.024427151 -0.022740765
-0.030949423 -0.026990566 0.010634123 -0.02299213 0.009728109 -0.005898869 -0.0242071 -0.019454509
-0.013238611 -0.013917033 -0.036389653 0.031253006 -0.028225139 0.021433458 -0.008790577 -0.032097343
0.0029382894 0.020103838 -0.0055793053 -0.01639619 -0.017155265 -0.0065052 0.014873327 -0.027386019
-0.013761174 -0.018968776 0.027462041 -0.012653089 0.014309911 0.018323012 0.011022296 0.023167994
0.020978227 0.013485708 0.010105313 -0.004992671 -0.03998613 -0.012412831 0.021865234 -0.0053765117
-0.0320918 -0.029810105 -0.024877308 -0.036482036 -0.03799672 -0.037942924 -0.0037491776 0.021969257
-0.008924995 0.0017034109 -0.03543354 -0.026557595 -0.009523363 -0.0013349289 0.020511186 0.008783618
-0.016753644 0.00863057 -0.0010029805 0.002609784 0.00085496623 -0.032256253 -0.007576097 0.028524559
0.0294029 0.019139176 0.02154907 -0.021977793 0.0106745595 -0.005972621 -0.03711328 -0.018811816
-0.012417564 0.0038763946 0.017806565 0.031574454 0.0074452907 0.015458413 0.009752549 -0.014227673
0.021918844 -0.008243618 -0.003989855 0.013254561 -0.009068757 -0.0034977628 -0.011535432 -0.03258221
-0.02093432 0.01577549 -0.0040447745 0.007229656 -0.008614855 -0.030501781 0.0024804932 0.003713819
0.008333218 -0.022386065 -0.031897437 -0.038307745 -0.038105037 0.007959114 0.004588127 0.016560528
-0.00075987616 -0.0032247421 -0.0028457863 0.022411523 -0.02068613 -0.011086799 -0.012283436 0.022062793
0.008298893 -0.015416306 -0.0026181147 -0.027781032 0.01587681 -0.004393531 -0.03636939 -0.032661587
-0.0063798474 -0.037103936 -0.029687023 -0.045505874 -0.011213779 -0.020871859 0.015360453 0.0026461747
-0.02932352 0.015984483 0.00032878632 -0.032966696 -0.030918822 -0.006907639 0.018695753 -0.027126238
00000000: e4c8 8b3b 8003 86ba 5026 40bc 280c d1bc
00000010: c0e4 503c aa9a 68bc 7851 eebb 95f9 f3bc
00000020: a31d 02bd 986d 7b3c 6cf7 22bc 8072 243a
00000030: 19f0 88bc 56c2 adbc a902 e4bc 8248 b5bc
00000040: 44d0 09bd 547e c33c 1090 e7bc 1627 d43c
00000050: 6adc d53c 1c34 c6bc 659b 003d 6e85 813c
00000060: 8276 a2bc f41e 79bc 3044 063c 31f0 02bd
00000070: 9782 d8bc 6bc2 863c a506 3fbd 3886 13bd
00000080: 3de1 86bc 6226 e5bc b774 1fbc 9307 3cbb
00000090: cfe0 b5bc d8a1 123b 9d8f 44bd 9381 99bc
000000a0: 9693 78bc 8495 1e3c 2890 8b3b bebf b53c
000000b0: 1aaa 84bc a073 2d3c 00eb 4d39 816b 09bd
000000c0: 42c4 09bd 7edc 4cbc 2b0c ee3c 14a3 4b3c
000000d0: fc11 3b3c 93e3 f7bc 14fe b93c a391 85bc
000000e0: f238 06bd 3688 f13c fc06 a93c c009 563c
000000f0: 5adb 37bd f1ec 073d 23ee 083d 97a3 52bb
00000100: 3904 13bd 198f 2dbc 2d85 08bd bca9 b4bc
00000110: 583d af3b 0e7c 08bd 7d1d 393c 1213 85bc
00000120: 7138 81bc 8884 023c db7a 293c db66 30bc
00000130: fa78 10bd f80b 47bc 7312 2f3c 6775 96bc
00000140: d900 9f3c 55ed dcbc 682f a3b9 2a92 7abc
00000150: 5ebd 1fbc b8df f1bc d7bf 9ebc 2531 01bd
00000160: bdbc 1abc bc00 763c 470d 4c3c 0373 40bc
00000170: d63e 423c 4955 993a d637 dbbc 9377 13bc
00000180: 8d5a 9f3c f9dd 18bd 9db0 cfbc 7033 e4b8
00000190: 9d7b b5bc 159d 76bb c0f7 0dbd 59c5 f1bb
000001a0: fecf bbbc 7a2b 13bb 5cc9 cebc b3af 0dba
000001b0: e5f5 86bc 2d35 7ebc 2a0b 9a3c a2a9 673c
000001c0: e2aa 843c dfbb 983b fcfc ec3b cdb4 e7bc
000001d0: 210f 31bc e458 17bd 731b c8bc d74a babc
000001e0: a589 fdbc 521b ddbc bf3a 2e3c fe59 bcbc
000001f0: a662 1f3c 4d4b c1bb f84d c6bc 105f 9fbc
00000200: c2e6 58bc 4404 64bc 510d 15bd 2703 003d
00000210: 6838 e7bc 3895 af3c 5a06 10bc 8178 03bd
00000220: 5190 403b ceb0 a43c 9bd2 b6bb 4d51 86bc
00000230: 3389 8cbc 9329 d5bb 41af 733c a558 e0bc
00000240: 8c76 61bc 6864 9bbc 13f8 e03c e74e 4fbc
00000250: 1e74 6a3c 241a 963c dc96 343c ceca bd3c
00000260: 88da ab3c 29f3 5c3c c190 253c 8f99 a3bb
00000270: 7fc8 23bd 305f 4bbc b81e b33c 732d b0bb
00000280: b172 03bd 5234 f4bc 7fcb cbbc 306e 15bd
00000290: 73a2 1bbd 0a6a 1bbd c3b4 75bb dff8 b33c
000002a0: 243a 12bc fc44 df3a c222 11bd 508f d9bc
000002b0: e107 1cbc c8f8 aeba 1307 a83c 2ae9 0f3c
000002c0: f03e 89bc 3c67 0d3c 7176 83ba e908 2b3b
000002d0: d01f 603a 221f 04bd e840 f8bb 56ac e93c
000002e0: 5ade f03c c3c9 9c3c ad87 b03c c60a b4bc
000002f0: 59e4 2e3c fab5 c3bb 1804 18bd 3d1b 9abc
00000300: 0a73 4bbc 1c0b 7e3b 13df 913c 3754 013d
00000310: a0f7 f33b 4945 7d3c 28c9 1f3c 301b 69bc
00000320: 268f b33c 3d10 07bc 54bd 82bb a929 593c
00000330: 2095 14bc b93a 65bb 1cff 3cbc ec74 05bd
00000340: 737e abbc 9a3b 813c 078a 84bb c0e6 ec3b
00000350: 5225 0dbc dfde f9bc c58f 223b 8b63 733b
00000360: 0d88 083c fb62 b7bc e3a6 02bd 95e8 1cbd
00000370: 0714 1cbd f266 023c 0058 963b f2a9 873c
00000380: 6d32 47ba 3256 53bb 5f80 3abb 5f98 b73c
00000390: f575 a9bc 68a5 35bc 7740 49bc 08bd b43c
000003a0: 15f8 073c ad94 7cbc ad94 2bbb 0c95 e3bc
000003b0: 1510 823c 9cf7 8fbb 12f8 14bd 28c8 05bd
000003c0: 0a0e d1bb 4cfa 17bd 3332 f3bc 5e64 3abd
000003d0: 00ba 37bc 76fb aabc 69aa 7b3c 726b 2d3b
000003e0: e137 f0bc e4f1 823c f460 ac39 1608 07bd
000003f0: 7849 fdbc 7a59 e2bb d627 993c d837 debc

bias f4 [100]
-0.021395462 0.38860944 0.3440856 0.3113985 -0.02737758 -0.04154452 -0.01078914 0.38529864
0.31438866 -0.013965948 1.3264118 0.4508945 0.38990256 0.38375577 0.4265218 0.33955914
-0.056311548 0.36839002 1.4634339 0.31243128 0.36193907 0.32886118 1.3956999 1.18411
0.3163488 0.31846374 0.023165476 0.3520062 0.37997016 0.33574176 -0.30152404 0.35489503
0.006623985 0.38518366 -0.03945457 0.00546188 -0.038432866 0.31507424 0.6024479 0.021722523
-0.057537567 0.3632724 0.35004047 -0.023009606 0.0107706515 0.33793777 0.38271222 0.6543534
0.33373412 0.45337313 0.35826802 -0.03006356 -0.015175598 0.33975437 0.33545667 0.47673288
0.35303813 0.6923683 -0.30529934 0.45420232 -0.02998446 0.340834 0.37419423 0.33950534
0.32657444 0.32620293 -0.02735011 -0.006351977 0.3775495 0.443999 -0.011900044 -0.023945129
0.12299 0.3052286 -0.019295357 -0.045511555 0.40773162 0.33740997 0.41308963 0.35205093
-0.04319591 -0.044439316 0.4600518 0.0156149 0.31580272 1.1306893 -0.13115412 -0.009806243
-0.0955899 0.34057 0.0031368653 -0.086390026 0.4137904 0.3586757 -0.03691627 -0.24725403
0.3552073 -0.13334589 0.35199016 -0.23780593
00000000: 8945 afbc d1f7 c63e fd2b b03e a06f 9f3e
00000010: f246 e0bc 962a 2abd efc4 30bc dd45 c53e
00000020: 8df7 a03e 6ed1 64bc ddc7 a93f a5db e63e
00000030: 4fa1 c73e a37b c43e 1161 da3e b2da ad3e
00000040: f0a6 66bd 9e9d bc3e cd51 bb3f fef6 9f3e
00000050: 1450 b93e 7e60 a83e 4ba6 b23f eb90 973f
00000060: 78f8 a13e ae0d a33e 86c5 bd3c 283a b43e
00000070: 738b c23e 58e6 ab3e 5c61 9abe cdb4 b53e
00000080: 030e d93b cb36 c53e 1d9b 21bd 92f9 b23b
00000090: c86b 1dbd 6951 a13e 073a 1a3f 6ff3 b13c
000000a0: 83ac 6bbd d7fe b93e 8138 b33e a47e bcbc
000000b0: 6377 303c 2e06 ad3e dbf2 c33e b483 273f
000000c0: 33df aa3e 8620 e83e e86e b73e db47 f6bc
000000d0: 12a3 78bc 49f4 ad3e fac0 ab3e 5516 f43e
000000e0: 6ac1 b43e 0d3f 313f 3250 9cbe 358d e83e
000000f0: f8a1 f5bc cb81 ae3e 6396 bf3e a5d3 ad3e
00000100: c434 a73e 1204 a73e 560d e0bc 3f24 d0bb
00000110: 2b4e c13e d653 e33e 67f8 42bc 9328 c4bc
00000120: 2ee2 fb3d ec46 9c3e 4c11 9ebc 536a 3abd
00000130: 33c2 d03e 00c1 ac3e 7c80 d33e 0540 b43e
00000140: 32ee 30bd 0006 36bd e98b eb3e a3d5 7f3c
00000150: e5b0 a13e 6dba 903f 444d 06be 5daa 20bc
00000160: a3c4 c3bd 315f ae3e de93 4d3b 41ed b0bd
00000170: 56dc d33e 57a4 b73e 8435 17bd 2930 7dbe
00000180: bbdd b53e d38b 08be 0e38 b43e 6683 73be

weight f4 [1, 100]
-0.06574724 0.22212237 0.26742065 0.24885601 -0.05418188 -0.06871708 -0.061555546 0.2536667
0.2736874 -0.027858697 1.0024055 0.21022384 0.22541076 0.2120556 0.20829217 0.25049302
-1.6475055 0.23974729 1.628238 0.26296815 0.23888944 0.24903095 1.7099298 0.9405723
0.27480754 0.26536092 -0.09531594 0.24122244 0.22644763 0.2397822 -1.6493468 0.23744117
-0.013286961 0.21808074 -0.029454714 -0.23107788 -0.018809065 0.28042686 0.27724564 -0.052473675
-1.2186272 0.23886882 0.2681609 -0.0116425175 -0.069456406 0.2651651 0.23831865 0.32057208
0.2804485 0.2003154 0.2178532 -0.060841724 -0.066689126 0.25580987 0.2663363 0.20254429
0.24132729 0.33883178 -1.5963979 0.19213511 -0.0685193 0.246388 0.22308569 0.2808609
0.26596618 0.24399251 -0.07550637 -0.29597706 0.26119098 0.2108086 -0.0133541785 -0.06105488
-1.4695051 0.27603972 -0.8877556 -0.067313485 0.2360272 0.2757808 0.23766074 0.2812292
-0.07829685 -0.5482241 0.21866606 -0.08138493 0.27993208 0.7025384 -1.5088842 -0.052383464
-0.7408221 0.2549313 -0.017463094 -1.6867796 0.2132625 0.24727075 -0.0149265 -1.8770665
0.23922929 -1.6681875 0.2573728 -1.3963544
00000000: 7da6 86bd 0c74 633e 5ceb 883e 1cd4 7e3e
00000010: d2ed 5dbd 8abb 8cbd ab21 7cbd 9ae0 813e
00000020: c120 8c3e ec37 e4bc d34e 803f eb44 573e
00000030: 14d2 663e 1a25 593e 8b4a 553e 9f40 803e
00000040: 76e1 d2bf 5080 753e 1a6a d03f c3a3 863e
00000050: 6f9f 743e f801 7f3e fbde da3f 59c9 703f
00000060: 93b3 8c3e 63dd 873e 0135 c3bd 0403 773e
00000070: e3e1 673e 7789 753e cc1d d3bf c723 733e
00000080: 8eb1 59bc 8f50 5f3e 034b f1bc ae9f 6cbe
00000090: 7815 9abc 1c94 8f3e 24f3 8d3e a3ee 56bd
000000a0: fafb 9bbf 079a 743e 634c 893e 42c0 3ebc
000000b0: 293f 8ebd b8c3 873e ce09 743e 0622 a43e
000000c0: f296 8f3e 7b1f 4d3e e914 5f3e 2c35 79bd
000000d0: 4f94 88bd 83f9 823e 3b5d 883e c567 4f3e
000000e0: 801e 773e 5c7b ad3e c456 ccbf 11bf 443e
000000f0: d953 8cbd 234d 7c3e 9370 643e 00cd 8f3e
00000100: b82c 883e 2cd9 793e 15a3 9abd 4e8a 97be
00000110: d3ba 853e 36de 573e 7ccb 5abc af14 7abd
00000120: be18 bcbf 1455 8d3e f343 63bf a7db 89bd
00000130: 1db1 713e 2433 8d3e 565d 733e 46fd 8f3e
00000140: 195a a0bd 6a58 0cbf ffe9 5f3e 24ad a6bd
00000150: 4253 8f3e 8ed9 333f 1e23 c1bf 0b90 56bd
00000160: 84a6 3dbf 5b86 823e c30e 8fbc 65e8 d7bf
00000170: 7c61 5a3e 8b34 7d3e 478e 74bc b743 f0bf
00000180: 86f8 743e 2b87 d5bf 5ec6 833e bebb b2bf
