Game Loop final - capitolul 7/runs/position_evaluation/train6/chessModel.pth (torch, 454946 bytes, 9 tensors)

conv1.weight f4 [32, 13, 3, 3]
0	0x3c2b948f	0.010472431
1	0xbd532f7d	-0.05155896
2	0xbd9b590f	-0.07585346
3	0xbe1f2215	-0.15540345
4	0xbe424dd9	-0.18975009
5	0xbe0e5b59	-0.13902034
6	0xbe05eb33	-0.13078003
7	0xbdaad658	-0.08341664
8	0xbd2e25d5	-0.04251655
9	0x3e11cab1	0.14237477
10	0x3e3495b8	0.17635238
11	0x3e1526b7	0.1456555
12	0xbd48aa1a	-0.048990346
13	0xbd31d93c	-0.04342006
14	0xbd6d70c1	-0.05796886
15	0xbd4f91c4	-0.050676122
16	0xbd4471a6	-0.047959946
17	0x3bc84eae	0.006112895
18	0x3df2565d	0.11832879
19	0xbd596b7a	-0.053081013
20	0xbda7e237	-0.08197444
21	0x3d8e1e41	0.06939364
22	0x3e1780ef	0.14795278
23	0x3bc7f151	0.006101765
24	0x3dbf26e5	0.093335904
25	0x3d12a50a	0.035801925
26	0x3e18e921	0.14932682
27	0x3ca3a443	0.019975787
28	0xbb218202	-0.002464414
29	0xbbff37d4	-0.0077886377
30	0x3da8c3d6	0.08240478
31	0x3d9d6b8b	0.07686528
32	0xbd61496a	-0.055001654
33	0x3d772718	0.060340017
34	0x3d70a781	0.058753494
35	0x3d3e8892	0.046516962
36	0x3e2a0356	0.16602835
37	0x3bd52a6e	0.006505302
38	0xbdade21a	-0.08490391
39	0xbcc5b36e	-0.02413341
40	0xbcbd1452	-0.023080979
41	0xbcb69157	-0.0222861
42	0xbcba34b6	-0.022730213
43	0xbd6ceb16	-0.057841383
44	0xbd8e634b	-0.069525324
45	0x3ce1af62	0.02754945
46	0x3e0c4a15	0.13700135
47	0xbc36e817	-0.011163733
48	0xbd929fa0	-0.07159352
49	0xbd1551a0	-0.036454797
50	0xbe264684	-0.16237837
51	0xbe0fb648	-0.14034379
52	0x3e027b51	0.12742354
53	0xbdefd82b	-0.11711153
54	0x3d3e309d	0.04643308
55	0x3cf2ba90	0.029629976
56	0x3cce2e74	0.025168635
57	0x3cd5c892	0.026096616
58	0x3d0fdf87	0.03512528
59	0xbe2f5636	-0.1712273
60	0xbe04663b	-0.12929623
61	0x3e0e5316	0.13898882
62	0xbc4b14cb	-0.012395094
63	0x3e1b081f	0.15139817
64	0x3ae4ac84	0.0017446433
65	0x3defd0ea	0.11709769
66	0x3c359d44	0.011084858
67	0xbe23cefe	-0.1599693
68	0xbc019eb6	-0.007911375
69	0xbd951f5c	-0.07281372
70	0x3d5e9c02	0.054348
71	0x3d0f2ecd	0.034956742
72	0xbad03951	-0.0015886222
73	0x3e322c5a	0.17399731
74	0x3bf7b82a	0.007559796
75	0x3e06a873	0.13150196
76	0x3c88ecb9	0.01671444
77	0x3c5c69ef	0.013452991
78	0xbe0eabaf	-0.1393268
79	0x3e32cfe6	0.1746212
80	0xbd1707c2	-0.036872633
81	0xbd5118af	-0.05104893
82	0xbd48ba27	-0.049005654
83	0xbde31fa8	-0.11090022
84	0xbc9506bd	-0.01819169
85	0xbbf84ab1	-0.0075772633
86	0xbcd46405	-0.0259266
87	0x3c8a9c9e	0.016920384
88	0x3d55361b	0.052053552
89	0x3e01ad3d	0.12663741
90	0xbe1a3c77	-0.15062128
91	0xbccd6794	-0.025073804
92	0xbda077cb	-0.07835349
93	0x3d84dd9b	0.064875804
94	0xbe683898	-0.22677839
95	0x3ce0af4f	0.027427344
96	0xbd79250d	-0.06082635
97	0x3d652238	0.055940837
98	0xbbd705ba	-0.006561962
99	0x3d543d6e	0.051816396
100	0x3e18ab64	0.1490913
101	0x3d90bcb9	0.07067246
102	0x3d6a9537	0.05727121
103	0xbd82e9c9	-0.06392247
104	0xb7c93ab2	-2.39884e-05
105	0xbd3f1626	-0.04665198
106	0x3cd9db4a	0.026593823
107	0xbbd19996	-0.0063964827
108	0xbc8a7b39	-0.01690446
109	0x3cf67382	0.030084375
110	0x3d1a7d13	0.037716936
111	0xbcedf293	-0.029046332
112	0x3c9f2b5e	0.019429859
113	0x3ce654c6	0.028116595
114	0x3d982e0e	0.07430659
115	0xbd09cf51	-0.033644978
116	0x3d3578d0	0.04430467
117	0x3c01aa08	0.007914074
118	0xbca17690	-0.019709855
119	0x3d2d8053	0.042358708
120	0xbc9da8da	-0.019245554
121	0xbd2e190e	-0.042504363
122	0x3d3007e1	0.042976264
123	0x3d026da2	0.031842835
124	0x3d23b2d0	0.03996545
125	0xbcc1939a	-0.023629952
126	0x3de5c9bc	0.112201184
127	0x3e3a9a57	0.18222938
128	0x3cb5ba47	0.02218355
129	0xbdbf777f	-0.09348964
130	0x3dcbd33c	0.09952399
131	0xbcb573da	-0.022149969
132	0x3de0f9c7	0.10985141
133	0x3d44cfce	0.04804974
134	0xbcb23894	-0.021755494
135	0xbdf9b10e	-0.121919736
136	0x3d920cb8	0.07131332
137	0x3c94458a	0.018099565
138	0xbe1104b2	-0.14161947
139	0x3e1276b9	0.14303102
140	0x3d55ccd0	0.052197278
141	0x3c2eea99	0.01067605
142	0x3dbd2487	0.09235483
143	0xbd0861d1	-0.03329641
144	0x3dc1cc1c	0.09462759
145	0x3d066aad	0.032816578
146	0x3b7aa8b9	0.003824754
147	0x3d03afad	0.03214996
148	0x3e208566	0.15675887
149	0x3dc1f921	0.09471346
150	0x3ddbb0ab	0.10727056
151	0x3d8de64e	0.06928693
152	0x3bc97474	0.0061479155
153	0x3d08db24	0.033412114
154	0x3cf8ccb5	0.03037105
155	0x3cf029f8	0.029316887
156	0x3c235186	0.009968167
157	0x3e173d31	0.14769436
158	0xbcf1d52d	-0.029520595
159	0x3de04bc6	0.10951953
160	0x3d78c70b	0.060736697
161	0x3c256d4f	0.010096862
162	0x3ce154ea	0.02750631
163	0x3d16c7db	0.03681169
164	0xbd85589c	-0.065110415
165	0xbe553c28	-0.20823729
166	0xbdab24e7	-0.08356648
167	0x3cda5984	0.026654013
168	0x3b75a0ec	0.003747995
169	0xbd767007	-0.06016543
170	0x3ce908e6	0.028446626
171	0xbc57b331	-0.013165281
172	0xbd8fe25e	-0.07025598
173	0xbd5cf263	-0.053942095
174	0xbd3cc77e	-0.046088688
175	0x3cb17578	0.021662459
176	0x3c8beb52	0.017079983
177	0x3e0bb1bf	0.13642024
178	0x3dbdadd0	0.09261668
179	0xbe2052e9	-0.15656628
180	0xbde78463	-0.11304548
181	0x3d906e21	0.070522554
182	0xbe0609c4	-0.13089663
183	0x3ce5b59d	0.028040702
184	0x3b17908c	0.0023126928
185	0xbd84a033	-0.06475868
186	0xbd99ed87	-0.07516008
187	0xbd1c11b4	-0.03810282
188	0xbaaef491	-0.0013348033
189	0xbe6e8795	-0.23293908
190	0xbda6c1fa	-0.08142467
191	0xbc94d70f	-0.018168954
192	0xbc9dd18b	-0.019264957
193	0xba4df2ee	-0.0007856329
194	0xbe20baed	-0.15696307
195	0xbd805c3f	-0.062675945
196	0xbe66aab8	-0.22526062
197	0xbe0be9a0	-0.1366334
198	0xbd975ed6	-0.073911354
199	0xbdaaacef	-0.08333766
200	0x3c6ddd04	0.014518026
201	0xbc52a89a	-0.012857581
202	0xbda80482	-0.08203985
203	0xbc5fdeb3	-0.0136639355
204	0xbd85d52d	-0.06534801
205	0xbe10b10a	-0.14130035
206	0xbe3fd29e	-0.18732688
207	0xbc82d2fc	-0.015969746
208	0xbd2fb4c3	-0.042896997
209	0x3c998f45	0.018745074
210	0xbdd393ae	-0.10330902
211	0x3cd3611d	0.025803143
212	0xbdbaa5ad	-0.091136314
213	0xbbcc16b6	-0.0062282933
214	0xbd9f80c3	-0.07788231
215	0xbe98143d	-0.2970294
216	0x3d4135dd	0.04717051
217	0x3d7b78a0	0.061394334
218	0x3d049786	0.032371067
219	0xbd2e47b7	-0.04254886
220	0x3d405435	0.046955306
221	0xbe2a8d16	-0.16655383
222	0xbe4a6efc	-0.197689
223	0x3c5e7f60	0.013580173
224	0xbdb0ddf4	-0.08636084
225	0x3d5feb9b	0.05466805
226	0xbd22aa17	-0.03971299
227	0x3d815dce	0.0631672
228	0xbdd56ee1	-0.10421539
229	0xbd9c2701	-0.07624627
230	0xbda20c25	-0.07912473
231	0xbc9e18f1	-0.019299002
232	0xbd211cd6	-0.03933414
233	0x3b8ea797	0.0043534744
234	0xbc86f7f9	-0.016475664
235	0xbaa7b3ef	-0.0012794713
236	0xbbbf6f1b	-0.005842102
237	0xbcdb73b8	-0.026788577
238	0x3cdd946b	0.02704831
239	0xbced01f6	-0.0289316
240	0x3c359613	0.011083144
241	0x3dc159f9	0.09440989
242	0x3caecebf	0.021338819
243	0x3becee25	0.0072305375
244	0x3d6609ee	0.056161813
245	0x3d9ab22c	0.07553515
246	0xbd483d69	-0.04888669
247	0x3d06c794	0.032905176
248	0x3e225573	0.15852909
249	0xbe25029c	-0.16114277
250	0x3dc83873	0.09776392
251	0x3c682015	0.014167805
252	0x3d83c4f0	0.06434047
253	0x3d64530f	0.055743273
254	0x3da6d627	0.08146315
255	0x3db1564f	0.0865904

conv1.bias f4 [32]
0	0x3dc05a71	0.0939225
1	0xbc4b4cc0	-0.012408435
2	0xbdb40389	-0.08789737
3	0x3d98f50d	0.07468615
4	0x3cdde954	0.027088799
5	0xbce32919	-0.027729558
6	0xbd95995e	-0.07304643
7	0x3d866765	0.0656269
8	0xbd5b87df	-0.053596374
9	0x3c6dd5b0	0.014516279
10	0x3dc13960	0.094347715
11	0xbbfdb61e	-0.0077426573
12	0xbcf7294a	-0.030171055
13	0xbc0bbdc3	-0.008529129
14	0x3d685bab	0.056728046
15	0x3bc76402	0.00608492
16	0xbbcd7be8	-0.0062708743
17	0x3ca6dd4a	0.02036919
18	0xbd94d416	-0.07267015
19	0x3d943212	0.07236113
20	0xbd3e2bda	-0.04642854
21	0x3d9505f3	0.07276525
22	0xbd849abf	-0.06474828
23	0x3cad7c24	0.021177359
24	0x3d92b026	0.07162504
25	0x3d197625	0.037466187
26	0xbcd400fc	-0.025879376
27	0xbcdea3fe	-0.027177807
28	0xbd7518eb	-0.059838217
29	0xbd40f68c	-0.047110125
30	0xbdb13ebc	-0.08654544
31	0x3ce2e23d	0.02769577

conv2.weight f4 [64, 32, 3, 3]
0	0x3bab26b7	0.005223121
1	0xbd06066e	-0.032720976
2	0x3d08eeca	0.033430852
3	0xbd4689a0	-0.048471093
4	0x3c82c8ab	0.015964827
5	0x3cede4fa	0.029039849
6	0xbd675325	-0.056475777
7	0xbd0c1e8f	-0.03420883
8	0x3c2c8434	0.010529567
9	0x3d9347ff	0.071914665
10	0xbd38a267	-0.045076754
11	0xbbf42256	-0.007450382
12	0x3c863484	0.016382463
13	0x3da8f3f7	0.082496576
14	0x3c966696	0.018359464
15	0x3d4088bc	0.0470054
16	0x3d56b92f	0.0524227
17	0xbb6493e6	-0.0034878193
18	0x3d56761b	0.052358728
19	0x3d38a818	0.04508218
20	0x3d3bc333	0.045840453
21	0x3c5a0c11	0.013308541
22	0x3d287a57	0.041132297
23	0x3d83e65e	0.064404234
24	0x383a54c0	4.4424785e-05
25	0x3d662771	0.056189958
26	0x3d95893f	0.07301568
27	0x3d0d7ac2	0.0345409
28	0x3cbb8c10	0.022893935
29	0x3c5e2d4e	0.013560606
30	0x3d14206a	0.036163725
31	0x3d85d305	0.065343894
32	0x3d62e219	0.055391405
33	0xbd6c9d66	-0.057767294
34	0x3c255faa	0.010093609
35	0x3d68e658	0.056860298
36	0x3d3ee7db	0.046607833
37	0x3cf1a7e8	0.02949901
38	0x3c89a9f1	0.016804667
39	0x3c8da2af	0.017289488
40	0x3c4463cc	0.011986684
41	0xbc7a5317	-0.015278599
42	0xbba14fd0	-0.0049228445
43	0xba968322	-0.0011483172
44	0x3c9f2b25	0.019429753
45	0xbd54f9c5	-0.05199601
46	0x3c9f652c	0.019457422
47	0x3d583e8a	0.052794017
48	0x3b9d9018	0.004808437
49	0x3d9ad5ee	0.07560335
50	0x3dbaa8d7	0.09114235
51	0xbd10bedf	-0.03533828
52	0xbc9e9e0b	-0.01936247
53	0x3d8a4159	0.06750745
54	0x3cf60744	0.030032761
55	0x3b4e89f2	0.0031515327
56	0x3d6e1d06	0.058133148
57	0xbbaef1ab	-0.0053388677
58	0x3d3b93bc	0.045795187
59	0xbc150fc6	-0.009097999
60	0x3d566eab	0.052351635
61	0xbd77a060	-0.06045568
62	0x3c86356e	0.0163829
63	0x3d094ebc	0.033522353
64	0xbc9fb54f	-0.019495634
65	0xbc1d6b7c	-0.009608146
66	0x3c2032e3	0.009777757
67	0xbb0389b4	-0.002007109
68	0xbbeabc52	-0.007163563
69	0x3cdd26c1	0.026996018
70	0xbcad0634	-0.021121122
71	0xbcb43b6e	-0.022000995
72	0x3d367cab	0.044552486
73	0xbcb88cb5	-0.022528032
74	0xbcd5dcd6	-0.02610628
75	0x3cae400c	0.021270774
76	0xbd301253	-0.042986225
77	0x3b98292a	0.004643579
78	0xbba19f4d	-0.00493232
79	0x3d1e4b47	0.03864601
80	0x3d160234	0.036623195
81	0x3d8e6dba	0.069545224
82	0x3c0da357	0.0086449
83	0x3dc1f620	0.09470773
84	0x3d1b5da7	0.03793111
85	0xbcf7d43f	-0.030252574
86	0x3c8dd587	0.017313732
87	0x3d0c4cc6	0.034252904
88	0xbaafcc1b	-0.0013412269
89	0x3d235cb4	0.03988333
90	0x3bfd0004	0.007720949
91	0x3c17bf4d	0.009261918
92	0x3d5884af	0.052860912
93	0x3d719280	0.058977604
94	0xbc72916a	-0.014805177
95	0x3d036e46	0.032087587
96	0xbc818cac	-0.015814148
97	0x3c8a0fe1	0.016853275
98	0x3d8918d6	0.0669419
99	0xbd802cc4	-0.06258538
100	0x3d184bd4	0.03718169
101	0xbdba2aaa	-0.09090169
102	0xbd25e810	-0.040504515
103	0xbc12f774	-0.00897013
104	0x3bda6104	0.006664397
105	0xbd66e437	-0.056369986
106	0xbc0a4bf7	-0.008440963
107	0xbd492a6d	-0.049112726
108	0xbd820763	-0.06349065
109	0xbcc8c279	-0.024506794
110	0x3d7f936e	0.06239646
111	0x3da2c177	0.07947057
112	0x3cb51a1c	0.022107176
113	0x3cf63deb	0.030058822
114	0xbd309ddb	-0.043119293
115	0x3d76a339	0.060214255
116	0x3ce53c18	0.027982756
117	0xbb8fda81	-0.0043900614
118	0x3b28391d	0.0025668808
119	0x3d75e3e0	0.06003177
120	0xba1828a4	-0.0005804396
121	0xbcfbdfcd	-0.030746365
122	0x3d18aa19	0.037271593
123	0x3c806019	0.015670823
124	0xbc6ef49f	-0.014584689
125	0x3d8558fd	0.06511114
126	0xbd70819d	-0.05871736
127	0xbd2ddd34	-0.042447284
128	0x3b7cbeb3	0.0038565814
129	0x3c684fc5	0.014179175
130	0x3d393432	0.045215793
131	0x3d978d2e	0.07399975
132	0x3d6bd459	0.057575557
133	0xbc667f8d	-0.014068496
134	0x3db5ae97	0.08871191
135	0xbd44991e	-0.047997586
136	0xbd991172	-0.074740306
137	0xbcf6fb1f	-0.03014904
138	0x3cc8d796	0.024516862
139	0x3d2c53bc	0.042072043
140	0xbd896f04	-0.06710628
141	0xbdf4ce99	-0.11953468
142	0xbd13b949	-0.036065374
143	0xbc74bbf2	-0.014937388
144	0x3b332200	0.0027333498
145	0xbd925c0d	-0.071464635
146	0x3dc3c7d0	0.095595956
147	0x3d0177a1	0.031608228
148	0xb999d817	-0.00029343434
149	0x3ca4c9af	0.020115701
150	0x3cb9ab5e	0.022664722
151	0xbd1de325	-0.0385467
152	0xbca8ab4d	-0.020589495
153	0xbca7cdbb	-0.020483842
154	0x3ccd9cfd	0.025099272
155	0x3dd459c6	0.103686854
156	0xbc5bc411	-0.013413445
157	0x3b3cdbf5	0.0028817628
158	0x3d6c63e9	0.05771247
159	0x3d273fb3	0.040832233
160	0x3d82e15f	0.063906424
161	0xbb33844b	-0.0027392085
162	0x3b924789	0.004464094
163	0x3c90a140	0.017655015
164	0xbd4df7fd	-0.05028533
165	0x3d1059fa	0.03524206
166	0x3c94c890	0.018162042
167	0xbc51eee2	-0.012813302
168	0xbc5858e6	-0.013204789
169	0xbcf218ee	-0.029552903
170	0x3d40991f	0.047021028
171	0xbd3b753d	-0.045766104
172	0x3bae6158	0.005321663
173	0x3c419c00	0.011816978
174	0x3cdb6431	0.026781173
175	0x3c96d998	0.018414304
176	0x3da12456	0.07868259
177	0xbd6c63cd	-0.057712365
178	0xbd5503e6	-0.05200567
179	0x3d2a584f	0.041588124
180	0x3d864fd4	0.06558195
181	0x3d382994	0.044961527
182	0x3dc90920	0.098161936
183	0x3c167b33	0.009184646
184	0x3da95f4c	0.082701296
185	0x3ca53ef2	0.020171616
186	0x3d9cce03	0.07656481
187	0x3d0854ec	0.033284113
188	0x3d63fc02	0.055660255
189	0xbd404ac5	-0.046946306
190	0xbd2c21dd	-0.042024482
191	0xbc479d17	-0.012183449
192	0xbd06ee19	-0.03294191
193	0xbca40390	-0.02002123
194	0x3d44d3b8	0.048053473
195	0xbd14888b	-0.03626303
196	0xbcecb97e	-0.028897043
197	0xbd2cb190	-0.042161524
198	0xbc28796f	-0.010282858
199	0xbd0fe1b7	-0.035127368
200	0x3d2c6f81	0.042098526
201	0x3cec3343	0.028833037
202	0xbc4b5338	-0.012409978
203	0x3daea1f2	0.08526982
204	0xbd42f779	-0.04759929
205	0x3c303a00	0.010756016
206	0x3da13cb6	0.07872908
207	0x3c9e99a5	0.019360373
208	0xbcdb324e	-0.026757386
209	0x3c0b8339	0.008515173
210	0xbd26256a	-0.040563025
211	0x3d8b4113	0.06799521
212	0x3c7571c6	0.014980739
213	0xbd8b026b	-0.067875706
214	0x3d46822c	0.048463985
215	0x3c86aad6	0.016438883
216	0xbaf51326	-0.0018697723
217	0x3d50286d	0.050819803
218	0x3be3d7b5	0.0069532045
219	0x3cc536bf	0.024073957
220	0xbc21db83	-0.009878996
221	0x3d765278	0.060137242
222	0x38cfd210	9.9096564e-05
223	0xbd1a82f4	-0.037722543
224	0x3d9c34b1	0.076272376
225	0xbc838dd8	-0.016058847
226	0x3c63ec80	0.013911366
227	0x3b4aa000	0.0030918121
228	0xbd244fa2	-0.040115006
229	0xbcd4ca47	-0.02597536
230	0x3944973a	0.00018748353
231	0xbd26b795	-0.04070242
232	0xbcdcb5ab	-0.026942095
233	0x3bae213f	0.005314022
234	0xbd1cadfb	-0.03825186
235	0x3cbfe4ed	0.02342459
236	0xbdf0e775	-0.11762897
237	0xbd8000bd	-0.06250141
238	0xbd81eaa1	-0.0634358
239	0xbd83eb82	-0.06441404
240	0xbb77f57f	-0.0037835536
241	0x3d67f25d	0.05662762
242	0xbd357cb1	-0.044308368
243	0x3d10d891	0.035362784
244	0x3d2e808e	0.042603068
245	0xbd6ba7f3	-0.057533216
246	0x3d55108e	0.05201774
247	0x3d6ff0e4	0.05857934
248	0x3d7dc09c	0.061951265
249	0x3d898958	0.06715649
250	0x3d4277b6	0.047477446
251	0x3d2d0fd3	0.04225142
252	0xbd35c4de	-0.0443772
253	0xbc3cb251	-0.011517123
254	0xbe00c744	-0.12576014
255	0x3c5bfec0	0.013427436

conv2.bias f4 [64]
0	0xbd53def6	-0.051726304
1	0x38bbc1db	8.952963e-05
2	0x3d51e544	0.051244035
3	0x3d920a6c	0.07130894
4	0x3afbe69c	0.0019218507
5	0xbbfbb3bc	-0.007681338
6	0x3d22558d	0.03963237
7	0x3d81f2a1	0.06345106
8	0xbcfb5c45	-0.030683646
9	0x3c8d4550	0.017244965
10	0xbd1d7cba	-0.038449027
11	0x3c60deeb	0.013725023
12	0xbd9bb548	-0.07602936
13	0xbcbdbadc	-0.02316039
14	0xbc16e0bf	-0.009208857
15	0xbd01fe02	-0.03173638
16	0xbc2354fe	-0.009968994
17	0xbd2f8d01	-0.04285908
18	0xbcca044e	-0.024660256
19	0x3be44e5f	0.0069673504
20	0xbd54713e	-0.05186581
21	0xbd13d59e	-0.036092393
22	0xbc919ba3	-0.017774409
23	0x3ce6b03e	0.02816021
24	0x3d0680e7	0.032837775
25	0x3bac8b36	0.0052656187
26	0x3c089ca3	0.008338126
27	0xbc3ad1a5	-0.011402522
28	0xbbe972b2	-0.0071242684
29	0x3b085a91	0.0020805935
30	0x3d311e3a	0.043241717
31	0xbd3cd659	-0.046102855
32	0x3cb8ba63	0.022549814
33	0xbd3aba35	-0.045587737
34	0xbcf84554	-0.030306496
35	0xbc422867	-0.011850453
36	0xbc401681	-0.011724115
37	0x3d3f36d8	0.046683162
38	0xbd3b6774	-0.045752957
39	0xbd0d9f5f	-0.034575816
40	0x3cc2476a	0.023715694
41	0x3a421816	0.0007404102
42	0xbce9ad2a	-0.028524954
43	0xbcb9002e	-0.022583093
44	0xbc996cd6	-0.018728655
45	0xbd68dd13	-0.056851458
46	0xbcd93c87	-0.02651812
47	0x3ca92f58	0.020652458
48	0x3c21238c	0.009835135
49	0x3d207d50	0.039182007
50	0x3c72763a	0.014798695
51	0xbcdc432f	-0.026887504
52	0x3cd9240e	0.02650645
53	0x3ccf8ecd	0.025336647
54	0xbd3bd168	-0.045854002
55	0x3c6ea97d	0.014566776
56	0xbcc6b753	-0.024257338
57	0x3cc00644	0.023440488
58	0xbc81f471	-0.015863629
59	0xbd2d383c	-0.042289957
60	0x3b93d7da	0.0045118155
61	0x3d158ff6	0.036514245
62	0xbd0d0cf2	-0.034436174
63	0x3b885dcb	0.0041615716

conv3.weight f4 [128, 64, 3, 3]
0	0x3b1cfa80	0.002395302
1	0x3aec2537	0.0018016462
2	0x3cb67082	0.022270445
3	0xbb5bea2e	-0.003355633
4	0xbb97784d	-0.0046224953
5	0x3c52e9ee	0.012873156
6	0xbc91644e	-0.017748024
7	0xbb31b054	-0.0027113156
8	0xbaff6ba6	-0.0019487038
9	0xbc3ca0a0	-0.011512905
10	0x3c21ea10	0.009882465
11	0x3ceeef02	0.029166702
12	0x3d09ca71	0.03364033
13	0x3cd6e367	0.02623148
14	0x3d29b9da	0.041437007
15	0xbc9f2b52	-0.019429836
16	0x3cb991d6	0.022652548
17	0xbbae8f4d	-0.0053271414
18	0xbcf75e25	-0.030196259
19	0xbd1c2910	-0.038125098
20	0x3c18b9ac	0.009321611
21	0xb8c1890c	-9.228484e-05
22	0x3cfb6b37	0.030690772
23	0xbcdc5525	-0.026896069
24	0x3d818738	0.06324619
25	0x3d25127f	0.040300842
26	0xbca567f6	-0.020191174
27	0x3c2c21dc	0.01050612
28	0xbd47ea10	-0.048807204
29	0xbd26bcb7	-0.040707316
30	0x3d4d9459	0.050190303
31	0xbcca2345	-0.024675021
32	0xbc521e10	-0.01282455
33	0xbc1d9619	-0.009618306
34	0x3d1e3072	0.03862042
35	0xbcaeae18	-0.021323249
36	0xbcab0844	-0.020877965
37	0xbcd8fd44	-0.026487954
38	0xbc37e7ac	-0.0112246685
39	0x3d1a04c8	0.037602216
40	0x3cf012da	0.029305864
41	0x3cf6fe57	0.030150576
42	0xbbd2906f	-0.006425909
43	0x3d4f1e44	0.050565973
44	0x3b536170	0.0032254122
45	0x3ca0d6c2	0.019633655
46	0x3b8f1c7b	0.004367409
47	0xbc17bcdc	-0.009261336
48	0x3bea7056	0.007154505
49	0xbc4cf577	-0.012509695
50	0xbccc4393	-0.024934566
51	0xbc707d75	-0.014678349
52	0xbc861c06	-0.016370784
53	0xbd11cac2	-0.035593756
54	0xbd234803	-0.039863598
55	0xbc7a0c29	-0.015261688
56	0xbc392700	-0.011300802
57	0x3c13a91d	0.009012488
58	0x3d1c8236	0.038210116
59	0xbcc8d090	-0.024513513
60	0xbb80b56a	-0.0039278762
61	0x3d41ad1b	0.047284227
62	0x3c044f9b	0.00807562
63	0x3c99bc0b	0.018766424
64	0x3d1beb16	0.038065992
65	0xb9a1c000	-0.00030851364
66	0x3db47ee4	0.08813265
67	0x3c9f6049	0.019455092
68	0xbccd329a	-0.025048543
69	0x3d93a750	0.07209647
70	0x3c112f2d	0.008861345
71	0xbd4b9f10	-0.04971224
72	0x3c5d2abb	0.013498957
73	0xbd30b29a	-0.043139078
74	0xbcccf88e	-0.025020864
75	0x3c96eee8	0.018424466
76	0xbaa0bee5	-0.0012263922
77	0xbb3bce20	-0.0028656796
78	0x3c9115e5	0.017710635
79	0xbce32c2b	-0.027731022
80	0xbc9e96a0	-0.019358933
81	0xbd35b78c	-0.044364497
82	0xbd7be5d1	-0.061498467
83	0xbc899ff3	-0.016799903
84	0x3d3e6e34	0.046491817
85	0xbce6f759	-0.028194116
86	0xbd43f291	-0.04783875
87	0xbce608a3	-0.02808029
88	0x3b54d937	0.0032478103
89	0xbc8654ee	-0.01639792
90	0xbca8a084	-0.020584352
91	0xba857d42	-0.0010184424
92	0xbbe45398	-0.006967973
93	0x3c3d8bf7	0.011569015
94	0x3ce7deba	0.028304446
95	0x3cbeab66	0.023275089
96	0x3ccd0a6a	0.02502938
97	0xbd08884c	-0.033333108
98	0xbca12c02	-0.019674305
99	0xbcafc6f0	-0.021457165
100	0xbc9bb593	-0.01900748
101	0x3c965488	0.018350855
102	0xbd244b88	-0.040111095
103	0xbd19c5fb	-0.037542325
104	0xbc976333	-0.018479919
105	0x3a929eab	0.0011186203
106	0x3b2dbc3f	0.0026509908
107	0x3c279304	0.010227922
108	0x3d111e22	0.035429128
109	0xbc7f9209	-0.015598782
110	0x3cc81dba	0.024428237
111	0x3cc74f6b	0.024329862
112	0xbd1920fb	-0.03738497
113	0xbb9d3e98	-0.0047987215
114	0x3b74eb17	0.003737157
115	0x3d94bc41	0.07262469
116	0xbba3fc88	-0.0050044693
117	0xbba11396	-0.004915665
118	0x3d11ef76	0.03562876
119	0xbc7f9126	-0.015598571
120	0xb9f16497	-0.00046042047
121	0xbd1ee34f	-0.038790997
122	0xbcc90ab3	-0.024541235
123	0x3d1eb215	0.03874405
124	0x3cb82567	0.022478772
125	0x3d1740a1	0.03692687
126	0x3c641640	0.01392132
127	0x3d19459c	0.0374199
128	0xbd1dc70b	-0.0385199
129	0xbcd9893a	-0.026554693
130	0xbcdc9c12	-0.026929889
131	0xbcc27f1d	-0.023742253
132	0x3d370a0c	0.044687316
133	0x3ceb7a2d	0.028744781
134	0x3c094d39	0.008380228
135	0xbc55e1e1	-0.013054342
136	0xbb0530aa	-0.0020323195
137	0xbb8a2520	-0.0042158514
138	0x3e31f091	0.17376925
139	0x3dc33092	0.095307484
140	0xbccbb68b	-0.024867317
141	0x3c5ad125	0.013355528
142	0xbe08235d	-0.1329474
143	0xbccf192b	-0.025280556
144	0xbce93deb	-0.028471908
145	0xbd127ea8	-0.03576532
146	0xbca78df0	-0.020453423
147	0xbca59add	-0.020215446
148	0x3d16da8b	0.036829513
149	0xbcc81df9	-0.024428355
150	0xbcc82c29	-0.02443512
151	0x3cf46570	0.029833525
152	0xbd1bc259	-0.03802714
153	0x3ccefafa	0.02526616
154	0x3c999ed6	0.018752497
155	0xbcf5fcd6	-0.030027788
156	0xbd67bfbe	-0.056579344
157	0x3d0b17fc	0.03395842
158	0xbd0a18fe	-0.03371524
159	0x3de4ce73	0.111721896
160	0x3ddcac35	0.107750334
161	0x3c06e940	0.008234322
162	0xbca7fd2b	-0.020506462
163	0xbd411fa5	-0.04714932
164	0xbc32bbe6	-0.010909056
165	0x3c9e1ef3	0.019301867
166	0xbbfc519b	-0.007700158
167	0x3cb39956	0.021923702
168	0xbc9de7e4	-0.019275613
169	0xbd1f47ea	-0.038886942
170	0x3d074feb	0.0330352
171	0xbd14a478	-0.036289662
172	0xbd13be44	-0.036070123
173	0xbb976720	-0.0046204478
174	0xbd36aa1a	-0.044595815
175	0xbc615db4	-0.013755251
176	0xbcee821c	-0.029114775
177	0x3d005dc6	0.03133943
178	0xbd0e05ac	-0.034673378
179	0xbc60b33f	-0.013714611
180	0x3d28c6a1	0.041205052
181	0x3cc8617a	0.024460543
182	0x3cff2786	0.031146776
183	0x3d0ca4f7	0.03433701
184	0x3d4d6fcf	0.050155457
185	0xbd14c09e	-0.036316507
186	0xbb85f5b8	-0.00408813
187	0xbac465dc	-0.001498397
188	0xbc98644e	-0.018602517
189	0x3c633a11	0.013868825
190	0xbc98ad5a	-0.018637348
191	0x3769c000	1.3932586e-05
192	0x3c86578f	0.016399173
193	0xbd035360	-0.032061934
194	0x3cfd6631	0.030932518
195	0xbc8977b5	-0.016780714
196	0x3d176de6	0.03697004
197	0x3beab9d0	0.007163264
198	0xbcc911c7	-0.02454461
199	0xbd00fc04	-0.03149034
200	0x3d294859	0.04132876
201	0xbcbd1850	-0.023082882
202	0x3c0d2873	0.008615601
203	0xbc3ae476	-0.011407008
204	0xbceb80ce	-0.028747942
205	0x3d1b1f3f	0.037871595
206	0xbcc41fe2	-0.023940984
207	0x3cf9c4c3	0.030489331
208	0x3ce49db2	0.027907226
209	0xbcb087f3	-0.0215492
210	0x3c564b3a	0.013079459
211	0xbd27cb29	-0.040965233
212	0xbc6f3b50	-0.014601544
213	0x3ca86aff	0.020558832
214	0x3bd1677f	0.0063905115
215	0xbd13cabd	-0.03608202
216	0x3c01c289	0.007919916
217	0xbd167f3a	-0.036742426
218	0xbca4eab3	-0.020131445
219	0x3c29295a	0.0103248
220	0x3c8f965d	0.017527753
221	0x3cdb4606	0.026766788
222	0x3d6a9a1c	0.057275876
223	0xbd177535	-0.03697701
224	0xbc9fca25	-0.01950557
225	0xbca7b043	-0.02046979
226	0xbcf99daf	-0.030470697
227	0xbccc4f96	-0.024940293
228	0xbbad234a	-0.005283748
229	0x3c20efd1	0.009822802
230	0x3c1ceb45	0.009577577
231	0x3c961a53	0.0183231
232	0x3d18941a	0.037250616
233	0xbc62d882	-0.013845565
234	0xbcfda666	-0.030963134
235	0xbd4fb143	-0.05070616
236	0x3bc68138	0.0060578845
237	0x3d58e5d9	0.052953575
238	0xbd054f10	-0.032546103
239	0xbd26bd25	-0.040707726
240	0x3cba1c53	0.022718584
241	0x3d056aff	0.032572743
242	0x3cb0d0d1	0.021583946
243	0x3cd21de1	0.025649013
244	0x3d1c9da8	0.03823629
245	0xbcc0d153	-0.023537314
246	0x3c061a2f	0.008184954
247	0x3bebcab6	0.007195796
248	0x3d1998f7	0.037499394
249	0x3d92591e	0.07145904
250	0x3bd5e780	0.006527841
251	0x3cc60cd6	0.024176043
252	0xbd2bc732	-0.041938014
253	0xbd1da545	-0.03848769
254	0x3bbc8f20	0.0057543665
255	0x3c50834e	0.012726618

conv3.bias f4 [128]
0	0xbcc44f18	-0.023963496
1	0x3c69f9e3	0.014280769
2	0xbca33534	-0.01992283
3	0xbcdbe139	-0.026840793
4	0x3cfc6fba	0.030814994
5	0xbd642d00	-0.055706978
6	0xbcce2d25	-0.025168011
7	0xbb929eb6	-0.004474486
8	0xbcbde702	-0.023181442
9	0x3cbe1173	0.02320168
10	0x3c24fdb5	0.010070254
11	0x3cdc4441	0.026888015
12	0x3be5dfd8	0.0070152096
13	0x3b1a844f	0.0023577397
14	0xbd13ddd4	-0.036100224
15	0xbbdf10b2	-0.00680741
16	0xbaaa9fa7	-0.0013017551
17	0x3cc026d6	0.023456018
18	0xbc5cf445	-0.013485973
19	0x3aff503c	0.0019478868
20	0xbd2712bf	-0.040789362
21	0xbd3a4444	-0.04547526
22	0x3c8fd74a	0.017558713
23	0xbca9b07d	-0.020714039
24	0xbd28c99f	-0.041207906
25	0xbc96c677	-0.018405182
26	0xbc2a1d46	-0.010382956
27	0x3cf82a46	0.030293595
28	0xbcd46c69	-0.0259306
29	0x3d15a3b4	0.036533073
30	0x3bfa34c3	0.007635684
31	0x39fee4c1	0.0004861709
32	0x3808106a	3.2440214e-05
33	0x3d0273e2	0.031848796
34	0xbbb7359f	-0.005591109
35	0xbc2c38e0	-0.010511607
36	0x3c505c60	0.012717336
37	0xba8b00d5	-0.0010605106
38	0xb96ca3b8	-0.00022567704
39	0xbd1971b2	-0.037461944
40	0x3cf2d9a8	0.029644802
41	0xbd361858	-0.04445681
42	0xbc231a09	-0.009954938
43	0xbcab9f62	-0.020950023
44	0x3ceb2baf	0.028707353
45	0x3d401d10	0.046902716
46	0xbd2a25a8	-0.041539818
47	0x3d07c9cf	0.033151444
48	0xbd4f74c1	-0.050648455
49	0x3c2dccbf	0.010607897
50	0xbd00c54c	-0.031438157
51	0x3c8a9c8f	0.016920356
52	0xbd4709c3	-0.048593294
53	0x3bf6ac4a	0.0075278627
54	0x3c882bff	0.016622541
55	0x3cbc73f3	0.023004508
56	0xbd356207	-0.04428294
57	0xbcf61203	-0.030037886
58	0x3cbe85af	0.023257105
59	0xbd0ecc97	-0.03486308
60	0x3c7a7cdf	0.015288561
61	0xbad05606	-0.0015894778
62	0xbd27a13d	-0.040925253
63	0xbd2e57d2	-0.04256422
64	0xbc0b0a50	-0.008486345
65	0x3d04021e	0.03222858
66	0x3d039bfd	0.032131184
67	0x3ce5318d	0.02797773
68	0xbd1f7687	-0.038931396
69	0xbc77b7e2	-0.015119525
70	0xbd29de74	-0.041471913
71	0xbce45886	-0.027874243
72	0xbcc41469	-0.023935514
73	0xbbec3502	-0.0072084675
74	0x3d11ed48	0.03562668
75	0x3cd02813	0.025409734
76	0xbbdd7348	-0.0067581274
77	0x3d571a5b	0.05251537
78	0x3d3f1276	0.046648465
79	0xbd10aee1	-0.035323028
80	0xbcba6dc1	-0.022757413
81	0xbbdffbd8	-0.006835442
82	0x3b2908ce	0.0025792602
83	0xbcdb1335	-0.026742557
84	0xbb9742a0	-0.0046160966
85	0xbc30d9fa	-0.010794157
86	0xbd35bef9	-0.04437158
87	0xbc367e96	-0.011138579
88	0x3c6ac2c6	0.014328664
89	0xbc0880d0	-0.008331493
90	0xbcdc98a8	-0.02692826
91	0xbcb801d8	-0.022461817
92	0xbcda794b	-0.026669165
93	0x3adc7dba	0.0016822137
94	0x3cdd159b	0.026987841
95	0x3ce608d6	0.028080385
96	0xbcbfde04	-0.023421295
97	0x3cbf2204	0.02333165
98	0x3d760234	0.060060695
99	0xbb804f55	-0.003915707
100	0x3d1955b3	0.037435245
101	0x3c867de9	0.01641746
102	0xbcdaf8fd	-0.026730055
103	0x3a708778	0.000917546
104	0xbd59558e	-0.053060107
105	0x3ca41660	0.0200302
106	0x3bad0896	0.0052805645
107	0xbc513800	-0.012769699
108	0xbc5abfb4	-0.01335137
109	0x3c52813f	0.0128481975
110	0xbc92c03c	-0.01791393
111	0x3d02a728	0.031897694
112	0x3cbc1c3b	0.02296268
113	0xbbe77544	-0.0070635397
114	0xbc6ffae4	-0.014647219
115	0x3c8d98de	0.017284807
116	0x3d08255e	0.03323876
117	0xbc688066	-0.014190769
118	0xbc6cfe3c	-0.014464911
119	0xbd2f9379	-0.04286525
120	0x3c2a60a6	0.010399019
121	0x3b4be251	0.0031110237
122	0x3d04cd87	0.03242257
123	0xbd21336f	-0.03935569
124	0x3cbb64b1	0.022875162
125	0xbd4230e9	-0.047409926
126	0x3c4ae412	0.012383478
127	0x3cacfa29	0.02111538

fc1.weight f4 [128, 128]
0	0x3d8a1269	0.06741793
1	0x3c983ce6	0.018583726
2	0x3d90a96c	0.07063565
3	0x3d887bee	0.06664263
4	0xbdb72e61	-0.08944393
5	0x3d781648	0.060568124
6	0x3d3b9f45	0.045806188
7	0xbc3a56bc	-0.011373218
8	0xbca37bab	-0.01995643
9	0xbca8029f	-0.020509062
10	0xbb653fbc	-0.0034980616
11	0xba9a5a24	-0.0011776132
12	0xbdaf9dc5	-0.08575014
13	0x3d95cc43	0.073143505
14	0x3d776832	0.060402103
15	0xbcbe06e6	-0.023196649
16	0x3ec658ba	0.38739568
17	0x3daf0e21	0.08547617
18	0x3da8a24f	0.08234083
19	0xbc41fb30	-0.011839673
20	0xbcf6a80a	-0.030109424
21	0xbdc9dd1c	-0.098566264
22	0xbd285d5e	-0.041104667
23	0xbd7cf312	-0.061755247
24	0xbd8bd261	-0.06827236
25	0x3cf16f05	0.029471884
26	0xbb983c67	-0.0046458724
27	0xbdb42d39	-0.08797688
28	0x3d123c26	0.035701893
29	0xbd6cb698	-0.057791322
30	0xbc8ebc40	-0.017423749
31	0x3d041716	0.03224858
32	0xbda8cd03	-0.08242228
33	0x3cd8521c	0.02640634
34	0xbd92c934	-0.07167283
35	0x3d8754e5	0.06607989
36	0xbbcc390e	-0.0062323874
37	0xbc14fda4	-0.009093676
38	0x3c6ae041	0.014335693
39	0xbd25c4e5	-0.040470976
40	0x3da870cd	0.0822464
41	0xbdc7eb21	-0.09761644
42	0xbc551c91	-0.013007299
43	0xbdbf29bc	-0.09334132
44	0x3d0437e4	0.032279864
45	0x3d59d85e	0.05318486
46	0xbda1dd21	-0.07903505
47	0xbd54f09e	-0.051987283
48	0x3d0f2646	0.03494861
49	0xbcada6f0	-0.021197766
50	0x3d8222d1	0.06354297
51	0xbdb8a6f4	-0.09016219
52	0x3d65bb1a	0.056086637
53	0xbda4adf5	-0.08040992
54	0xbd4b6838	-0.049659938
55	0xbc3443c7	-0.0110024875
56	0xbc63282e	-0.01386456
57	0x3d37ba1b	0.04485522
58	0x3cb0683f	0.021534083
59	0xbd8d2210	-0.068912625
60	0xbce6f8e8	-0.02819486
61	0x3cabc168	0.020966247
62	0x3db276d3	0.0871407
63	0xbd836b90	-0.06417
64	0xbda4e4ad	-0.08051429
65	0xbcfd9c46	-0.030958306
66	0xbd8cc1c8	-0.06872898
67	0x3d5b9308	0.053607017
68	0x3d0cfa82	0.03441859
69	0xbbe58c32	-0.007005238
70	0xbb85aa06	-0.0040791063
71	0xbba86b51	-0.0051397462
72	0x3d4922a7	0.049105313
73	0x3b967cee	0.0045925295
74	0x3d8eeabd	0.069783665
75	0xbdb875cc	-0.09006843
76	0xbd2ae5bc	-0.041722998
77	0x3c227dda	0.009917701
78	0x3d8d050a	0.06885727
79	0xbd318a49	-0.04334477
80	0xbd579104	-0.052628532
81	0x3df33b45	0.11876539
82	0x3dac6b49	0.084189005
83	0xbd22b7f4	-0.039726213
84	0x3c1b1c63	0.009467217
85	0x3d85da69	0.06535799
86	0x3d245351	0.04011852
87	0xbdba1a7e	-0.09087084
88	0x3daa8af6	0.08327286
89	0x3c879043	0.016548282
90	0xbd136499	-0.03598461
91	0xbd85ba5a	-0.06529684
92	0xbccb5210	-0.024819404
93	0xbd8b1310	-0.06790745
94	0xbd8389c4	-0.06422761
95	0xbd7852ec	-0.060625955
96	0x3d6bde1c	0.057584867
97	0x3c132e22	0.008983167
98	0x3c1e8448	0.009675093
99	0x3c6fdeb5	0.0146405
100	0xbd921b68	-0.071341336
101	0x3d576687	0.052588012
102	0x3c5fd077	0.013660542
103	0x3d7eb462	0.062183745
104	0x3cf7359e	0.030176934
105	0x3d8ac437	0.06775706
106	0xb9a8835d	-0.0003214133
107	0x3cead831	0.028667541
108	0x3d3a50e5	0.045487303
109	0x3d644a2b	0.055734795
110	0x3d4f6325	0.05063166
111	0xbce38074	-0.027771212
112	0xbd8474b1	-0.064675696
113	0x3d9187d5	0.07105986
114	0xb8650ff3	-5.461271e-05
115	0x3ac39100	0.0014920533
116	0x3d88f140	0.0668664
117	0x3db15ea5	0.0866063
118	0x3b4a1370	0.003083434
119	0x3c4275c8	0.011868902
120	0xbd1928a1	-0.037392262
121	0x3d58d25c	0.05293499
122	0xbbb4bbaf	-0.0055155377
123	0x3c7d6ec1	0.0154683
124	0xbd9eec9f	-0.07759976
125	0xbdb23ef9	-0.08703417
126	0x3d3c640a	0.045993842
127	0xbd9d1e1f	-0.07671761
128	0x3d3bef97	0.045882788
129	0xbcf08a81	-0.029362919
130	0x3d28b0f0	0.041184366
131	0x3d031ff6	0.032012902
132	0x3caa3424	0.020776816
133	0x3dacdd9a	0.08440705
134	0x3cc3c1da	0.023896147
135	0x3a2f7eec	0.0006694633
136	0x3cc51d99	0.024061965
137	0x3db2c434	0.08728829
138	0x3c9557ae	0.018230285
139	0x3cb59db5	0.022169927
140	0xbd2c3c11	-0.04204947
141	0x3d8692b0	0.06570947
142	0xbd83879c	-0.0642235
143	0xbd492fbc	-0.04911779
144	0xbe1ca73c	-0.1529817
145	0xbca72ffb	-0.020408621
146	0xbd3fa951	-0.046792332
147	0x39c58884	0.0003767648
148	0x3d50a2c9	0.050936494
149	0xbd8c9801	-0.0686493
150	0x3dbe646a	0.09296496
151	0x3da579d6	0.08079879
152	0x3d208170	0.03918594
153	0x3b19460f	0.0023387705
154	0x3d49f9d7	0.04931053
155	0xbce54162	-0.027985279
156	0xbc08ba90	-0.008345261
157	0x3dc75ea0	0.09734845
158	0xbbec688e	-0.0072146123
159	0x3d243271	0.040087167
160	0xbc0fabc0	-0.008768976
161	0x3dab91b5	0.08377401
162	0x3d584675	0.052801568
163	0x3d97cf0a	0.074125364
164	0x3d3348d7	0.043770637
165	0x3d2be7e6	0.041969202
166	0xbd952fb3	-0.072844885
167	0x3d222fc5	0.039596338
168	0x3db2c342	0.08728649
169	0x3d663889	0.05620626
170	0xbd8516cc	-0.06498489
171	0x3dbdd4e4	0.09269121
172	0x3c07ed14	0.00829627
173	0xbd3fd660	-0.046835303
174	0x3dd311f8	0.10306162
175	0xbd5446fb	-0.051825505
176	0xbae84531	-0.0017720816
177	0x3dae1ffe	0.08502196
178	0xbd2f4f99	-0.04280052
179	0xbc361d96	-0.011115452
180	0x3d004a3b	0.03132079
181	0xbd4a4af2	-0.04938788
182	0xbcbe45f7	-0.023226721
183	0xbd37a7bb	-0.044837695
184	0x3da68e50	0.08132613
185	0x3997ab67	0.0002892867
186	0x3d9c0be9	0.07619459
187	0xbd9d5479	-0.076821275
188	0x3da6ef36	0.081510946
189	0x3db77be4	0.08959177
190	0x3d8344fb	0.06409641
191	0x3d8e46cf	0.069470994
192	0xbcbc22f8	-0.022965893
193	0x3d932ea6	0.07186632
194	0x3d7bb176	0.061448537
195	0xbd7665b2	-0.060155578
196	0xbdaa8af9	-0.08327288
197	0x3d986d85	0.07442764
198	0xbd0fe1c1	-0.035127405
199	0xbc9dd6c7	-0.019267453
200	0xbd4d7712	-0.050162382
201	0xbd8b7ba2	-0.068106905
202	0x3db68ad1	0.08913196
203	0xbb7f5903	-0.0038962967
204	0xbd81ed51	-0.06344093
205	0xbcbc44e3	-0.022982066
206	0xbc8f4944	-0.01749099
207	0xbc5d0293	-0.013489383
208	0x3db8ed49	0.090296336
209	0xbd317967	-0.04332867
210	0xbd1e0c2f	-0.038585838
211	0xbd0afc24	-0.033931866
212	0xbd3a418b	-0.045472663
213	0xbd53e58b	-0.05173258
214	0xbcc4c34d	-0.024018908
215	0xbd12d5f4	-0.035848573
216	0xbd0e76f1	-0.0347814
217	0xbc3b6f44	-0.011440102
218	0x3d907dea	0.07055266
219	0x3d120bca	0.035655774
220	0xbd90819d	-0.07055972
221	0x3da93c39	0.0826344
222	0x3d9633f7	0.0733413
223	0x3d33ea86	0.04392483
224	0xbd89557a	-0.067057565
225	0xbd062bc0	-0.032756567
226	0x3c407efd	0.011749026
227	0x3d99a96f	0.0750302
228	0xbbed8bc1	-0.007249326
229	0x3d6a91e5	0.057268042
230	0x3dbeeee4	0.093229085
231	0x38ca30f2	9.6412274e-05
232	0x3d5e0622	0.054205067
233	0x3d7c2b7f	0.06156492
234	0x3db41aa3	0.08794143
235	0xbc143a21	-0.009047062
236	0xbd91d2a6	-0.07120256
237	0xb90b5ea1	-0.00013291325
238	0x3c8333fd	0.016016
239	0x3db67ff7	0.08911126
240	0xbcda31fe	-0.026635166
241	0x3d18c3c4	0.03729607
242	0xbd8a8c8a	-0.06765087
243	0xbcbd5416	-0.023111384
244	0x3dc81d56	0.097712204
245	0xbcb8e1e0	-0.022568643
246	0xbc369223	-0.01114324
247	0xbd38d2d3	-0.045122933
248	0xbd50dcea	-0.05099193
249	0xbd1b4cdb	-0.037915092
250	0x3ca99040	0.020698667
251	0x3d88989b	0.06669732
252	0x3d9fa42e	0.07794987
253	0x3d9bbed7	0.07604759
254	0x3a33af4a	0.0006854428
255	0xbcde7df8	-0.027159676

fc1.bias f4 [128]
0	0xbd2ceff6	-0.042221032
1	0x3d57cb48	0.0526841
2	0xbb7a079e	-0.0038151513
3	0x3d7b822c	0.06140344
4	0xbcb9a323	-0.022660797
5	0x3d3ee7ab	0.046607655
6	0x3d15f528	0.036610752
7	0xbc9be19b	-0.019028476
8	0xbd2c0522	-0.041997083
9	0xbd3e89a6	-0.04651799
10	0x3dfbc2bc	0.12293002
11	0xbbf9d880	-0.0076246858
12	0x3c6683cd	0.01406951
13	0xbcf303ef	-0.029664962
14	0x3d8881b6	0.066653654
15	0xbdab8321	-0.0837462
16	0xbd7ad43e	-0.061237566
17	0x3d72d790	0.059287608
18	0xbda51c00	-0.08061981
19	0x3d821ad1	0.06352771
20	0xbd86bc9c	-0.06578943
21	0xbd607363	-0.05479754
22	0xbac9730f	-0.0015369373
23	0xbb1cd909	-0.0023933074
24	0xbdb7d91f	-0.089769594
25	0x3db22cae	0.08699928
26	0xbccf5ad2	-0.025311861
27	0x3d22541b	0.03963099
28	0xbd97a70e	-0.0740491
29	0x3d9b7bbf	0.07591962
30	0xbd6685ba	-0.056279875
31	0xbcd7945b	-0.026315859
32	0xbb7a78d9	-0.0038219003
33	0xbc10d418	-0.00883963
34	0x3cfaba82	0.030606512
35	0xbb440245	-0.002990858
36	0xbd92b16c	-0.07162747
37	0xbd642623	-0.055700433
38	0xbd86f0b4	-0.06588879
39	0x3c9cab92	0.01912478
40	0xbd0572bb	-0.03258012
41	0xbcebe82f	-0.028797237
42	0xbcc9cdc3	-0.024634248
43	0x3d1c659d	0.038182843
44	0xbdb2acb9	-0.087243505
45	0xbd5401fe	-0.051759712
46	0xbd89c9e3	-0.0672796
47	0xbdc28ee3	-0.0949991
48	0xbcc39d3c	-0.023878686
49	0xbd8af8bc	-0.067857236
50	0x3cdb5ef6	0.02677868
51	0xbd91e9c6	-0.07124667
52	0xbddce02a	-0.107849434
53	0x3dc241cf	0.09485208
54	0xbd94f03b	-0.07272383
55	0xbda2a793	-0.079421185
56	0x3d92554f	0.071451776
57	0x3d52ba72	0.05144734
58	0xbcb94c41	-0.022619369
59	0x3ca83b8e	0.02053621
60	0x3da9f181	0.08298016
61	0xbd9b24da	-0.07575388
62	0xbc83e2df	-0.016099392
63	0x3d9bc56e	0.07606016
64	0x3ca7f2f0	0.020501584
65	0x3daabfb1	0.083373435
66	0x3ba5c9f0	0.005059473
67	0xbce99cba	-0.028517116
68	0xbd0cf37e	-0.0344119
69	0xbd82c95e	-0.06386064
70	0x3dc14c39	0.094383664
71	0xbbb7767e	-0.005598842
72	0x3d2bb524	0.041920796
73	0xbdaf3fd4	-0.08557096
74	0xbd815f52	-0.06317009
75	0xbd49bd1d	-0.049252618
76	0xbd687719	-0.056754205
77	0x3d262982	0.04056693
78	0x3c8cf8a5	0.017208407
79	0xbbe1ac26	-0.006886977
80	0xbd999f76	-0.07501118
81	0x3d8f2198	0.069888294
82	0x3cbc0081	0.022949459
83	0x3dacc292	0.08435549
84	0x3b67ad2e	0.0035351026
85	0xbdbf3cc6	-0.093377635
86	0x3d81c6a4	0.06336716
87	0x3ca62ab1	0.020284029
88	0xbcee6353	-0.029100096
89	0x3d40d9bc	0.047082648
90	0x3d651284	0.05592586
91	0x3d8bc047	0.06823783
92	0x3d8e1692	0.06937899
93	0xbdb23438	-0.08701366
94	0x3ca0746f	0.01958677
95	0x3c3136a4	0.01081625
96	0xbc9d08e6	-0.019169282
97	0x3d944245	0.072392024
98	0x3d96fab3	0.07372036
99	0xbdb0eb00	-0.08638573
100	0xbbf6d710	-0.0075329617
101	0xbcd04b43	-0.025426513
102	0x3d70fda3	0.058835637
103	0x3d87834f	0.06616842
104	0xbbf7c43e	-0.0075612357
105	0xbd20d25c	-0.039263114
106	0x3d844ed1	0.064603455
107	0x3d4f476c	0.050605223
108	0xbd7f4fc4	-0.06233193
109	0xbd84facd	-0.06493149
110	0xbd1f6ed7	-0.038924064
111	0x3d8ce9d3	0.06880536
112	0xbd318eb3	-0.04334898
113	0xbd94a9b2	-0.07258929
114	0x3bf25584	0.007395448
115	0x3d55b752	0.05217678
116	0xbc9df49a	-0.019281674
117	0x3b3c1584	0.0028699348
118	0x3d8a339b	0.06748124
119	0xbd6a7b99	-0.05724678
120	0x3d8ef5a5	0.06980447
121	0xbd9494b3	-0.072549246
122	0x3db31acd	0.08745346
123	0x3d9343d7	0.07190674
124	0xbd571152	-0.052506752
125	0x3da0471d	0.07826064
126	0xbd5a7d32	-0.05334205
127	0xbdaf387c	-0.085556954

fc2.weight f4 [1, 128]
0	0xbdbaacd0	-0.091149926
1	0x3d52f14b	0.051499646
2	0x3d983140	0.07431269
3	0x3d5ec686	0.054388545
4	0xbd9c1ef1	-0.07623089
5	0xbd2d6118	-0.042328924
6	0xbd63ba4f	-0.0555976
7	0xbda3a2de	-0.07990049
8	0x3cdd63fd	0.027025217
9	0x3d9e09d3	0.077167176
10	0xbeb01133	-0.34388122
11	0xbcade271	-0.02122614
12	0x3dc85ad2	0.097829476
13	0x3d0df10c	0.03465371
14	0x3db079b4	0.08616963
15	0xbc01f078	-0.007930867
16	0xbd4913ba	-0.04909108
17	0xbcdd48df	-0.027012287
18	0x3d91d781	0.07121182
19	0xbda6289c	-0.081132144
20	0x3b4bdcc0	0.003110692
21	0x3d7c582a	0.061607517
22	0x3d8cbf56	0.06872432
23	0xbda43a5d	-0.080189444
24	0x3c4b0d8e	0.012393368
25	0x3d9abde9	0.07555754
26	0x3d757a01	0.059930805
27	0xbda8b054	-0.08236757
28	0xbd184beb	-0.037181776
29	0x3c513fa8	0.0127715245
30	0x3da6ca45	0.081440486
31	0xbd9dbacb	-0.077016436
32	0x3cc21c43	0.023695117
33	0x3db204eb	0.08692344
34	0x3dd6696d	0.10469327
35	0xbca4d81c	-0.02012258
36	0x3c0b17e0	0.008489579
37	0xbd413310	-0.047167838
38	0xbd591ee1	-0.053007964
39	0xbd61889a	-0.055061914
40	0xbba18c2c	-0.00493004
41	0xbbb768ed	-0.005597225
42	0x3dd85e07	0.10564809
43	0x3d6051c5	0.05476548
44	0xbc95556a	-0.018229205
45	0x3d5ce3f1	0.05392832
46	0xbcfae52d	-0.030626858
47	0x3d4a903d	0.049453963
48	0xbd12e464	-0.03586234
49	0x3abe9a40	0.001454182
50	0x3bc92d92	0.0061394656
51	0xbce26fb4	-0.027641155
52	0xbddffb5c	-0.10936615
53	0x3da90c27	0.08254271
54	0x3c8f22f6	0.017472725
55	0xbcdfe42c	-0.02733048
56	0xbec99901	-0.39374545
57	0x3cc50e06	0.024054538
58	0x3d45a246	0.04825046
59	0x3d766fcb	0.060165208
60	0x3dd9c32a	0.10632928
61	0x3d96c38d	0.07361517
62	0xbd8535f6	-0.06504433
63	0xbd53797c	-0.05162953
64	0xbcb1be57	-0.021697206
65	0x3d95d68c	0.07316312
66	0xbd095cce	-0.03353577
67	0x3d21758a	0.039418735
68	0xbdb2d91e	-0.08732818
69	0xbd207239	-0.03917143
70	0x3d942d6f	0.07235228
71	0x3d7a07ac	0.061042473
72	0xbc2d6e72	-0.010585414
73	0xbcd61e0e	-0.026137378
74	0x3d944ff3	0.072418116
75	0xbb7da580	-0.0038703382
76	0x3e283c8b	0.16429345
77	0xbd20b887	-0.03923848
78	0xbd0cce0f	-0.0343762
79	0xbd3dde67	-0.046354678
80	0x3bbd07bd	0.0057687447
81	0x3a9952d9	0.0011697664
82	0xbd20063d	-0.03906845
83	0x3d14cd96	0.036328875
84	0x3bdc5210	0.00672365
85	0xbd01828d	-0.031618644
86	0xbd62b65e	-0.0553497
87	0x3db24c99	0.08706016
88	0xbd9507cd	-0.072768785
89	0xbd464500	-0.048405647
90	0x3c870664	0.01648254
91	0xbd8b673d	-0.068068005
92	0x3c8fe4b1	0.017565103
93	0xbbbfd362	-0.005854056
94	0xba9f7b72	-0.0012167527
95	0xbd33dfda	-0.043914653
96	0x3dbfec33	0.09371223
97	0xbd46731f	-0.04844963
98	0x3bb834ef	0.0056215446
99	0x3c025644	0.007955138
100	0x3ce93544	0.028467782
101	0x3c7579a1	0.014982612
102	0x3d80a009	0.06280524
103	0xbcd6261a	-0.026141215
104	0xbd2cb5ed	-0.042165685
105	0xbc5d9308	-0.0135238245
106	0xbc86a5b8	-0.016436443
107	0xbd502f23	-0.050826203
108	0x3d24cd55	0.040234882
109	0xbd87ea9d	-0.06636546
110	0xbdd3681c	-0.10322592
111	0x3d74fcc3	0.059811365
112	0x3d2fa274	0.042879537
113	0xbd5fafe0	-0.054611087
114	0x3bbebab6	0.0058205975
115	0x3ce58671	0.028018208
116	0xbc8f5a07	-0.017498983
117	0xbda6c902	-0.08143808
118	0xbbe33c17	-0.0069346535
119	0x3d79c042	0.060974367
120	0x3d916be4	0.07100657
121	0xbd589a30	-0.05288142
122	0xbdb955d1	-0.09049571
123	0x3da5e549	0.08100373
124	0x3d3cbb70	0.04607719
125	0x3d54fab7	0.051996913
126	0x3c3bab40	0.011454403
127	0xbc1a8840	-0.009431899
