Game Loop final - capitolul 7/runs/position_evaluation/train9/chessModel.pth (torch, 454946 bytes, 9 tensors)

conv1.weight f4 [32, 13, 3, 3]
00000000: 220b 06bc 2596 dc3b 66eb e0bb e48d 9fbd
00000010: 50e4 23bc 4784 8abc a5d2 543c d9f8 08bd
00000020: 8e99 6abd 687f 783d c032 8fbe 5151 e1bb
00000030: a05c ea3c b5b7 34be e391 1b3d 0c7e 6fbd
00000040: 1b5b 99bd 09b5 d0bd 8d4e d5bd ed72 a83b
00000050: 3fc3 85be b1b7 033e 5c6b 043e 329b 613e
00000060: 1db9 a7be b076 813e 70b8 333e 1b6d 573e
00000070: 7eb2 843e 717e 173d 5595 31be 3a83 023f
00000080: dd13 b13d 91fe 4d3e b167 b73e b994 623e
00000090: a2ee 403d e61d 90bd 8d53 a83d d086 8b3c
000000a0: 6ac6 c23e 68f0 323e 902a 123e 5959 653d
000000b0: 986f f33e 0478 a3ba d1d6 d0bd 9d72 88bd
000000c0: 4619 90bc 6394 153e ef2a 1d3e 31c8 513e
000000d0: a7ce e83b f5ea f53d 0c82 efbd 77ec ed3d
000000e0: 954b f4bc 2ce5 f43d d540 50bd 0418 e0bc
000000f0: 3a2d 6d3d 09e0 843e 2e51 c83c 1ff6 a8be
00000100: 9e3b 823d 66be 10be 6531 3f3d e4b6 b7bd
00000110: 5563 4b3c cb8a f3bc db49 cd3d d0d2 5ebc
00000120: cb03 eb3d e8bc 83be b6d0 0d3e d24f 16be
00000130: 71cd 0fbe b81d c5be 6eb2 4abd 5c34 f0bd
00000140: 42a6 09be 7b25 79be 6fbf 03be 9c1e 00bf
00000150: be90 24be 9d45 92be e99a 7abc 5aa4 36be
00000160: 7069 7038 911d 6bbe d9d3 26bf 0149 97bd
00000170: 967d 56be 4eee 713d 0897 0cbe 7a76 3dbc
00000180: a283 9cbe 9f3b a7bd 6f18 0fbe dcf1 06be
00000190: 48c7 03be 851f 0abe 6b5d ebbd 90bc b9be
000001a0: b061 acbe ec95 fbbc 8c66 363c ac22 acbd
000001b0: 8dd6 8bbd 8181 753d 054e 66bd 908c 31bd
000001c0: ebf5 fe3d 89c1 2ebd 6cb3 4f3d fe65 0ebf
000001d0: 96a8 13be 1b1d b93d b956 66bd 2010 ae3d
000001e0: 832d b6bd bef8 98be 5052 c93e 2c72 5e3e
000001f0: e9ae c5bd b05b cdbd 7214 1ebe 026a f83b
00000200: 495d 0cbe 88a8 b33c 7fb7 97bd 5a32 e8be
00000210: 14c5 683b 07c8 a4bc 566e a5bd 5738 8c3c
00000220: 540b 703d 8b75 ab3d 671a d4be ea09 303c
00000230: 15e9 94be cccd 36be 7393 e8be 6c46 ecbe
00000240: 8197 273d 06aa fd3c ba04 99bc 6a67 133e
00000250: 3094 693d 71dd d1bd 61d3 a53d 113a 11be
00000260: 7057 9abe a25e 703b 850d ba3c 1dec c3bd
00000270: c84a 463d c57a 3dbe 9811 083e 052e dfbe
00000280: 0ca0 a4be 3523 1ebe b625 a73d 6d3c 9abd
00000290: 8a7a 0dbd 23df de3d 35b3 4b3c 0671 933d
000002a0: a6a4 b4bc 1d26 2f3e c647 9d3d a667 aabc
000002b0: eee6 323d 2352 933d ef73 df3d f7ee 143d
000002c0: 965c da3d 8e61 24bc af4e 9bbe 3e88 73be
000002d0: b062 f1bd 64f9 87bd c8bb 48bd ae69 83bd
000002e0: e8f3 453e 9d12 bf3d 7da2 a83c 2d47 1bbe
000002f0: 0f6c 983c e44b 3a3e 9c9c 8e3e 4c3f d63e
00000300: 57e6 fc3d e265 42be 5649 543d 825f f6bd
00000310: 5b08 fcbd fea2 bbbd 75a0 1f3d c69d 4f3d
00000320: 4f73 77bc bbcb 12bc 196a 013e bc68 31be
00000330: 096c b53c 74f5 ef3d bc15 e8bc 6469 5b3d
00000340: dfcd e23c 27a4 d3be 7a4f dfbd 55dd 043e
00000350: ab7e a83c c6a3 0dbe 917a a63d d61d cabd
00000360: f837 d3bc 2289 0dbd 27b8 5cbe a15a 80be
00000370: aabb a0bd bae7 6bbd 5937 ab3d d319 0e3c
00000380: ce86 963d 88af 9a3d 0c0b 3bbd eeee 3b3c
00000390: 9c55 49bc 5f59 36bc 6cc0 9c3d 2ebc 003d
000003a0: aac8 fa3c b02a 633d 4166 943d 2ee9 b7bc
000003b0: 0d1b 2f3c 8922 8e3c 8673 80bc 7a7e 6e3d
000003c0: 21f7 a0bc 4b46 e43c 4fd3 40bc adda a03d
000003d0: f925 bc3d bd25 113e 8600 9f3d ab42 dabb
000003e0: ddcc a53c 3af2 bb3c c5cf 313d 0be4 9ebd
000003f0: 21cb 9a3d e4e8 233e 5bc3 523e e881 a3bd
-0.008181365 0.006731766 -0.006863999 -0.07790735 -0.010003164 -0.016908778 0.012989675 -0.033440445
-0.057275347 0.06066838 -0.27968407 -0.0068761487 0.02860862 -0.17648204 0.037980925 -0.058469817
-0.0748808 -0.1019078 -0.10415373 0.0051406533 -0.26125523 0.12863041 0.1293158 0.22031859
-0.32758418 0.25285864 0.17550826 0.21037714 0.2591743 0.03698582 -0.17342122 0.50981486
0.08646367 0.2011664 0.35821298 0.22127046 0.047102578 -0.07036953 0.08219061 0.017032057
0.38042003 0.1747452 0.14274049 0.05599341 0.47546077 -0.001247168 -0.10197223 -0.06662486
-0.017590176 0.14607386 0.15348409 0.20486523 0.007104713 0.12007705 -0.11694726 0.11617368
-0.029821197 0.119577736 -0.05084308 -0.027355202 0.05790446 0.25952175 0.024452772 -0.33000275
0.06359027 -0.14135131 0.046677966 -0.089704305 0.012413819 -0.029729268 0.100238524 -0.013600066
0.11475333 -0.25730062 0.13849148 -0.14678887 -0.14043213 -0.38499236 -0.04948657 -0.11728737
-0.13442329 -0.24330704 -0.12865995 -0.50046706 -0.1607084 -0.28568736 -0.0152957225 -0.17836133
5.7318655e-05 -0.22960497 -0.65167004 -0.07386971 -0.20946345 0.059065156 -0.13729489 -0.011563892
-0.30569178 -0.08165669 -0.13974164 -0.131782 -0.12868989 -0.13488586 -0.114924274 -0.36276674
-0.3366828 -0.030711137 0.0111328475 -0.08405051 -0.06828032 0.059937958 -0.05622675 -0.04334694
0.12449249 -0.04266504 0.05070822 -0.5562438 -0.14419779 0.090387546 -0.05623505 0.08499169
-0.088953994 -0.29877275 0.39320612 0.2172324 -0.09652502 -0.10027254 -0.15437487 0.0075809965
-0.1370746 0.021930948 -0.07408046 -0.45350915 0.0035517858 -0.020114912 -0.080776855 0.017116709
0.058604553 0.08372029 -0.41426393 0.010744551 -0.29084077 -0.17851943 -0.45424995 -0.46147478
0.04091597 0.030964863 -0.018679012 0.14394918 0.05702609 -0.10247315 0.08096958 -0.14182307
-0.30144835 0.00366775 0.022711525 -0.095665194 0.04841116 -0.18503864 0.13287961 -0.43589798
-0.32153356 -0.15443118 0.0816149 -0.075310566 -0.03454069 0.10882404 0.012432863 0.07199292
-0.022051167 0.17104383 0.07679705 -0.020801377 0.043677263 0.07193401 0.109107845 0.036360707
0.106621906 -0.0100330245 -0.30333468 -0.23782441 -0.11786401 -0.06639364 -0.049007207 -0.06416641
0.19331324 0.09329722 0.020585293 -0.1516387 0.018606214 0.18193012 0.27853858 0.41845167
0.12348621 -0.18984178 0.05182775 -0.120299354 -0.12306281 -0.09161948 0.038971383 0.050687574
-0.015103175 -0.008959706 0.1263813 -0.17325109 0.022146242 0.11716738 -0.028330676 0.053567305
0.027686058 -0.41336176 -0.10903831 0.12975056 0.020568212 -0.13832006 0.081288464 -0.09868972
-0.025783524 -0.03455461 -0.21554624 -0.25069144 -0.07848294 -0.05759404 0.08360166 0.008673149
0.07349931 0.07553011 -0.045664832 0.0114705395 -0.012288477 -0.011129706 0.07653889 0.031429462
0.030613262 0.05546063 0.07246066 -0.022450056 0.010687602 0.017350452 -0.015680086 0.058226086
-0.01964909 0.02786555 -0.01176913 0.07854209 0.0918693 0.14174552 0.07763772 -0.0066607795
0.020239288 0.022942651 0.043411035 -0.077583395 0.07558275 0.1600681 0.20582335 -0.07983762

conv1.bias f4 [32]
00000000: 7155 fdbd b910 2dbe 8f6a bbbd 022f 7abc
00000010: b8fe 8fbd 63c0 0cbe 0643 3bbe 0485 3cbe
00000020: 517e 3cbd 3989 d23d dcce 80ba 52ba d23c
00000030: fd28 11bd f0f7 fbbd 9281 8abd 93aa 13be
00000040: 3955 9bbd 1ada eabd 98f4 ca3d bbfc f9bd
00000050: 00d6 8cbd 953f 71bd 8d97 afbd 1ca1 07be
00000060: 7d3d 163d 6b7d 1ebe 5bb1 933c cd32 5f3d
00000070: 454d 3c3c 0fd0 cf3c 85a4 00be 3ea1 22be
-0.12369812 -0.1690091 -0.09151184 -0.015269997 -0.070310056 -0.13745265 -0.18287286 -0.18410116
-0.046018902 0.102800794 -0.0009827274 0.02572361 -0.03543948 -0.1230315 -0.06762995 -0.14420538
-0.07584614 -0.11467381 0.09909934 -0.12206408 -0.06876755 -0.058898527 -0.08573828 -0.13245052
0.036679734 -0.1547753 0.018028906 0.054491807 0.011493032 0.025367765 -0.12562759 -0.15881822

conv2.weight f4 [64, 32, 3, 3]
00000000: 0757 cd3c eb5b 72bd 39cd 653d 3434 2f3d
00000010: 37c5 fc3d c08c 9cbe c0af 90bc bf31 26be
00000020: 57da 4bbe 4673 83bd 7079 b2bb 3a48 823c
00000030: e612 acbd fe39 a23b cb24 26bd cdc7 523d
00000040: b9a3 2bbd 6662 c6bd 03d6 c43d 7515 fa3d
00000050: 448a 8d3c 2958 083d a1a6 e9bc ec50 5d3d
00000060: f4f0 8fbd f459 43be a3c9 533e ee36 83be
00000070: a7b2 273d 2610 a6bd 160c 74be 006b c0bd
00000080: 0e96 963c e147 c6be b1c8 973d cc38 383e
00000090: 6e2f bfbe 120c b7bd 997d acbd dfc6 453c
000000a0: d4ac 373e d2d5 013e 3735 9ebd 40ad 6fbe
000000b0: 4687 fcbd 8cdf 7abd ea23 f0bd 1702 5ebb
000000c0: 43eb b23d 82ce ab3e 26e0 773e 297d 8ebe
000000d0: 661a 7abe da4a cebd d95d babc ca32 803e
000000e0: 642b cbbc 69ad 37bf 3636 95be 57b0 6bbe
000000f0: 9255 9b3e 7120 97be e9d2 83be 0671 6bbd
00000100: 9fd6 a43d 03e2 08bd cbe7 c1be 75d3 e9be
00000110: 5152 19be d5a3 763e 602d 10be b8d3 a1bd
00000120: 0e87 843e 138e 1ebe 4f0a 433c a21e 2fbe
00000130: 520c 913e 84e5 2b3e fb25 e7bd 4c98 36be
00000140: bb9a 07be 6fb0 a23c 1101 163e 5695 f23d
00000150: c5d1 d7bd 7e89 02be 1140 9eb8 4e81 1bbe
00000160: d8fb 873d 8e12 063e 9fcc 173c 5fa7 45be
00000170: 0064 803d 805f 1bbd 8d9a f4bd fefd 2cbd
00000180: 41d8 11bd 7036 d9bd 029d 0c3d bd0e 46be
00000190: 778d bebd 7eb1 86be 4010 0ebe 7deb e43d
000001a0: 4d4e f5bd 1501 82be 6255 38be be65 41be
000001b0: bffb 063e 126f dabd e7f9 593c f957 66be
000001c0: 2c2e 8cbe c98c 83bd 959d 88be e5ce 06be
000001d0: f276 5abe 0f52 843c 3bbf 6a3d 029c 0f3d
000001e0: 5b66 e4bd 802f 9bbe 1e08 bcbd 786b 933c
000001f0: 41ac 8ebe 5668 99be 705c 92bd 836f 1dbc
00000200: 6deb b6bd 2c8b cfbc 029a 6ebc 1bab 0c3d
00000210: 0615 b83a ecf0 e8bc 4724 72bd 3c14 f5bc
00000220: cd76 05be b04a 11be 0ec8 3a3e fc46 dfbd
00000230: 175a d6bd a4f0 a63e f2e3 663d c9c7 ad3d
00000240: 08a0 82be e940 b5bb 42c2 0cbe 1ea2 d0bd
00000250: 9dc6 9d3e 52ec 86bd 17f5 cabd e023 4abe
00000260: 59e1 ea3c 9396 d23d 2d0c 8cbe 6494 60be
00000270: a657 08bd f7ea 85bd 494a 4bbe e473 abbd
00000280: d607 5e3c 3d5e 843c 5d2c 45be 4fd1 af3c
00000290: 8340 68bd 8fce 943b fea0 433c f17e 5cbd
000002a0: d636 b4be 1078 7e3d dec3 fdbd b9ca a93c
000002b0: f859 41be ffcd b63d b579 37bc f655 033e
000002c0: e9b3 b43d 133e 05be 07a5 85bd f427 bc3d
000002d0: bd06 1a3e 7cd9 cdbd 530c 383d ffc5 723d
000002e0: d37e 223e ae23 e2bd 699c b9bd 3a26 c03c
000002f0: 13bd d0be 7a90 acbe f575 0f3d 80e9 c83c
00000300: b082 4c3e c860 1d3d 313b 2cbd 1022 0a3e
00000310: 3a96 253e 25c8 c2be d875 30be b9ab d23d
00000320: 1f3d 8e3c 6327 38be b776 9f3d 897e dfbd
00000330: fca6 e1bd a8b7 563d 1d03 823e 3928 fd3d
00000340: 93fb 073e 8098 1b3d ba3e a1be 86de adbb
00000350: 5a41 8bbd 1b41 693d 7640 533e d9e4 dc3d
00000360: 8946 99be 96f8 1e3e 7cb1 d1bd 7e41 51be
00000370: 8f4d 113e e012 d13d 467f 0fbe 2e58 eeba
00000380: 38ff 513e f556 93be 122b 6dbc d32b 273d
00000390: fe8e 62be a3c5 f13b 09b3 a5bd d3bf 69be
000003a0: 9044 edbd fc74 e8bd e26f c53c 9f92 80bd
000003b0: 9cc1 123e 0cc4 923d 3629 3fbe 35e9 14bb
000003c0: ac25 5bbc ed50 b3bd ee5f 253e 37bc 38be
000003d0: 61d4 77bd 6200 f23d 2787 40bd 7460 d2bd
000003e0: 2669 563e f108 b5bc b5d2 123c b009 babd
000003f0: 3ac1 993d 88f1 663d a86f 493d c95e 9e3c
0.025065912 -0.05916969 0.05610392 0.042774394 0.12342303 -0.30576134 -0.01766193 -0.16229914
-0.19907509 -0.06418471 -0.0054466054 0.015903581 -0.08402042 0.004950761 -0.040562432 0.051460076
-0.041904185 -0.09686737 0.09611132 0.12211124 0.017277844 0.0332872 -0.028521838 0.05403225
-0.0702838 -0.19077283 0.20682387 -0.25627846 0.04094186 -0.08108549 -0.23832735 -0.09395409
0.018382099 -0.38726714 0.07411326 0.17990416 -0.37340873 -0.08937849 -0.08422393 0.01207134
0.17937022 0.12679222 -0.07724994 -0.23405933 -0.12330489 -0.061248347 -0.117256 -0.0033875757
0.08736279 0.3355599 0.242066 -0.27829865 -0.24424133 -0.100728706 -0.022749828 0.2503875
-0.024800964 -0.7174898 -0.29142922 -0.23016487 0.30338722 -0.29516938 -0.2574685 -0.057480834
0.08048748 -0.033418667 -0.37872157 -0.4566914 -0.14972807 0.24085934 -0.14079809 -0.0790171
0.2588429 -0.15483885 0.011904313 -0.17101529 0.28329712 0.16786772 -0.11286541 -0.17831534
-0.13242619 0.01985952 0.14648844 0.1184489 -0.10538057 -0.12747762 -7.5459604e-05 -0.15186045
0.06639832 0.13093016 0.009265094 -0.19302128 0.062690735 -0.037932873 -0.11943541 -0.042234413
-0.035606626 -0.10606086 0.03432942 -0.1934156 -0.09304326 -0.2630729 -0.13873386 0.11177728
-0.11977825 -0.2539145 -0.18001321 -0.18886468 0.13181971 -0.10665716 0.01330421 -0.22494496
-0.27378976 -0.06423337 -0.26682726 -0.13164862 -0.21334437 0.01615241 0.057311278 0.03506089
-0.11152335 -0.30309677 -0.09181236 0.017995581 -0.27865794 -0.29962415 -0.07146537 -0.009609106
-0.08931623 -0.025334917 -0.0145630855 0.034342866 0.0014044351 -0.028435193 -0.059116628 -0.029916875
-0.130336 -0.14188647 0.18240377 -0.10902211 -0.10466402 0.3260547 0.05636973 0.084853716
-0.2551272 -0.0055314195 -0.13745978 -0.101871714 0.30815592 -0.06588043 -0.099100284 -0.19740248
0.028671907 0.10282626 -0.2735304 -0.21931607 -0.033286713 -0.065389566 -0.19852556 -0.08371714
0.013551673 0.016158218 -0.19255204 0.02146211 -0.05670215 0.0045412253 0.011940239 -0.053832
-0.35198087 0.06212622 -0.12390874 0.020726549 -0.18881977 0.089260094 -0.011198451 0.1282576
0.08823378 -0.1301196 -0.06525617 0.09187308 0.15041633 -0.100512475 0.04493363 0.059270855
0.15868692 -0.110419616 -0.09063036 0.023455728 -0.40769252 -0.33703977 0.035024602 0.024525404
0.19971728 0.038422376 -0.042048637 0.13489556 0.16170588 -0.38043323 -0.17232454 0.1028666
0.01736313 -0.17983775 0.07786315 -0.109128065 -0.11018178 0.052421242 0.25393 0.123611875
0.13279562 0.037987232 -0.3149317 -0.005306068 -0.06799574 0.056946855 0.20630059 0.10785837
-0.29936627 0.15524516 -0.102389306 -0.2043514 0.14189743 0.10208678 -0.14013395 -0.0018184239
0.20507514 -0.2877728 -0.014475601 0.04081328 -0.2212486 0.0073782965 -0.08090789 -0.22827081
-0.11585343 -0.11350438 0.024101201 -0.06277966 0.14331669 0.07166299 -0.18668064 -0.002272201
-0.013375681 -0.0875567 0.16149876 -0.18040548 -0.060505275 0.11816479 -0.04700389 -0.10272303
0.20938548 -0.02209899 0.008961369 -0.09083879 0.07507558 0.056382686 0.04917875 0.019332306

conv2.bias f4 [64]
00000000: 22fb 423d 8a7a 21bd 0911 7ebd bf0e 8d3d
00000010: 4d15 42bd bfa6 34be 151d 09be bb38 92bb
00000020: bfeb f1bd 40e0 98be 1265 7ebe 5ea1 18be
00000030: 6f03 5ebb 4ffe 37be 3e6f 2abd fd32 2bbe
00000040: 8bb8 87bd 5c25 53be 90a6 4e3d 6a3d 673e
00000050: fb09 bfbd 8b8b f83d 3696 9bbd 454b 363d
00000060: b95a 0dbe cfa5 dbbc 1ce5 a9bd 7036 dfbd
00000070: abff c7bb 5eb2 e4bc cf01 293d 3fec 6e3d
00000080: 9440 183d d2ce 20be 58a9 00be 408a 013e
00000090: 4369 63bb df0d 30be 2293 c0bc 652e 143c
000000a0: a418 6d3b 2d51 ccbc 77bc 83bd 1a36 15bd
000000b0: 0bae 32be 7f4b 27be 2bb7 023d 123c 6cbd
000000c0: 5bd7 22be 2565 26be 50b0 1abc 375f 15bd
000000d0: cd2b cbbd bec5 67be 9b50 ee3d adeb 30be
000000e0: b5aa d73c 3204 84be 8710 10be 3ccb c7bc
000000f0: e8bd 13bc d246 af3d 6a90 873c 3e83 03be
0.04760278 -0.039423503 -0.062027965 0.06887578 -0.047383595 -0.17641734 -0.1339 -0.004462329
-0.11812543 -0.2985859 -0.24843243 -0.14905307 -0.0033876558 -0.17968105 -0.041609995 -0.16718669
-0.06626996 -0.2061972 0.050451815 0.22582021 -0.093280755 0.12135991 -0.0759701 0.044505376
-0.13804139 -0.026812462 -0.08295652 -0.10899055 -0.006103476 -0.027917083 0.04126149 0.05833077
0.03717096 -0.15703896 -0.125646 0.12650394 -0.0034700192 -0.17192791 -0.023507658 0.009044264
0.0036178017 -0.024941051 -0.06432431 -0.03642855 -0.17449205 -0.16337393 0.031912964 -0.057674475
-0.15902464 -0.16249521 -0.00944145 -0.036467757 -0.09920464 -0.22634026 0.11636468 -0.17277403
0.026326517 -0.2578445 -0.14068805 -0.024388902 -0.009017445 0.0855843 0.016548354 -0.12843034

conv3.weight f4 [128, 64, 3, 3]
00000000: 7c5c 27be ddfc 32be 7e4b a33d 92e8 ee3c
00000010: 9ab1 1f3d 8825 f83d b2a4 febd 9f47 0bbe
00000020: 951b df3d 2d1a 73bc f588 f43d 2c68 103d
00000030: d1d5 cc3d bd4e 00bd e523 27bd a81b aabc
00000040: fd2d f7bc 304e 50bb 043d fa3c e66c 003b
00000050: 0f2f 2cbc f616 cbbc e29d c53c c221 df3b
00000060: 945a 27bb 57ce 1a3c c4cd c43c 7141 d7bd
00000070: a214 e73b a46d 8fbe 8cce 1ebb 108a a83e
00000080: d10d 75be d22e d73d c2d1 8a3e 61a1 28ba
00000090: be20 253e 16ad b13d 8ac9 f1bd 2bcb 08be
000000a0: 04ac 283d 703c 17be 1ef8 83be fd96 2b3c
000000b0: 81a2 a7bd 663a 1b3e aceb 70bd 0367 64be
000000c0: f56e 7dbe d8a3 03be 5c11 4c3d 3d7b 8cbe
000000d0: d722 043e 216c e1bd 5334 7dbe 30ac b63c
000000e0: b292 abbd 7a0f a7be e84b 4e3e 4fed 003e
000000f0: 8c5b e0bd 6ad9 923d 4373 3ebd cfd3 0e3e
00000100: 2d0a 47bd c11d cebd 55c6 e8bc 5fad 37bd
00000110: 9216 10bc c868 35be e2b5 05be 96c1 f1bd
00000120: 15e8 e1be 83ae b13e baca b13d 01fc 053e
00000130: ecec 38be fd42 0b3e 62b1 fa3d bd14 86be
00000140: 47ed 94be dba7 98be efd4 ee3c fcc9 e43d
00000150: b227 91bd 2214 1cbe 7b67 00bd 7dca 783e
00000160: 8831 e2bd 4143 313e ee54 b4bd e87b 08be
00000170: 9d66 613d 0336 61be 3c56 183d aef6 1e3e
00000180: 3dd8 1dbe 6a0f 303c c8fd a9bd 4626 00bd
00000190: 6e14 fb3b e02b 1d3d e5e5 5c3b ce25 2dbe
000001a0: b9cd a73d aa90 3fbd e6b9 383d 7748 aebd
000001b0: 0ab1 93bd 0a5a adbe 1e78 20bd 208c b23e
000001c0: 178c 393e 6f4f a2bd 9d19 4cbd 590d 1dbe
000001d0: 62ea 85bd bc36 02be b27c 82bd 6f53 94bc
000001e0: 35ee 5c3d 3e1d 773d 31fc 1ebe d8e4 6fbe
000001f0: 5610 0d3e 533f 0abd 0c6a d03d cda3 263e
00000200: 80fb dc3d 2344 583d bb65 30be 16e8 5a3d
00000210: 051e 03bd cffb d93e a4f5 613e 8b14 243e
00000220: 9124 a73c 23ca 00bd 3a96 09bd 86a0 efbd
00000230: 09e5 5dbe 8d19 4fbc e631 893d 12b7 f2bd
00000240: c598 c4be 3d71 3ebe 74bd 3bba 1dca 03bd
00000250: 4f7f 23b9 30f6 393e b2d4 8ebe 045f b9bd
00000260: 891b f1bd 7ab1 8e3e 1473 733d 77f7 803e
00000270: 981f 633c 1f53 42be 163c bebe 1815 6fbe
00000280: 625c 07be 4252 403d 2762 3d3d 4354 c5bd
00000290: 1f9f 193d 9107 eabd 4200 65be b67c 3c3e
000002a0: b0b4 353b bcf9 383e 3d1d ccbd d217 27be
000002b0: f5f9 f5bd 78d1 07be 7cbb 363e 36bb 6fbd
000002c0: 7a74 6b3e cbc6 81be cac5 5b3d b418 043e
000002d0: cbf5 4abe d56d a43e 76ab 5bbd 2265 953e
000002e0: dc78 5c3e ffbe a43e 115e 99be b017 10be
000002f0: abaf 88be aeb4 49be d28a 893e adfc 613d
00000300: af09 8ebe b302 92bd f8df 863c 6d05 adbc
00000310: 390a 083d bc71 913e 2f7c 11be c8d2 cebe
00000320: ac37 1ebe 3339 4ebd ab48 a13d 1d83 80bd
00000330: 2634 b5bb b5fb 533e 5923 cfbd e087 e43e
00000340: 2e80 f2bd ae69 bd3d fa19 5c3e 9c08 bbbb
00000350: b325 0fbe e358 6ebe bdd6 dabd 9f2e 243d
00000360: a39a 0c3e e5e0 6a3e 074e 2b3e cf77 51be
00000370: f4ef a9bd e5f3 34bb 7887 3bbd 277d 583c
00000380: 4580 4bbe c331 03be a05a 86be 60c0 0abe
00000390: 743d 3d3e 5e6c 4bba a3c9 043e 0327 553a
000003a0: b8d8 99bc 0ac6 24be c44b 913d f98c 073c
000003b0: 889b 60be 19e9 173e a95f 55be 9de7 893d
000003c0: b2a4 1bbe 5dec e4bd 8831 993e 1b66 dc3c
000003d0: 4c60 c5bd faaf 1e3d c312 813d 2cfb 63bb
000003e0: f507 543d 1f63 cfbe 8c96 083e 5624 683d
000003f0: d151 3dbe f352 8abe 7692 333e 14a1 21bd
-0.16343874 -0.17479272 0.07973383 0.029163633 0.038987733 0.121165335 -0.12433757 -0.1360154
0.10893933 -0.014837784 0.11940185 0.035255596 0.1000172 -0.03132509 -0.040805716 -0.02076514
-0.030173296 -0.0031784885 0.030546673 0.0019596159 -0.0105092665 -0.024791222 0.024123136 0.006809444
-0.0025536167 0.009448609 0.024023898 -0.10510529 0.00705202 -0.28013337 -0.0024231998 0.32917833
-0.23931052 0.10506977 0.27113158 -0.0006432739 0.16125771 0.08675592 -0.11806019 -0.13358752
0.041179672 -0.14769149 -0.25775236 0.01047301 -0.08185292 0.15158996 -0.058818504 -0.22304921
-0.24749358 -0.1285547 0.049821243 -0.27437773 0.12903915 -0.11006952 -0.24726991 0.022298902
-0.08377589 -0.32628995 0.20146143 0.12590526 -0.10954961 0.07170375 -0.04649664 0.13947986
-0.04859369 -0.10064269 -0.028414885 -0.044843074 -0.008794444 -0.17715752 -0.13057664 -0.11804502
-0.44122377 0.34703454 0.08681245 0.13084413 -0.18059129 0.13599773 0.12240864 -0.26187697
-0.29087278 -0.29815564 0.029154269 0.11171338 -0.070876494 -0.15242055 -0.031348687 0.24295993
-0.110446036 0.17310812 -0.088052616 -0.13328516 0.0550295 -0.2199326 0.037191615 0.15523788
-0.1541452 0.0107458625 -0.08300358 -0.0312865 0.0076623475 0.03837192 0.0033706364 -0.16908953
0.08193535 -0.04676882 0.04509916 -0.08509915 -0.07211502 -0.33857757 -0.039177053 0.34872532
0.18119846 -0.07925307 -0.049829114 -0.15337123 -0.065388456 -0.12716192 -0.0637144 -0.01810619
0.05393811 0.060330622 -0.15525891 -0.2342714 0.13775763 -0.033751797 0.10176477 0.16273423
0.10790157 0.052799355 -0.17226307 0.05344399 -0.03201105 0.42574927 0.2206636 0.16023462
0.020403178 -0.031442773 -0.033590533 -0.11700539 -0.21669401 -0.012640369 0.066989705 -0.11851324
-0.38397804 -0.18597884 -0.00071617146 -0.032175172 -0.00015592318 0.1816032 -0.2789665 -0.09051326
-0.1177283 0.2786978 0.05943592 0.251888 0.013862513 -0.1897702 -0.37155217 -0.2334789
-0.13218835 0.046953447 0.046236183 -0.09635212 0.037505265 -0.114272244 -0.2236338 0.18406948
0.0027726106 0.18064016 -0.09966514 -0.1631768 -0.12010566 -0.132635 0.17844957 -0.058528148
0.22993651 -0.2534698 0.053655423 0.12900048 -0.19820325 0.32115045 -0.053630315 0.2917872
0.21530479 0.32176968 -0.2995458 -0.14071536 -0.26696524 -0.1969783 0.26863724 0.05517261
-0.27741763 -0.07129421 0.016464218 -0.021120751 0.033212874 0.28407085 -0.14207529 -0.40395188
-0.15450925 -0.05034752 0.078751884 -0.06275008 -0.005529898 0.20701487 -0.10114164 0.44634914
-0.118408546 0.092486724 0.21494284 -0.0057078134 -0.13979225 -0.23276095 -0.10685489 0.040083524
0.13730864 0.22937353 0.16728984 -0.2045586 -0.082977206 -0.0027611193 -0.04578349 0.013213432
-0.1987315 -0.12811951 -0.26241016 -0.13549948 0.18480474 -0.00077599834 0.12967543 0.00081311184
-0.018780097 -0.16091171 0.07094529 0.008273357 -0.2193433 0.14835013 -0.20837273 0.0673363
-0.15199545 -0.11177895 0.29920602 0.026904156 -0.09637508 0.038742043 0.06302407 -0.0034787161
0.0517654 -0.4050531 0.13338679 0.056675278 -0.18488242 -0.2701641 0.17536339 -0.039460257

conv3.bias f4 [128]
00000000: 25b8 99bc dc37 d9bc 1929 87bc 6780 8abc
00000010: 8770 98bd 5b96 dabd fa05 96bd bbf8 47bc
00000020: f540 bf3d 79ad 2fbc 2d93 babd 1ed1 87bc
00000030: fad7 eabc 2c41 24be e224 663c f795 8dbd
00000040: ce5a 93bc 7b6a 503c cb85 95bd 5d3c 1bbd
00000050: 6397 99bc 0998 aebd 0649 aebc 4202 d03d
00000060: d669 abbd e18c 9cbd a610 4bbd 1ee1 02bd
00000070: 4b8b 38bd 4fe9 023d 87af 2fbe 4381 20bb
00000080: ebd3 a6bd 7c7c 8fbd 9b46 dfbd 76b8 39bd
00000090: baac 14bd ab5e 2ebd 047d 943b 52eb 54bd
000000a0: 9574 c8bc 3537 9bbd 661e 963d 54d3 d2bd
000000b0: f5c8 40bd 63e2 e6bc b4fa 9ebd 78f2 2d3d
000000c0: 02ef 68bd 4132 0dbe e656 9cba 66e8 ddbb
000000d0: 12ac 033d 68f8 853d a290 f6bd 556d abbd
000000e0: bf38 413c 49fe 38bd 0a2f 7fbd 1e63 65bd
000000f0: 6c5b 3bbd 26e3 37bd df51 abbd a4e5 c739
00000100: 0f05 cfbc d62f bebd beda b6bd dd5d 473d
00000110: 9242 babc 7367 2ebe 0ca3 11be b0f2 febc
00000120: 8b25 9bbd 53b3 32be 889d 5ebd 3c7f 04be
00000130: a2da 093d e372 65bd 6a40 06be 024b d2bc
00000140: df80 a1bc 29ac 613d 0111 a3bd b9fd d3bc
00000150: ce1f d4bd 28b8 29bd 44b0 01be 220d f43c
00000160: e61c ddbd 216b c6bc ff9c a3bd 107e f1bd
00000170: 904c 38bd 35b3 1c3d f5d0 63bd 7891 643d
00000180: e453 babd 49c7 c5bd 533c 3dbd 3145 79bd
00000190: d17c 19be 4990 2ebe 4116 283e d199 d6bd
000001a0: b45f 95bc cc43 a7bc fd4f 9ebd 77cb 9b3d
000001b0: 984f c2bd e9e5 263e d774 19bd d639 203e
000001c0: 478b 89bd 70ed 1abe 62ff 59bd b805 f4bb
000001d0: 09e9 2abe 5407 8bbd 4c56 90bd 9b12 7bbd
000001e0: e17c 09bd f7f3 62bd 5fa7 49bc f141 58bd
000001f0: 3f51 b6bd 4785 39bd fee2 eabd 6e88 89ba
-0.018764565 -0.026515894 -0.01649909 -0.01690693 -0.07443338 -0.10673209 -0.07325359 -0.012205298
0.093385614 -0.010722511 -0.09110103 -0.016579207 -0.028667439 -0.16040486 0.0140468795 -0.06913369
-0.017987635 0.012720699 -0.073009096 -0.037899364 -0.018748945 -0.08525092 -0.021275055 0.10156681
-0.08369796 -0.07644058 -0.049576424 -0.03195297 -0.045054715 0.03196078 -0.17156802 -0.0024491108
-0.08145889 -0.070061654 -0.10902139 -0.04534193 -0.036297537 -0.04257075 0.0045315046 -0.05198223
-0.024469653 -0.07578889 0.07330017 -0.10294214 -0.047066648 -0.028184121 -0.077626616 0.042467564
-0.05686856 -0.13788702 -0.0011927753 -0.006772089 0.03214652 0.0654152 -0.12039305 -0.08370463
0.0117933145 -0.04516438 -0.06230072 -0.05600273 -0.045741484 -0.04489436 -0.08365225 0.00038127333
-0.025270967 -0.09286468 -0.089284405 0.0486735 -0.022736821 -0.1703165 -0.14222354 -0.031121582
-0.0757552 -0.1745122 -0.054349452 -0.12939161 0.03365577 -0.056017768 -0.1311051 -0.025670532
-0.01971477 0.055095825 -0.079622276 -0.02587782 -0.10357629 -0.04143539 -0.12664896 0.029791418
-0.107965276 -0.024221005 -0.07988929 -0.11791623 -0.04499489 0.038256843 -0.0556192 0.055802792
-0.09098032 -0.09657151 -0.046200108 -0.060857 -0.1498902 -0.17047228 0.16414739 -0.10478557
-0.018234111 -0.02041807 -0.077301 0.07607167 -0.094878376 0.16298641 -0.037464943 0.15647063
-0.06716018 -0.15129638 -0.053222068 -0.007446971 -0.16690458 -0.06788507 -0.0704771 -0.06129704
-0.03356636 -0.055408444 -0.012307971 -0.05279726 -0.08902215 -0.04529312 -0.114690766 -0.001049293

fc1.weight f4 [128, 128]
00000000: f83f 10bd 748d 49bd 35f9 723d 5b83 9abc
00000010: 9bda 013d 3caa 1e3d f92f fd3d b328 48bd
00000020: cc01 19be 0fba f13c d913 d73c a410 35bd
00000030: befb 8cbd bfc0 cf3d b6b6 193d 7932 913d
00000040: 151d aebc 9b47 c0bc 79d8 1a3d 318a 033d
00000050: a34d acbd 5741 8cbe 3dc9 b8bd 4cf6 2a3a
00000060: 97d7 01be 8786 bc3d aa0f 78bb 43a8 fdbd
00000070: 82fc 8d3d dc0c 5a3c 8e57 783b 9b70 4bbd
00000080: e387 343d 1e94 abbd 7b8f 33bd 4f23 95bc
00000090: ac38 a7bd 5f2d 8b3d a16c 47bc 1241 8cbd
000000a0: 74db 6ebb 2a3b 1cbe 0960 733c efb8 80bd
000000b0: 725a 9fbd 2d5c 543d edce d0bc c4f4 efbd
000000c0: 0136 e13d f40f b4bc c8ea acbc efdf 03bd
000000d0: c815 28be b1ba 27bc f844 8f3d 0ee3 2c3d
000000e0: 7f90 83bd 1f9c 893d 412b 25bd 8cf7 22bd
000000f0: f732 a4bd d38d c9bb 1aa3 5cbd dd7c 36bd
00000100: 0410 a7bd 842d cdbd cf0d febc cbd9 8abd
00000110: 030e bd3d 73d2 f0bc 9b49 58bb c377 f1bc
00000120: 0b94 8d3d b773 083c 5245 9abc 5c0b b8bd
00000130: ae73 bebd 22cd f2bb 8510 ddbc a937 85bc
00000140: 1932 d23d e5a0 e3bd 4ffa 0cbd 8771 ad3d
00000150: 8e9d 0b3c 32b4 b53d a808 22be acdc b1bc
00000160: 2047 a33c 2a77 79bd 25a5 e13d 89c7 e0ba
00000170: e991 8ebd e3e0 93bd f69d 7dbd bd02 07bd
00000180: 1902 933d 013a c53c 6b23 7e3d 0254 98bd
00000190: bca5 07be 75d1 acbd 819f f0bd b625 debd
000001a0: 0692 4bbd 707c b6bc 31bb 4a3d 9ca2 b6bd
000001b0: 303b 7f3d 6d66 eabd e2a2 743d 6adf edbc
000001c0: 840f 7a3c 2fe5 723d d230 a63d de37 3abc
000001d0: 7c31 593d 4bcd c53c bf5d c83c cb21 923c
000001e0: d184 853b 8708 4fbd b238 41bd 3808 13be
000001f0: 55c4 ed3d c831 b5bd 72df 4ebd 3fcd ecbd
00000200: 8314 3a3d 5a42 a2bd 91e5 debd fb8c c0bd
00000210: 74b9 983d c73b 59bd d153 d73c ea7d 8d3c
00000220: a41e aebc 19f0 4f3d 0787 a73d d189 433d
00000230: 725b e4bc 9f11 433d 01cb babd 06ee bbbc
00000240: 39ef 983c 65f5 573c aeee b5bd fb3c 163c
00000250: 3990 31bb 7757 2ebd 19dd 27bc 3f3a 7fbd
00000260: 0e2b 50bd 0352 73bd 763e c2bd 8950 89bd
00000270: 5368 b9bd c390 d1bd edca 403d 66e7 9dbd
00000280: 5dab c8bd 774b 403d 6e35 9e3d 71cd ffbc
00000290: 9fb1 5a3c 40e8 dc3a b769 513d ba02 8cbd
000002a0: f88e c3bd 672f 63bc b9d3 17bd aa7b 36bd
000002b0: f1eb 9d3c 4a9c 883c 254f 2b3d 583b 8ebd
000002c0: d3f2 c9bc f353 483d 2ba7 813d 6c85 aabc
000002d0: 70c9 6e3d 0183 c1bd 2fbe 9f3b ba21 61bd
000002e0: 630d 08bd 155b 763b 3e2f c7bc 42e0 8ebd
000002f0: f465 d2bc b0da 74bd ba25 aebd 0aa8 3c3d
00000300: 0e7c 1d3d 0ee0 89bd 7c3a 55bd a03f babd
00000310: 56a0 5abd be38 07bd 009a a1bd d7ff a2bd
00000320: 056e b9bd a2c1 8bbb 4628 67bd 291d 93bd
00000330: 7325 0cbd 90b1 a4bd a6e5 8cbb dfb5 d3bd
00000340: 4090 d1bd b55d b1bd 3530 dbbd f131 953d
00000350: 33cd 6dbd 3bf4 a6bd f7f1 8bbd d5c2 b9bd
00000360: 544f 9c3d 0928 6f3d e7cd dcbb e0a1 33bd
00000370: bbe3 abbc d3da fcbc 763c 0f3d b416 7abd
00000380: 93e8 a6bd a988 ffbd b3d3 213c f77f 21be
00000390: 9334 5e3d bd1f 993b d191 053d b75d 603d
000003a0: c8dd 59bd ea2c 28bd c878 f9ba 4fa2 533d
000003b0: ccac d4bd b1d9 e73c 0386 12bd 4890 22be
000003c0: a46a e5bd ad04 3ebd 55df 9abd f371 82bd
000003d0: 74de aebd d09d b3bc 647b a13d 727e 14bd
000003e0: cfbf f4bd b35f 6abc bb9c 64bd 0f90 c0bd
000003f0: 3b9c 1bbe 3d8d 63bd 9e3f 203d 4e60 7f3c
-0.035217255 -0.049207166 0.059319694 -0.018861463 0.03170262 0.038736567 0.12362666 -0.04886694
-0.14942092 0.029507665 0.026254581 -0.044205323 -0.068839535 0.10144185 0.037527762 0.07089705
-0.021254102 -0.023471644 0.0378041 0.03211421 -0.084132455 -0.273936 -0.09022758 0.00065216864
-0.12679897 0.092053466 -0.0037851133 -0.12385609 0.06932928 0.01330873 0.0037893984 -0.049667936
0.044074904 -0.083778605 -0.043838006 -0.018205313 -0.08165106 0.06795763 -0.012171895 -0.06848349
-0.0036446722 -0.15256944 0.0148544395 -0.06285273 -0.07780923 0.05184572 -0.025489295 -0.11716607
0.109966286 -0.021980263 -0.021108046 -0.03219598 -0.16414559 -0.010237382 0.069955766 0.042208724
-0.06424045 0.06719231 -0.040324453 -0.03978686 -0.08017533 -0.00615094 -0.053866483 -0.044552673
-0.081573516 -0.10018447 -0.031012444 -0.06779822 0.09231188 -0.029397225 -0.0033002857 -0.029476052
0.069130026 0.00832837 -0.018831883 -0.08986542 -0.09299408 -0.0074097076 -0.026985416 -0.016261892
0.102634616 -0.111146726 -0.0344184 0.08468919 0.008521451 0.0887226 -0.15823615 -0.02171167
0.019931376 -0.06090466 0.11017827 -0.001714931 -0.06961424 -0.07220628 -0.06191822 -0.032961596
0.071781345 0.02407551 0.062045496 -0.07437898 -0.13246816 -0.08438388 -0.11749173 -0.108470365
-0.049699806 -0.022276133 0.049494926 -0.08917734 0.062312305 -0.114453174 0.05972565 -0.029037196
0.015262488 0.059300598 0.081147805 -0.011365859 0.053025708 0.024145743 0.024458764 0.01783838
0.004074671 -0.05054524 -0.04717321 -0.14358604 0.11609713 -0.08847386 -0.050506063 -0.11562585
0.045429718 -0.07922812 -0.1088363 -0.0940189 0.074572474 -0.053035524 0.026285084 0.017271955
-0.021254845 0.050766084 0.08180051 0.047738854 -0.027875636 0.047624227 -0.09120751 -0.022940647
0.018668758 0.013181065 -0.08883415 0.009169812 -0.002709402 -0.04256388 -0.010245585 -0.062311407
-0.05082231 -0.059404384 -0.0948457 -0.06704814 -0.090531014 -0.10232689 0.047068525 -0.077101514
-0.0979831 0.04694697 0.07725035 -0.031225892 0.013348012 0.0016853884 0.05112621 -0.068364576
-0.095487535 -0.013866282 -0.03706715 -0.04455153 0.019277545 0.016676087 0.041823525 -0.06944913
-0.02465192 0.048908185 0.06330713 -0.020815574 0.058297575 -0.09448815 0.0048749666 -0.054963805
-0.03321589 0.003759091 -0.024314519 -0.069763675 -0.02568338 -0.05977887 -0.085032895 0.046058692
0.038448386 -0.06732188 -0.05205773 -0.09094167 -0.053375565 -0.033013098 -0.07890701 -0.07958954
-0.09054188 -0.004265026 -0.056434892 -0.07183296 -0.0342154 -0.0804168 -0.004299837 -0.103374235
-0.10232592 -0.08660451 -0.10702554 0.07284916 -0.05805702 -0.08152052 -0.068332605 -0.090703644
0.07632318 0.05838779 -0.0067384127 -0.043855548 -0.020982614 -0.030866062 0.03496977 -0.061056808
-0.08149829 -0.12477238 0.009877133 -0.15771471 0.054249357 0.004672973 0.032609764 0.054776873
-0.053190023 -0.04105846 -0.0019033188 0.05166846 -0.10384521 0.028302046 -0.035772335 -0.15875351
-0.11201981 -0.046391178 -0.075621285 -0.0636939 -0.08538523 -0.021925837 0.07884863 -0.0362534
-0.11950647 -0.014305043 -0.055813532 -0.09402477 -0.15196316 -0.055554617 0.03912317 0.015586926

fc1.bias f4 [128]
00000000: bb89 ff3b f9d5 30bd 77d3 02be 70b7 04be
00000010: a492 ffbd 3edf 2f3e 3b6d f1bd c03b 383b
00000020: 8d75 333c f5bd 473b 25f4 17be 1f1b 59bd
00000030: 81d6 0bbe 0c89 97bc 03e9 f63c 40fb 113d
00000040: 896c 843e 5007 0d3e c0bf 7f3e 0b20 b8bc
00000050: 8276 1bbd e656 e8bd 58f4 943d 0772 263e
00000060: ea25 25bd ae7c c8bd 5d9c 19be 257c 183e
00000070: 9571 cdbd c348 863e 4e84 0abe aa1c b8bc
00000080: 1d83 9e3e dbd5 d3bd 3845 22be 1ce6 d1bd
00000090: 563a 51bd 63e9 f0bd b278 ffbd 5cc1 cbbc
000000a0: 4396 ad3d e54f b9be e98e 843e cec3 813e
000000b0: e8fa 493e efb5 ae3d 2c77 2c3d 4d32 683e
000000c0: d920 823e fb02 8cbb bf9c 2b3e 1d93 87be
000000d0: f03f 953e abbd 15bd 6e7e eebe 4d0f 0cbe
000000e0: 295c 92bc d0c0 b1bd bdd1 dbbb 7526 3abd
000000f0: 6d50 32bd b1f1 ea3d fbd1 4b3d 89d3 853e
00000100: f2a0 ea3d 15e6 ef3c 73e3 933e 018d 59bd
00000110: 3073 c03d b178 78bd 4b84 833e 58e4 9d3e
00000120: 1f2b febd 1469 f6bc 1b87 9fbd 9b30 a3be
00000130: 03d3 f8bd 93e6 d0bd ef7d c23d 7151 b9bd
00000140: 94b4 abbc 44bc c8bd aa33 e43d d41f e93c
00000150: d7f8 48bc 23b2 4d3e 6a4c 0d3e ffeb 023c
00000160: f714 07be ce64 8f3c 7d62 2e3e 0347 e3bd
00000170: 723e 60bd d543 813c d370 263e a5c4 2abd
00000180: 9434 813e 71a8 0cbe 08f7 dfbd 938e edbc
00000190: 14f3 453e da3f 05bd 418c 3f3e 5680 f1bd
000001a0: 03f6 b7bd 2614 993e 53f8 ebbd 785b 57bd
000001b0: 40de 823d 57b9 2f3e fd26 99be 40a3 13be
000001c0: 74ce c0be bf93 03be 8673 ed3b 3a9b 813e
000001d0: ad03 563e c2b4 7fbe b4d1 1b3e da33 10be
000001e0: e042 303e 919b 36bd 00fd 343e 5e80 633d
000001f0: 3817 7dbd 56c6 fcbd d5b4 fa3d bcaf 533e
0.007798401 -0.04317281 -0.1277598 -0.12960601 -0.12479141 0.17175004 -0.11788412 0.0028111786
0.010953319 0.0030478213 -0.14839227 -0.05300438 -0.13656045 -0.018497966 0.030140406 0.03564
0.25864056 0.13772321 0.2497549 -0.022476217 -0.037954815 -0.113446996 0.07273167 0.16254435
-0.04031936 -0.09789406 -0.15001054 0.14891107 -0.1003143 0.26227388 -0.13527033 -0.022474606
0.30959406 -0.10343524 -0.15846717 -0.10248968 -0.051081024 -0.11763265 -0.12474193 -0.024872474
0.08475926 -0.36193767 0.25890282 0.253447 0.1972462 0.08530795 0.04210584 0.22675438
0.25415686 -0.0042728162 0.16759013 -0.26479426 0.29150343 -0.036557835 -0.46580833 -0.13677712
-0.017866211 -0.08679354 -0.0067083524 -0.04544683 -0.04353373 0.1147188 0.0497608 0.2613795
0.11456479 0.029284516 0.28884467 -0.053112987 0.0939697 -0.060661975 0.2568687 0.30838275
-0.124105684 -0.030079402 -0.07789441 -0.3187302 -0.12149622 -0.102002285 0.09496676 -0.09048737
-0.02096013 -0.09801534 0.11142667 0.02845756 -0.012266359 0.20087485 0.13798681 0.007990836
-0.13191591 0.017504122 0.17029758 -0.11097529 -0.054747052 0.015779415 0.16253977 -0.04169144
0.25235426 -0.1373613 -0.10935789 -0.028998649 0.19331008 -0.032531597 0.18705846 -0.11792056
-0.0898247 0.29898185 -0.115219735 -0.052577466 0.06390047 0.17160545 -0.29912558 -0.14417744
-0.3765751 -0.1284933 0.0072464375 0.2531374 0.2089984 -0.24971297 0.15216714 -0.1408228
0.17213011 -0.044581953 0.17674637 0.055542342 -0.06178972 -0.12342517 0.12241522 0.20672506

fc2.weight f4 [1, 128]
00000000: a048 83bb d0c5 a93c 8eab a8be 5873 5fbd
00000010: 9da2 613d 6d60 10bd 9e30 823b 61c0 83be
00000020: fe59 953b ecf0 1abb e125 803a 206e e53c
00000030: c0a5 173c 8de8 0abc 7bb8 b5bd 4b96 223d
00000040: 57bb a03e 403e f13c e198 c8be d147 3cbd
00000050: d907 e4bc 6e16 89bc 92dd 083d 3b5d 2cbe
00000060: 20f0 f53c c822 c03c 6ed4 14bd 7d3f 34be
00000070: cdb5 f6bb 42a5 2d3d fe82 a53d 77fa 03bc
00000080: f715 a03d 38ac 1dbd 195e 023c 66c8 91bb
00000090: 2453 b0bc e0d0 f4bc c931 8a3c e1da 97bb
000000a0: 8b8f d4bd fc04 cebd fac8 8c3d d990 ad3d
000000b0: b975 2cbe c626 4bbb 39c8 e93b a9f9 81be
000000c0: d74f ec3c 4cef 803e 0d78 efbd b3e6 fcbe
000000d0: 0dde 8a3e 853a fb3c f7b7 18bf 109a 92bd
000000e0: be07 f5bb f35f 6fbc 2ee7 86bc 2c63 983c
000000f0: 03e1 223e 9c81 85be b7e3 cf3b a0b7 733d
00000100: 323c cabc e8a9 0fbc f5d8 8a3d a9b1 30bc
00000110: 3c44 7bbb 814c 38bc 178b aebe b17c aa3d
00000120: 8cbd 853b 954b e1bc fc2d 35bb e31f a5be
00000130: b17e 0e3d 0423 d33c f7de 0cbc 3c41 37bc
00000140: e250 033c c22a 6c3e 9f70 1dbc 51f1 8c3b
00000150: 1a35 633c 3d3a 933c c9dc 1cbe 042d a7bb
00000160: 1061 4d3c 9215 a43c 9f70 5cbe ec47 eb3d
00000170: 38e9 cbba 1976 013d d470 a4bd ec1f 9dbb
00000180: b80b 9c3c af2b cfbc 361c db3e f94f ef3b
00000190: e3c1 853b 72ee 243c 14fc 77be dc31 063d
000001a0: a038 bdbc 2d3e b13d 07af 893e cb2c d8bc
000001b0: e9e6 d93c ef97 1f3e 79d1 0d3f 67d9 e5bd
000001c0: b77b 173f e906 e63e af9c 31bd ca5c 973d
000001d0: db9e f03d 290a 92be fdf3 68bd d973 aabc
000001e0: dd7e 173d 5843 d83c 93e5 be3c 5ca3 e4bb
000001f0: 37f9 c2bc d949 3a3c e19f 32bd cfe2 2c3e
-0.0040064603 0.020724207 -0.32943386 -0.05455336 0.05508672 -0.03524821 0.003973081 -0.2573271
0.004557847 -0.0023642136 0.0009776914 0.028006613 0.0092558265 -0.008478296 -0.088730775 0.03969411
0.3139293 0.029448628 -0.39179137 -0.045966927 -0.027835773 -0.016734328 0.03341443 -0.1683244
0.030021727 0.023454085 -0.0363354 -0.17602344 -0.0075289966 0.04239393 0.080816254 -0.008055321
0.078166895 -0.03849432 0.007957005 -0.004448938 -0.02152402 -0.029884756 0.016869443 -0.0046342467
-0.10378941 -0.100595444 0.06874271 0.08474893 -0.16841783 -0.0030998453 0.007134464 -0.25385788
0.028846664 0.2518257 -0.1169282 -0.4939476 0.27122536 0.030667553 -0.5965571 -0.07158291
-0.0074777296 -0.014610278 -0.016467657 0.018601976 0.15906148 -0.26075447 0.0063442844 0.05950129
-0.024686906 -0.008768536 0.067796625 -0.010784545 -0.0038340231 -0.011248709 -0.34090492 0.08324564
0.0040814336 -0.02750186 -0.0027645817 -0.3225089 0.03478879 0.025773533 -0.008598081 -0.011184987
0.008014889 0.23063186 -0.0096093705 0.004301228 0.013867641 0.017972106 -0.15318598 -0.005101802
0.012535349 0.020029817 -0.21527337 0.114883274 -0.0015557176 0.031606767 -0.08029333 -0.004795065
0.019048557 -0.025289385 0.4279496 0.0073032347 0.004081951 0.010066615 -0.24217254 0.032762393
-0.02309829 0.08654437 0.26891348 -0.026388546 0.026599364 0.15585302 0.55397755 -0.11223107
0.5917315 0.44927147 -0.043362316 0.07390745 0.11749049 -0.28523377 -0.05687331 -0.020807194
0.03698622 0.0263993 0.023302829 -0.006977482 -0.023800476 0.011370146 -0.043609504 0.16883396
