Game Loop final - capitolul 7/runs/position_evaluation/train1/chessModel.pth (torch, 454946 bytes, 9 tensors)

conv1.weight f4 [32, 13, 3, 3]
0.08776926 -0.05685249 0.09211671 -0.06088626 0.03682087 0.013017253 0.03350992 -0.023953188
-0.007762508 0.06046569 -0.07654917 0.071379825 0.055584695 0.02414498 -0.036531214 0.05108997
0.05173417 0.04877492 -0.037677277 -0.06719833 0.062247276 -0.09030263 0.04034585 -0.032164145
-0.08098115 0.06293449 0.07094311 0.07478244 0.019065635 0.015871307 0.059752107 -0.030646952
-0.041667897 -0.08704828 -0.078512095 0.0800736 -0.012811866 -0.020439217 -0.06922617 -0.036434326
0.030036166 -0.076727554 0.051851694 -0.055352077 -0.013480766 -0.0005144702 -0.0095494585 -0.010219346
0.029141026 0.042723898 -0.016329614 0.08683801 -0.015307424 0.08041427 -0.001590776 0.01728266
0.03232053 0.081702076 0.0636276 6.564135e-05 -0.08417098 0.08597892 0.019799342 -0.03988408
0.027598549 0.022947893 0.00175202 -0.07518505 0.037579317 -0.06517007 -0.01939212 -0.05544793
-0.088071175 -0.0131643 0.08216384 -0.075902075 0.0214961 0.03610792 -0.06450447 -0.062082116
-0.070390426 0.027282603 0.058901675 0.09072423 0.09363125 -0.068021625 -0.0018995452 -0.014009251
-0.052042972 -0.05197573 0.044788085 0.0649069 -0.06177187 -0.079434104 -0.03101835 0.09196976
-0.049440406 -0.07733862 -0.046526782 -0.07697874 0.037412364 -0.026758768 -0.07222179 -0.04647982
-0.016450917 -0.073912755 -0.029936448 -0.052381143 -0.076185465 0.09098087 -0.08255387 -0.013793205
0.0027914497 -0.08065828 0.016264036 -0.017725635 -0.041405413 0.044255085 -0.055706847 0.044719577
-0.043101188 0.07082639 -0.0377824 0.06877658 0.022970228 -0.012532377 -0.03957171 -0.06033457
-0.08615089 -0.07664393 -0.042660777 -0.017943768 0.0757223 0.0014263123 0.053521354 -0.079918295
0.082013816 0.04370131 0.030024316 -0.053309847 0.02460909 0.04627282 0.06504822 0.09140045
0.005679743 -0.0628861 0.026690623 0.062678084 0.0022897664 -0.008318814 0.08613253 -0.008611336
0.040892012 0.011587037 0.08157966 -0.028583324 0.06510009 0.027595272 -0.056446962 -0.037671477
0.026533362 -0.02434605 0.065953605 -0.0808239 0.078332804 -0.048700355 -0.092938066 -0.07589986
0.036712267 0.0012781897 0.085792035 0.04104676 0.04808237 -0.011970582 -0.055462856 0.059899036
0.08409952 0.0015385918 0.05554742 -0.07093833 0.020071253 -0.013071542 0.031512886 -0.049861852
-0.012153509 0.025249405 -0.08234347 0.093900405 0.07102488 -0.042599317 -0.078751646 -0.044639707
-0.07725499 -0.044596184 -0.00042775623 0.08561853 -0.09048409 0.068015106 -0.05029787 -0.04628144
-0.053762842 -0.051980108 0.07415965 0.059448134 -0.08550444 -0.019396123 0.09059619 -0.07788826
-0.04644274 0.0884711 -0.0619077 -0.056535587 0.02608569 -0.0044729966 -0.07596218 -0.069404155
-0.018777836 -0.03886335 0.06932665 -0.05022489 0.057869185 -0.009942787 0.027780732 0.048463847
0.06250475 0.057253107 -0.03262184 0.036565788 0.016652446 -0.042010404 -0.03291981 -0.027029019
0.019548435 0.09248333 0.022015482 -0.0119204335 0.040421538 0.016740851 -0.022221996 0.09288423
0.06626087 0.060306657 -0.004323555 -0.042478617 -0.044621944 0.070581906 0.057067305 0.042312883
-0.0043815733 0.05284522 -0.017872248 -0.011099075 0.045137104 0.0040145065 -0.016619667 0.0264577
00000000: 5fc0 b33d 28de 68bd b0a7 bc3d df63 79bd
00000010: 7bd1 163d 5146 553c b341 093d 7a39 c4bc
00000020: a35c febb dfaa 773d d0c5 9cbd 962f 923d
00000030: c7ac 633d b1cb c53c c1a1 15bd b743 513d
00000040: 36e7 533d 36c8 473d 7d53 1abd 479f 89bd
00000050: 00f7 7e3d 96f0 b8bd b141 253d 8dbe 03bd
00000060: 72d9 a5bd cce3 803d 9f4a 913d 8927 993d
00000070: 892f 9c3c 8b04 823c a0be 743d 510f fbbc
00000080: f5ab 2abd 5e46 b2bd f3ca a0bd a1fd a33d
00000090: dce8 51bc 2570 a7bc 73c6 8dbd 293c 15bd
000000a0: 680e f63c 5623 9dbd 7162 543d dcb8 62bd
000000b0: 6ede 5cbc 83dd 06ba 5575 1cbc 0b6f 27bc
000000c0: 29b9 ee3c 41ff 2e3d afc5 85bc 20d8 b13d
000000d0: fdcb 7abc 3db0 a43d 9681 d0ba 5d94 8d3c
000000e0: 8862 043d 6b53 a73d 304f 823d eea8 8938
000000f0: d661 acbd b715 b03d 3b32 a23c 7d5d 23bd
00000100: 5a16 e23c 38fd bb3c 09a4 e53a 9ffa 99bd
00000110: c5ec 193d e377 85bd 39dc 9ebc 5e1d 63bd
00000120: a95e b4bd 13af 57bc 8445 a83d 8c72 9bbd
00000130: 9718 b03c e6e5 133d eb1a 84bd d149 7ebd
00000140: db28 90bd c47f df3c e242 713d a0cd b93d
00000150: bec1 bf3d ec4e 8bbd 29fa f8ba 0f87 65bc
00000160: 032b 55bd 81e4 54bd b673 373d e9ed 843d
00000170: 8004 7dbd 59ae a2bd 321a febc a45a bc3d
00000180: 0682 4abd b663 9ebd de92 3ebd 08a7 9dbd
00000190: b53d 193d 3435 dbbc 05e9 93bd a061 3ebd
000001a0: 13c4 86bc 925f 97bd 483d f5bc 9c8d 56bd
000001b0: 2007 9cbd 2e54 ba3d 0112 a9bd e5fc 61bc
000001c0: c1f0 363b 2b30 a5bd 283c 853c 5a35 91bc
000001d0: b998 29bd d244 353d dd2c 64bd e02b 373d
000001e0: df8a 30bd 6d0d 913d b8c1 1abd bcda 8c3d
000001f0: 0f2c bc3c 9954 4dbc f215 22bd 6221 77bd
00000200: e16f b0bd 7ef7 9cbd 11bd 2ebd cffe 92bc
00000210: 4b14 9b3d 19f3 ba3a 3539 5b3d 34ac a3bd
00000220: dcf6 a73d 2500 333d 8ef5 f53c 6d5b 5abd
00000230: 0199 c93c 9288 3d3d 0038 853d 2930 bb3d
00000240: 231d ba3b 6dca 80bd 4ba6 da3c 5e5d 803d
00000250: e80f 163b a34b 08bc 4066 b03d 9016 0dbc
00000260: 627e 273d 8ed7 3d3c 3d13 a73d 9327 eabc
00000270: 3253 853d 7b0f e23c ee34 67bd 684d 1abd
00000280: 7e5c d93c 5e71 c7bc af12 873d 0087 a5bd
00000290: f36c a03d 067a 47bd 5056 bebd 6371 9bbd
000002a0: 9a5f 163d ee88 a73a bcb3 af3d a620 283d
000002b0: 05f2 443d 4320 44bc 052d 63bd b158 753d
000002c0: 5f3c ac3d 93aa c93a b185 633d 1d48 91bd
000002d0: 786c a43c 052a 56bc a813 013d f13b 4cbd
000002e0: 831f 47bc d7d7 ce3c b1a3 a8bd db4e c03d
000002f0: 7e75 913d 9f7c 2ebd 8b48 a1bd 20d8 36bd
00000300: dd37 9ebd 7daa 36bd 7844 e0b9 c558 af3d
00000310: b94f b9bd 814b 8b3d 2405 4ebd 9b91 3dbd
00000320: 6d36 5cbd 18e9 54bd 04e1 973d e37f 733d
00000330: f41c afbd 9ee4 9ebc 7f8a b93d e183 9fbd
00000340: be3a 3ebd 5630 b53d ee92 7dbd dc91 67bd
00000350: a8b1 d53c 3792 92bb 0f92 9bbd c423 8ebd
00000360: fad3 99bc 2d2f 1fbd 21fb 8d3d 9db8 4dbd
00000370: 3d08 6d3d 12e7 22bc 6b94 e33c 0782 463d
00000380: 7e02 803d 3c82 6a3d 7a9e 05bd 02c6 153d
00000390: b66a 883c 1a13 2cbd ecd6 06bd f66b ddbc
000003a0: 0a24 a03c e667 bd3d d059 b43c ec4d 43bc
000003b0: 0e91 253d 1c24 893c e70a b6bc 163a be3d
000003c0: c7b3 873d 1d04 773d 9cac 8dbb 0ffe 2dbd
000003d0: 80c5 36bd 3f8d 903d 68bf 693d 4650 2d3d
000003e0: 4d93 8fbb 3b74 583d d268 92bc e5d8 35bc
000003f0: afe1 383d 1f8c 833b f825 88bc d2bd d83c

conv1.bias f4 [32]
0.05462195 0.057223428 -0.039381094 -0.04031106 0.010039605 -0.07323968 -0.0766651 0.011771093
-0.03569722 -0.05637747 -0.08585975 -0.058336604 0.001956538 -0.034658514 -0.086464375 0.024113856
-0.027281895 -0.01382534 -0.013285971 -0.038386017 0.056940414 -0.09165778 0.013220956 0.022464143
-0.08920131 0.030338682 -0.06341163 0.06506519 -0.051657606 -0.042332105 0.036790878 -0.025773646
00000000: 44bb 5f3d 1d63 6a3d 124e 21bd 361d 25bd
00000010: 287d 243c affe 95bd 9802 9dbd 8bdb 403c
00000020: 4037 12bd 10ec 66bd 3dd7 afbd 5df2 6ebd
00000030: 4339 003b 16f6 0dbd 3c14 b1bd 6c8a c53c
00000040: 487e dfbc ae83 62bc 67ad 59bc a83a 1dbd
00000050: 5a3a 693d 13b7 bbbd b59c 583c b906 b83c
00000060: 2daf b6bd d488 f83c f5dd 81bd e640 853d
00000070: ed96 53bd 6e64 2dbd 08b2 163d 4123 d3bc

conv2.weight f4 [64, 32, 3, 3]
-0.00981051 -0.052301064 0.023397995 -0.0023245455 0.031704593 0.04518318 -0.04624928 -0.0058814157
0.052499168 -0.021423725 -0.03592282 0.012076871 -0.04126667 0.021038264 0.009311077 -0.014740004
0.05481535 0.04473036 0.046911303 -0.038231406 0.027175935 -0.03722077 0.019106964 0.031685583
0.0051656095 -0.012576431 -0.02136409 0.0040381295 0.026362225 0.050918017 -0.017000344 -0.024595315
0.039184153 -0.050932433 0.04715014 0.007227519 -0.009657677 -0.046193905 0.030358672 0.0034726881
-0.018739175 -0.037548687 -0.030266138 0.012293473 0.056635823 -0.030294938 -0.0051693404 -0.026703438
0.042218015 0.050678223 0.013343438 0.06285807 -0.0019946757 -0.05467224 0.020603644 0.04792527
-0.04861175 -0.04507867 0.0042108856 -0.0273373 -0.041938648 -0.011170388 0.046639573 -0.043094825
-0.016744606 0.036170516 -0.034705754 0.020546865 0.027900213 -0.011688307 0.03863947 0.058872227
0.029707441 0.04182894 0.028224137 0.04847528 -0.044472653 0.0010485057 0.043028608 -0.02558584
0.03254343 0.0090500405 -0.050108373 0.022481645 0.04551646 -0.025485206 -0.017965771 0.029352171
-0.032729357 -0.031604033 -0.0066211396 -0.04107862 0.052268595 0.03413004 -0.020869888 0.04199002
0.053300016 0.032611534 0.063131645 -0.041655324 0.0011770679 0.00027555646 0.040906407 0.0060799285
-0.02615735 0.06190509 -0.026255574 -0.025903402 -0.04908597 -0.0034387265 -0.03836174 0.027171334
-0.036202274 0.041072022 0.0009627224 0.046522047 0.012514324 0.0042554745 -0.019753102 0.06100051
-0.030737879 -0.00926504 0.02969191 -0.007361574 0.04107355 -0.011239491 -0.02784978 -0.047302473
0.04020116 0.023908086 0.020500109 -0.031156387 0.008898853 0.010258992 0.027385576 -0.036806196
0.004963259 0.04302158 0.006494111 -0.038319193 0.019204782 -0.009879026 0.023488322 -0.011256636
-0.016176814 0.022862632 0.025145898 0.026850408 -0.026535256 -0.0035540368 0.061912995 0.005328081
-0.0010889005 0.056767013 0.03294513 0.029937856 -0.0132150985 0.011252606 0.012399836 -0.046403825
-0.0099250125 0.01649322 -0.031221315 -0.021257691 -0.03621666 0.020053871 0.047108408 0.009482204
-0.04555896 -0.020855447 0.05382849 -0.0018882251 0.008667301 -0.026749974 0.0034379235 -0.0056139203
-0.05121132 0.055960678 0.062142435 0.013371503 0.00039305002 -0.039244026 0.012643184 -0.023235168
0.00752912 0.036028735 -0.0074446835 0.040470265 0.007061613 0.017967835 0.034028154 -0.046356563
0.005677873 0.020931909 0.062103126 -0.025223875 -0.026681824 -0.018720418 0.058826905 0.009234611
-0.0043291617 0.025687637 0.023338465 0.048556816 -0.016500657 0.0014691434 0.0107628 0.04011654
0.02456264 -0.015633605 0.03214821 0.0502703 -0.012771137 0.050945155 -0.031295277 0.0153199425
-0.016253265 0.027367458 -0.026733369 0.05226524 -0.010880519 0.022089498 -0.048492204 -0.03826321
0.00040590655 -0.020945227 -0.041401085 0.01036854 0.048708323 -0.018657278 -0.02205686 0.024195094
-0.045695156 -0.026538605 -0.035272352 0.026516143 -0.023912823 -0.0061230743 0.037484683 -0.0521219
0.010031735 0.008917748 0.01896262 -0.04064937 0.017928874 -0.01971193 -0.018616842 -0.033007152
0.034307867 0.0309544 0.017726906 -0.0112459 -0.018081598 0.013006739 -0.022403168 0.019518368
00000000: 43bc 20bc a439 56bd 27ad bf3c 6757 18bb
00000010: addc 013d 0012 393d e36f 3dbd e4b8 c0bb
00000020: 5e09 573d cf80 afbc cf23 13bd 11de 453c
00000030: 3d07 29bd 7058 ac3c 7d8d 183c 0f80 71bc
00000040: 0f86 603d 2f37 373d 1126 403d 8998 1cbd
00000050: 11a0 de3c ce74 18bd 3586 9c3c bec8 013d
00000060: 4644 a93b 600d 4ebc be03 afbc 4952 843b
00000070: 98f5 d73c 698f 503d 4e44 8bbc 1d7c c9bc
00000080: 907f 203d 879e 50bd 8120 413d d3d4 ec3b
00000090: 3c3b 1ebc d235 3dbd c0b2 f83c 0a96 633b
000000a0: e682 99bc a7cc 19bd b1f0 f7bc 906a 493c
000000b0: f7fa 673d 172d f8bc 9263 a9bb 2bc1 dabc
000000c0: ccec 2c3d f893 4f3d 6f9e 5a3c bbbb 803d
000000d0: 1bb9 02bb 00f0 5fbd f9c8 a83c 4a4d 443d
000000e0: 1d1d 47bd 69a4 38bd 78fb 893b 79f2 dfbc
000000f0: dcc7 2bbd 0104 37bc 2309 3f3d 3384 30bd
00000100: fc2b 89bc 8927 143d 9f27 0ebd e651 a83c
00000110: fd8e e43c 5080 3fbc 6c44 1e3d 0124 713d
00000120: 055d f33c d354 2b3d 4e36 e73c 048e 463d
00000130: f528 36bd 036e 893a c43e 303d 6599 d1bc
00000140: 424c 053d 9f46 143c 703e 4dbd 6d2b b83c
00000150: 786f 3a3d 5ac6 d0bc f42c 93bc f773 f03c
00000160: 380f 06bd 3b73 01bd 25f6 d8bb 0e42 28bd
00000170: 9817 563d f1cb 0b3d 54f7 aabc bafd 2b3d
00000180: 1e51 5a3d ac93 053d 2a4b 813d c69e 2abd
00000190: d847 9a3a 9078 9039 7a8d 273d 233a c73b
000001a0: f047 d6bc 3190 7d3d ee15 d7bc 5f33 d4bc
000001b0: 5f0e 49bd 425c 61bb 3321 1dbd 6b96 de3c
000001c0: d648 14bd 233b 283d 355f 7c3a e78d 3e3d
000001d0: e108 4d3c 8271 8b3b 42d1 a1bc acdb 793d
000001e0: 01ce fbbc 65cc 17bc 733c f33c 5c39 f1bb
000001f0: bd3c 283d d825 38bc 3925 e4bc 3dc0 41bd
00000200: f9a9 243d e4da c33c d8ef a73c ae3b ffbc
00000210: 7fcc 113c 5515 283c b757 e03c 18c2 16bd
00000220: d6a2 a23b 6537 303d 8dcc d43b 96f4 1cbd
00000230: 5953 9d3c a3db 21bc 956a c03c c16d 38bc
00000240: 3d85 84bc 6a4a bb3c c5fe cd3c 63f5 db3c
00000250: 7760 d9bc d8ea 68bb 7b98 7d3d 2f97 ae3b
00000260: 70b9 8eba 8784 683d 79f1 063d 3c40 f53c
00000270: 2484 58bc da5c 383c af28 4b3c f011 3ebd
00000280: 859c 22bc ca1c 873c d8c3 ffbc 9c24 aebc
00000290: ec57 14bd 0448 a43c bff4 403d 3f5b 1b3c
000002a0: 089c 3abd 0bd9 aabc 437b 5c3d 527e f7ba
000002b0: 4c01 0e3c c322 dbbc c94e 613b faf4 b7bb
000002c0: f6c2 51bd 0637 653d 1189 7e3d 2614 5b3c
000002d0: 4812 ce39 58be 20bd 5b25 4f3c ae57 bebc
000002e0: d6b6 f63b de92 133d 88f2 f3bb 26c4 253d
000002f0: 1a65 e73b 4831 933c 1b61 0b3d 61e0 3dbd
00000300: 730d ba3b 6579 ab3c d95f 7e3d 4da2 cebc
00000310: d793 dabc 905b 99bc 7bf4 703d c44c 173c
00000320: a4db 8dbb e16e d23c 4f30 bf3c 83e3 463d
00000330: 632c 87bc 4690 c03a 7556 303c 3e51 243d
00000340: 9737 c93c 0c12 80bc d7ad 033d 3be8 4d3d
00000350: 083e 51bc deab 503d 7a2f 00bd 7f00 7b3c
00000360: 9125 85bc b831 e03c f0ff dabc 1414 563d
00000370: 3444 32bc 09f5 b43c c39f 46bd e2b9 1cbd
00000380: dbcf d439 5395 abbc 2f94 29bd cfe0 293c
00000390: 6182 473d 26d7 98bc 97b0 b4bc ca34 c63c
000003a0: d82a 3bbd 7d67 d9bc be79 10bd 6238 d93c
000003b0: d3e4 c3bc 12a4 c8bb 8a89 193d c67d 55bd
000003c0: 255c 243c bf1b 123c 7f57 9b3c f47f 26bd
000003d0: 93df 923c ea7a a1bc 5982 98bc 8232 07bd
000003e0: 6886 0c3d 1594 fd3c 0438 913c b940 38bc
000003f0: dc1f 94bc 381a 553c d986 b7bc fce4 9f3c

conv2.bias f4 [64]
0.059634086 -0.027958138 -0.0156118 -0.019422699 0.0145726325 -0.052699197 -0.025833674 0.00029636075
0.043740712 0.034913275 0.04604445 0.025908869 -0.009767218 -0.016840134 0.0003959041 -0.001981634
0.019933434 -0.04041449 -0.022176452 0.046164125 -0.04149136 0.045315683 0.0020980095 0.004526352
0.046840783 0.014271183 0.04259576 0.05387109 0.05544746 -0.035783555 0.053206403 -0.0047707367
0.023142507 -0.022706825 0.045350812 0.047289796 -0.050362676 -0.061599277 0.020798102 -0.006616134
-0.04745882 0.023445196 0.013398465 -0.047426376 0.0063505224 0.005699627 -0.020667398 -0.006081568
0.056177553 0.013075403 0.0462004 -0.01772174 -0.039381538 -0.03463797 0.0012174688 -0.020374993
0.048128936 -0.0108108325 -0.03653757 -0.03576277 0.036625713 0.051093835 0.034033988 -0.015947517
00000000: df42 743d 7708 e5bc a3c8 7fbc 5a1c 9fbc
00000010: 0dc2 6e3c 1ddb 57bd 24a1 d3bc de60 9b39
00000020: 7629 333d 3901 0f3d 1b99 3c3d d63e d43c
00000030: ae06 20bc 52f4 89bc 5991 cf39 4dde 01bb
00000040: 714b a33c aa89 25bd 64ab b5bc 9816 3d3d
00000050: d8f2 29bd f09c 393d c27e 093b cb51 943b
00000060: 1fdc 3f3d aed1 693c e478 2e3d efa7 5c3d
00000070: e01c 633d c791 12bd f5ee 593d d753 9cbb
00000080: 5b95 bd3c aa03 babc c6c1 393d f2b2 413d
00000090: 1849 4ebd 864f 7cbd c860 aa3c 28cc d8bb
000000a0: 2e64 42bd 2410 c03c 3c85 5b3c 2942 42bd
000000b0: 0b18 d03b f0c3 ba3b ad4e a9bc e447 c7bb
000000c0: 6f1a 663d 373a 563c a13c 3d3d 2f2d 91bc
000000d0: 894e 21bd 8be0 0dbd 7993 9f3a 75e9 a6bc
000000e0: d922 453d eb1f 31bc 6ba8 15bd fb7b 12bd
000000f0: d804 163d c547 513d 3967 0b3d 5ea4 82bc

conv3.weight f4 [128, 64, 3, 3]
-0.024942955 0.0097018005 0.0052096737 -0.019295197 -0.0037342946 0.019490678 -0.0059004165 -0.0037418157
-0.020969968 0.03335904 -0.038578052 0.0353044 -0.0012879483 0.02330281 -0.029087467 -0.024988558
0.0056486987 -0.02100633 0.027787928 0.024206871 0.02461138 -0.011034435 0.02321622 -0.020242669
-0.023085054 -0.011292016 -0.023790022 0.027612898 -0.0016170522 0.0128755 -0.03869061 0.031655047
0.01728258 -0.008274984 -0.010254387 0.024617959 0.015944213 0.0019289709 -0.027970068 0.009144653
0.008612057 0.016144115 -0.03638772 -0.008474123 -0.010885801 -0.009096775 0.034337748 -0.021423608
0.03485502 -0.031849753 -0.03516072 -0.0029040836 -0.0350307 -0.03255027 0.030269008 0.039523523
-0.026374111 0.024930123 -0.020498753 -0.028314397 0.039682064 -0.008957852 -0.012249341 -0.03894203
-0.01721413 0.029032324 0.0107596405 -0.0048602335 0.014245714 0.020104762 0.0030273348 0.034291934
0.014906909 0.008050197 -0.00024558866 -0.030281937 -0.023546748 -0.01965059 0.029239181 -0.03393839
0.0054924227 -0.037837856 0.0032735567 0.009256627 -0.011328056 -0.030920856 -0.018584022 0.0011403449
0.010699701 0.023006711 0.025374483 -0.026983557 -0.017904468 0.022094142 -0.021167733 -0.037715774
-0.0030070357 -0.022668635 0.013978343 0.011376187 0.009796745 0.038790815 0.0051467977 0.021569649
0.0105558485 -0.0057963617 -0.033466797 0.03271855 -0.0026257671 0.02718408 -0.037476413 0.0056738667
0.033717074 0.014809633 0.041259486 -0.012919128 -0.005498152 -0.01327638 0.023962256 -0.02624649
0.034534615 0.025880191 0.0047314335 -0.030563628 -0.011110669 0.0068365596 -0.025316125 0.03792246
-0.024208184 0.03335749 0.011914822 -0.031358533 -0.022151899 -0.024331897 -0.0013885312 0.013120543
0.033260662 -0.01325433 0.024131011 0.023450855 -0.024533754 -0.019862672 0.039413933 0.003820151
0.002917245 0.032916114 -0.01909609 0.028536666 0.018185446 -0.042736597 -0.019528827 0.033614878
-0.0345443 -0.0055095404 3.7837774e-05 -0.004319396 -0.03429207 0.012882173 -0.0057597198 -0.031767376
0.0068888925 -0.041461956 -0.02869605 0.02914872 -0.014725536 0.023170698 -0.036264353 0.019434892
-0.005542312 -0.028633302 0.023158226 -0.0029461496 0.027205512 0.02941693 0.0074750483 -0.00086308445
0.016377138 -0.007848937 -0.025611034 0.029308412 -0.02651329 0.0041121715 -0.025242671 0.0010852851
-0.03454225 0.023759574 -0.002554763 0.002659902 -0.021573907 0.022293743 -0.030593025 0.0014994119
0.010166869 -0.031706527 0.036921117 -0.0035705082 -0.017265832 -0.024665412 0.031668905 0.009511874
-0.023575978 0.009107843 -0.028182555 0.0328002 0.029163007 -0.029869586 0.029669482 -0.010840034
0.011453014 0.018467396 -0.013909515 0.009677451 -0.0038995568 -0.032387085 0.037252296 0.020371225
-0.00138494 0.03228253 0.0078041865 0.002724383 -0.027569737 -0.02004068 0.038153592 -0.03018041
0.020474281 0.0068816803 -0.002250193 -0.006817763 0.020506859 0.024975695 -0.014472317 0.0061419196
-0.002266135 -0.0062512495 -0.016342938 -0.03193344 0.033367164 -0.009877507 -0.0180707 -0.028387355
-0.022396749 0.03269073 0.041029382 -0.015050244 -0.040855948 0.034554455 0.0064673685 0.001471691
-0.0403429 0.033578213 0.015133724 0.0013580061 0.0400461 -0.040050488 0.03669925 0.0025396645
00000000: 2b55 ccbc 4df4 1e3c e9b5 aa3b f610 9ebc
00000010: 11bb 74bb eaaa 9f3c 4858 c1bb 4039 75bb
00000020: 36c9 abbc 7da3 083d 0504 1ebd 599b 103d
00000030: 60d0 a8ba 89e5 be3c d748 eebc ceb4 ccbc
00000040: b818 b93b 7815 acbc 82a3 e33c 7d4d c63c
00000050: ce9d c93c c6c9 34bc f12f be3c f4d3 a5bc
00000060: de1c bdbc 2602 39bc 4be3 c2bc 7234 e23c
00000070: 45f3 d3ba c3f3 523c 0c7a 1ebd b9a8 013d
00000080: 3294 8d3c cc93 07bc 0402 28bc 9aab c93c
00000090: 709d 823c 86d5 fc3a 7c21 e5bc 74d3 153c
000000a0: 9619 0d3c aa40 843c 4a0b 15bd 0cd7 0abc
000000b0: 5c5a 32bc a40a 15bc bda5 0c3d 9080 afbc
000000c0: 23c4 0e3d e374 02bd b004 10bd 7052 3ebb
000000d0: 5a7c 0fbd 6f53 05bd b6f6 f73c 6be3 213d
000000e0: 850e d8bc 423a cc3c 00ed a7bc 98f3 e7bc
000000f0: a989 223d f4c3 12bc 76b1 48bc ae81 1fbd
00000100: a604 8dbc 32d5 ed3c 3449 303c 9842 9fbb
00000110: db66 693c beb2 a43c 4066 463b b375 0c3d
00000120: 1c3c 743c f9e4 033c 5ac2 80b9 d311 f8bc
00000130: 1ce5 c0bc 46fa a0bc 0287 ef3c fb02 0bbd
00000140: c8f9 b33b defb 1abd 2b89 563b 1ca9 173c
00000150: 5099 39bc bc4d fdbc 853d 98bc a077 953a
00000160: cc4d 2f3c 9278 bc3c 26de cf3c 9f0c ddbc
00000170: 64ac 92bc c6fe b43c f467 adbc db7b 1abd
00000180: b011 45bb 93b3 b9bc 6c05 653c 3063 3a3c
00000190: 8782 203c 1ee3 1e3d 78a6 a83b d5b2 b03c
000001a0: 70f2 2c3c 68ef bdbb 7b14 09bd e303 063d
000001b0: 1015 2cbb 26b1 de3c de80 19bd d8eb b93b
000001c0: ea1a 0a3d 1aa4 723c b5ff 283d c0aa 53bc
000001d0: d829 b4bb 2c85 59bc 7e4c c43c e102 d7bc
000001e0: 2b74 0d3d b202 d43c 240a 9b3b 9360 fabc
000001f0: 8609 36bc 3805 e03b c363 cfbc 9554 1b3d
00000200: 3e50 c6bc dda1 083d 6336 433c ce71 00bd
00000210: e677 b5bc b053 c7bc 60ff b5ba 8cf7 563c
00000220: 553c 083d b028 59bc 66ae c53c 021c c03c
00000230: 03fb c8bc 0bb7 a2bc 8170 213d 805b 7a3b
00000240: 402f 3f3b 0cd3 063d 676f 9cbc bac5 e93c
00000250: a5f9 943c 920c 2fbd ebfa 9fbc c1af 093d
00000260: 537e 0dbd 6089 b4bb 00b4 1e38 b889 8dbb
00000270: d775 0cbd c00f 533c 08bc bcbb 821e 02bd
00000280: 38bc e13b 03d4 29bd fb13 ebbc 4cc9 ee3c
00000290: 6043 71bc 7ad0 bd3c ee89 14bd ec35 9f3c
000002a0: 489c b5bb 6390 eabc 52b6 bd3c 3014 41bb
000002b0: 18de de3c c6fb f03c 40f1 f43b 9e40 62ba
000002c0: 5929 863c d498 00bc 3bce d1bc 3218 f03c
000002d0: 6632 d9bc 65bf 863b b8c9 cebc 2040 8e3a
000002e0: 2d7c 0dbd 70a3 c23c d06d 27bb c051 2e3b
000002f0: c3bb b0bc 5ea1 b63c 399e fabc ea87 c43a
00000300: f092 263c b4de 01bd 993a 173d 30ff 69bb
00000310: 1371 8dbc 1e0f cabc 41b7 013d b1d7 1b3c
00000320: 6922 c1bc 1039 153c 1adf e6bc 8159 063d
00000330: 42e7 ee3c 10b1 f4bc 6a0d f33c 669a 31bc
00000340: 6ca5 3b3c f048 973c bce4 63bc 2c8e 1e3c
00000350: b58f 7fbb 52a8 04bd dd95 183d 8ee1 a63c
00000360: e086 b5ba b03a 043d 43ba ff3b 908b 323b
00000370: eed9 e1bc 5a2c a4bc f146 1c3d e83c f7bc
00000380: aeb9 a73c b87f e13b f977 13bb 8b67 dfbb
00000390: 00fe a73c d499 cc3c 4c1d 6dbc 2842 c93b
000003a0: 7083 14bb 48d7 ccbb a0e1 85bc a4cc 02bd
000003b0: 02ac 083d 44d5 21bc 0109 94bc 998c e8bc
000003c0: 6379 b7bc b7e6 053d 6d0e 283d 4c95 76bc
000003d0: 9158 27bd f988 0d3d 38ec d33b c1e5 c03a
000003e0: 993e 25bd 4f89 093d 70f3 773c 20ff b13a
000003f0: 6107 243d fb0b 24bd f451 163d 8070 263b

conv3.bias f4 [128]
-0.040889308 -0.017471803 -0.021011632 -0.037434068 -0.023619687 0.03555215 0.0379058 0.0062571107
-0.024811434 -0.015057569 0.012061702 0.034568403 0.014738747 0.030842638 0.019681184 0.028536772
-0.006909541 0.027662845 -0.03834471 -0.027608892 0.016295115 0.030016044 0.036909252 0.02779006
0.0046794834 -0.04161714 0.045462146 -0.026992967 -0.006015461 0.027043764 0.0014665757 -0.016148372
-0.03852451 -0.0364424 0.031390417 0.008930267 -0.005638542 -0.0146584585 -0.035107754 -0.0091278255
0.03350743 -0.017320814 -0.0123508675 -0.032368306 -0.022693839 0.029531196 0.00893978 -0.024926204
-0.030790921 0.037622318 0.016428983 0.025352709 0.013916822 0.0248517 -0.031863075 -0.022392305
-0.0012238186 -0.022798644 0.018410778 0.015747188 0.012626602 -0.015336694 -0.015892642 -0.02638831
-0.028349174 0.017890643 -0.0047010514 0.021902908 -0.007556636 0.02339489 0.027114585 0.041123323
0.0067590177 -0.0032414016 -0.029427882 0.018229958 0.025552576 0.027652467 0.01468815 0.021739073
-0.037730977 0.0046969936 0.011414782 0.044757932 -0.007995895 -0.029604247 -0.041085325 0.03859326
0.03899441 -3.8681756e-05 -0.030321395 0.015621648 -0.02290579 0.0013301857 0.0030004978 -0.0024970735
0.019928569 0.00032046819 0.02175967 0.0022967483 -0.033362366 0.043050278 -0.0018146718 -0.004305206
0.03842785 0.028416632 -0.012426044 -0.01625863 -0.016673604 0.022355964 0.04528426 0.01467752
0.009767771 0.008812252 0.020629782 0.042948846 -0.023993017 -0.04113902 0.023992416 -0.013187689
-0.027336331 0.033605717 -0.03469341 0.028966814 -0.006273791 -0.0014449805 0.015393223 0.005712213
00000000: 8c7b 27bd 0721 8fbc 9620 acbc 7754 19bd
00000010: 137e c1bc 229f 113d 1d43 1b3d 7308 cd3b
00000020: 5941 cbbc 06b4 76bc 729e 453c 9997 0d3d
00000030: c97a 713c b3a9 fc3c 6f3a a13c f3c5 e93c
00000040: 6e69 e2bb 319d e23c 580f 1dbd 0b2c e2bc
00000050: 557d 853c 35e4 f53c 282e 173d fba7 e33c
00000060: 5a56 993b bc76 2abd 8436 3a3d 5b20 ddbc
00000070: 581d c5bb e28a dd3c 1d3a c03a 9749 84bc
00000080: e0cb 1dbd a044 15bd 3d93 003d 4150 123c
00000090: 85c3 b8bb 082a 70bc 26cd 0fbd e08c 15bc
000000a0: 163f 093d 61e4 8dbc 4b5b 4abc a194 04bd
000000b0: 6ee8 b9bc 68eb f13c 2878 123c 0a32 ccbc
000000c0: 3e3d fcbc dc19 1a3d 1396 863c 7cb0 cf3c
000000d0: 6203 643c cb95 cb3c db82 02bd 1170 b7bc
000000e0: 8a68 a0ba 39c4 babc 33d2 963c 3f00 813c
000000f0: cfdf 4e3c c246 7bbc 4931 82bc 4c2c d8bc
00000100: 873c e8bc 668f 923c 470b 9abb ba6d b33c
00000110: a89d f7bb a4a6 bf3c 681f de3c ee70 283d
00000120: c07a dd3b b26d 54bb be12 f1bc fe56 953c
00000130: a353 d13c 6d87 e23c 91a6 703c 2416 b23c
00000140: cc8b 1abd 3de9 993b 1105 3b3c 1854 373d
00000150: 3701 03bc 9b84 f2bc 1649 28bd f713 1e3d
00000160: 9ab8 1f3d 383e 22b8 9364 f8bc f1f1 7f3c
00000170: eca4 bbbc a059 ae3a 00a4 443b f1a5 23bb
00000180: 3d41 a33c 8304 a839 5641 b23c 0b85 163b
00000190: faa6 08bd 7d55 303d 48da edba af12 8dbb
000001a0: 8566 1d3d ffc9 e83c 9b96 4bbc d230 85bc
000001b0: 1597 88bc db23 b73c fd7b 393d fb79 703c
000001c0: 0009 203c 4461 103c caff a83c 21eb 2f3d
000001d0: 018d c4bc 6481 28bd be8b c43c 2d11 58bc
000001e0: 71f0 dfbc 26a6 093d ad1a 0ebd d04b ed3c
000001f0: 6094 cdbb 8065 bdba db33 7c3c 842d bb3b

fc1.weight f4 [128, 128]
0.039839618 -0.03615288 0.07283046 -0.03406896 0.07061579 -0.014684945 0.047337897 -0.043549936
-0.02677998 -0.0494335 0.0074772537 0.009466223 -0.030020218 0.011260703 0.0700594 -0.0063744783
-0.00022675842 0.0028838739 0.06129337 0.08107955 0.01210995 0.0010400563 -0.045016974 0.08746227
0.028220043 0.08232301 0.041408457 0.017153546 0.041101836 -0.027091332 0.0018633679 -0.07655173
-0.05255698 -0.07083056 -0.021219812 -0.0058774427 -0.015670829 -0.026629623 0.01253172 -0.018738255
-0.02963056 0.059627093 0.036957867 0.059943654 0.027885742 0.012672104 0.040654086 0.05628606
-0.018897027 0.025050208 -0.061785795 -0.0147562325 -0.07735548 -0.0044478104 -0.067219615 0.0767973
-0.06714373 0.063641705 -0.06891696 -0.06567136 0.007125497 -0.07362394 0.024469487 0.056839205
0.039904334 -0.045237098 -0.0070937574 0.024918772 -0.037558183 0.05829888 0.02086629 0.071299754
-0.066215344 0.061917253 0.072009526 -0.05789463 0.029446527 0.06657208 -0.025766537 0.07923774
-0.07488895 -0.049243104 0.065039136 0.030983068 0.02659186 0.04977972 -0.030063685 0.008159354
0.021295339 -0.0851721 0.021755159 -0.01269871 -0.06905322 0.07751816 0.086577855 0.018575303
0.068325244 0.0070534125 -0.051142365 0.054590322 0.01553119 -0.026886001 0.08353432 -0.08052577
-0.04454948 0.018899038 -0.058635823 -0.0812272 0.086125486 -0.0038272887 0.06341823 -0.0115226135
0.024091423 -0.010294169 -0.04856221 0.08524267 -0.085656546 0.03666044 -0.03628969 0.022757486
-0.004748158 -0.07718524 -0.032106247 0.0842882 0.06606736 0.0036921054 0.07060865 -0.038703483
-0.026701283 -0.024366623 0.03867004 -0.034152493 0.06912597 -0.010427579 -0.08360345 0.032587472
0.03066627 -0.0023827548 0.007749549 -0.048445683 0.018750895 -0.08454574 0.040432002 -0.08472818
0.036706567 0.07211785 -0.012198634 -0.05090933 0.022751851 -0.06193449 -0.072560474 0.046421092
-0.08497812 -0.064094715 0.06866832 0.003706838 0.05420396 0.029184438 -0.07258637 0.07742085
0.07951603 0.054094587 0.083137706 0.02223618 -0.07176396 -0.021698853 0.06088901 -0.046900388
-0.077377684 0.032318957 -0.008890268 0.052516434 -0.050202966 -0.06990898 0.04576872 -0.023721907
-0.0058190343 0.026961436 -0.053678166 -0.09083573 0.004732615 0.062497262 -0.078574 -0.038801998
-0.090071335 -0.08071982 -0.08033188 -0.023052769 -0.050263785 0.039283834 -0.041245848 0.069080524
0.01186528 0.0076228767 -0.024620835 -0.022827111 -0.0798921 -0.059831046 -0.07263161 0.044138316
0.05653975 -0.009012631 0.065103196 0.011895592 0.024418714 -0.092258714 -0.08396621 -0.039265666
-0.012461841 0.072140984 -0.0540762 -0.09114225 -0.05797793 -0.08102406 -0.039213818 0.045728292
0.025177322 0.070823565 -0.038519416 0.051028315 -0.0824982 0.077670604 0.054939646 -0.043432765
-0.022538444 0.037020568 0.044312607 -0.041842338 -0.028828528 -0.0027669207 0.06249378 -0.042774998
-0.035324745 -0.083216265 -0.04425836 -0.06591772 -0.019622488 0.007962783 0.061641164 0.075035475
0.07240944 -0.048424225 0.075763054 -0.08345403 0.045792863 0.078119226 0.019948179 -0.03368029
0.050532464 -0.06996261 0.043654304 0.05274018 -0.018639298 -0.0358737 0.00063080515 0.024486056
00000000: de2e 233d 0b15 14bd 2328 953d e58b 0bbd
00000010: 039f 903d 2099 70bc 62e5 413d 6b61 32bd
00000020: b061 dbbc c87a 4abd c003 f53b 3818 1b3c
00000030: f6ec f5bc d07e 383c 4d7b 8f3d 00e1 d0bb
00000040: 00c6 6db9 60ff 3c3b c20e 7b3d 090d a63d
00000050: d068 463c 8052 883a b863 38bd 6b1f b33d
00000060: b82d e73c f798 a83d ea9b 293d 9885 8c3c
00000070: 665a 283d a4ee ddbc 403c f43a 27c7 9cbd
00000080: fd45 57bd 9d0f 91bd 2cd5 adbc 9097 c0bb
00000090: 1c60 80bc 5e26 dabc d851 4d3c f880 99bc
000000a0: cabb f2bc 8a3b 743d 2261 173d 7a87 753d
000000b0: a470 e43c a89e 4f3c e684 263d 368c 663d
000000c0: f0cd 9abc 1836 cd3c 1a13 7dbd 20c4 71bc
000000d0: 8d6c 9ebd f0be 91bb 70aa 89bd e747 9d3d
000000e0: a782 89bd 9556 823d 5624 8dbd b57e 86bd
000000f0: 007d e93b 26c8 96bd 3c74 c83c 3ad0 683d
00000100: ba72 233d 894a 39bd c072 e8bb 7422 cc3c
00000110: 9cd6 19bd ceca 6e3d c8ef aa3c 9b05 923d
00000120: e99b 87bd f29c 7d3d bb79 933d eb22 6dbd
00000130: d839 f13c f156 883d 5814 d3bc 6547 a23d
00000140: 615f 99bd 23b3 49bd 3d33 853d 34d0 fd3c
00000150: 2cd7 d93c d2e5 4b3d 1e48 f6bc d0ae 053c
00000160: 9073 ae3c b66e aebd e037 b23c 400e 50bc
00000170: c66b 8dbd d7c1 9e3d bb4f b13d 3c2b 983c
00000180: 1bee 8b3d 5020 e73b a87a 51bd 1a9a 5f3d
00000190: 8876 7e3c 0840 dcbc 0b14 ab3d b2ea a4bd
000001a0: 8479 36bd 28d2 9a3c 1e2c 70bd 725a a6bd
000001b0: 8f62 b03d 40d3 7abb 6be1 813d 58c9 3cbc
000001c0: 605b c53c e0a8 28bc 2be9 46bd b593 ae3d
000001d0: b36c afbd 4229 163d 7fa4 14bd e86d ba3c
000001e0: 7096 9bbb 4c13 9ebd d781 03bd 4b9f ac3d
000001f0: 534e 873d 40f7 713b 459b 903d 8b87 1ebd
00000200: a6bc dabc 839c c7bc 7a64 1e3d 7ce3 0bbd
00000210: eb91 8d3d 70d8 2abc 4938 abbd 717a 053d
00000220: d437 fb3c fe27 1cbb eeef fd3b fb6e 46bd
00000230: 7a9b 993c 5126 adbd 079c 253d f885 adbd
00000240: a059 163d 86b2 933d c8dc 47bc 4d86 50bd
00000250: 1762 ba3c 05af 7dbd 969a 94bd 0b24 3e3d
00000260: 0209 aebd 1744 83bd faa1 8c3d 6cee 723b
00000270: f904 5e3d 3414 ef3c 2aa8 94bd d38e 9e3d
00000280: 4dd9 a23d 4992 5d3d 1a44 aa3d a628 b63c
00000290: fcf8 92bd cbc1 b1bc c166 793d 9f1a 40bd
000002a0: 3178 9ebd e260 043d 7da8 11bc 791b 573d
000002b0: a0a1 4dbd 702c 8fbd fb77 3b3d 7254 c2bc
000002c0: 99ad bebb 3bde dc3c a3dd 5bbd 1508 babd
000002d0: 0d14 9b3b 21fd 7f3d 68eb a0bd d8ee 1ebd
000002e0: 5277 b8bd 6f50 a5bd 0a85 a4bd 29d9 bcbc
000002f0: 66e1 4dbd 16e8 203d 68f1 28bd 177a 8d3d
00000300: 9766 423c 53c9 f93b a2b1 c9bc ecff babc
00000310: 789e a3bd 6611 75bd e2bf 94bd 61ca 343d
00000320: 3a96 673d b7a9 13bc d354 853d bbe5 423c
00000330: c109 c83c 23f2 bcbd 7af6 abbd 09d5 20bd
00000340: c02c 4cbc a7be 933d 017f 5dbd caa8 babd
00000350: 447a 6dbd f1ef a5bd ab9e 20bd 974d 3b3d
00000360: ac40 ce3c f20b 913d 89c6 1dbd 1103 513d
00000370: d1f4 a8bd c411 9f3d 6508 613d 8ee6 31bd
00000380: 8ba2 b8bc e1a2 173d 2381 353d df62 2bbd
00000390: ce29 ecbc 3a55 35bb 7af9 7f3d d634 2fbd
000003a0: aeb0 10bd 4a6d aabd 4148 35bd dfff 86bd
000003b0: 57bf a0bc 5576 023c 727b 7c3d 33ac 993d
000003c0: 674b 943d 7b58 46bd a929 9b3d f2e9 aabd
000003d0: 4c91 3b3d f9fc 9f3d 5d6a a33c 58f4 09bd
000003e0: 21fb 4e3d 8f48 8fbd dbce 323d 1606 583d
000003f0: 71b1 98bc 4df0 12bd 9e5c 253a fb96 c83c

fc1.bias f4 [128]
-0.07944869 0.043126367 -0.051135115 -0.051753778 0.064222015 0.028077345 -0.048748087 -0.021741476
-0.008031173 -0.049853377 0.03729767 0.006243579 0.087423876 -0.028053101 -0.07123874 -0.05619865
-0.03026918 -0.04425617 0.069198035 0.06386362 -0.07338889 -0.0365469 -0.079621635 -0.05244525
0.041139998 0.06645862 -0.055556864 0.05997019 -0.014280155 0.0548176 -0.03184501 -0.06649457
-0.0025698408 -0.040155344 0.033963367 -0.043301072 -0.035564996 -0.016499497 0.04679356 -0.0026643286
-0.06940711 -0.03072479 0.05454756 -0.037219815 -0.0833472 0.014336705 -0.04048266 0.05990334
-0.00878024 0.053710565 -0.022278443 0.029966535 0.07168937 0.07311793 0.011498584 0.053200606
0.011376742 0.041897316 0.010883524 0.030314546 0.04092094 -0.05531033 0.06609253 -0.055844277
0.09273843 0.06381778 0.019446502 -0.07273439 -0.007473814 0.053899623 -0.0300587 0.04497764
-0.07069162 0.035198875 0.06813509 -0.07468656 0.032175913 -0.0087105865 0.007924072 -0.014576495
0.004171369 -0.03463093 0.0038001386 -0.008167037 -0.037643183 -0.042318456 0.09250839 0.039843507
0.061488714 -0.058614265 -0.059112936 -0.08014996 -0.01609423 0.015203988 0.026439192 0.08366928
0.0015668944 0.076321684 -0.025830224 0.010986624 -0.026301328 -0.059505016 0.082312346 0.038310304
0.035155397 0.025970368 0.049099013 -0.07678065 0.051589392 -0.047975484 0.0419181 0.020824743
-0.043063164 -0.03965427 -0.058543965 0.038933557 -0.008404276 0.004160702 0.06789306 0.07283914
0.055050038 -0.018872924 -0.08586466 0.026110226 0.06960757 0.07552968 0.060840677 0.020934312
00000000: ffb5 a2bd 46a5 303d 0e73 51bd c5fb 53bd
00000010: d586 833d 7602 e63c 13ac 47bd 2e1b b2bc
00000020: 2e95 03bc 0e33 4cbd 71c5 183d f096 cc3b
00000030: 4a0b b33d 9ecf e5bc 9ee5 91bd 8e30 66bd
00000040: 12f7 f7bc f545 35bd b3b7 8d3d eeca 823d
00000050: ea4c 96bd 34b2 15bd ab10 a3bd d5d0 56bd
00000060: 6a82 283d 751b 883d 988f 63bd 4da3 753d
00000070: 50f7 69bc 6b88 603d ea6f 02bd 4e2e 88bd
00000080: c66a 28bb ee79 24bd 2c1d 0b3d 775c 31bd
00000090: 9aac 11bd f429 87bc 9baa 3f3d 049c 2ebb
000000a0: 5125 8ebd 8eb2 fbbc 436d 5f3d ce73 18bd
000000b0: f0b1 aabd 80e4 6a3c 25d1 25bd 345d 753d
000000c0: ffda 0fbc 9cff 5b3d 4881 b6bc 617c f53c
000000d0: e0d1 923d dabe 953d 8f64 3c3c e1e8 593d
000000e0: 8465 3a3c 859c 2b3d cf50 323c 3656 f83c
000000f0: b79c 273d 168d 62bd 855b 873d f8bc 64bd
00000100: a5ed bd3d e5b2 823d 454e 9f3c c5f5 94bd
00000110: e5e6 f4bb dac5 5c3d aa3d f6bc 793a 383d
00000120: c5c6 90bd b22c 103d 698a 8b3d 44f5 98bd
00000130: e4ca 033d d9b6 0ebc f8d3 013c 40d2 6ebc
00000140: fbaf 883b 29d9 0dbd bf0b 793b 09cf 05bc
00000150: bd2f 1abd 1e56 2dbd 0a75 bd3d f232 233d
00000160: 97db 7b3d 8315 70bd 6820 72bd aa25 a4bd
00000170: 0cd8 83bc 261a 793c 0197 d83c cd5a ab3d
00000180: 4060 cd3a 8b4e 9c3d e899 d3bc 3e01 343c
00000190: e275 d7bc 88bb 73bd 6093 a83d 44eb 1c3d
000001a0: 1bff 0f3d cfbf d43c 0c1c 493d 2c3f 9dbd
000001b0: 664f 533d f181 44bd 50b2 2b3d a798 aa3c
000001c0: 0063 30bd 846c 22bd cccb 6fbd cb78 1f3d
000001d0: 17b2 09bc 8056 883b 840b 8b3d b02c 953d
000001e0: 267c 613d 649b 9abc d0d9 afbd 1de5 d53c
000001f0: 6a8e 8e3d 4eaf 9a3d 1334 793d 6f7e ab3c

fc2.weight f4 [1, 128]
0.013326436 -0.06502888 0.07370763 -0.07406468 -0.08065252 0.013039887 0.036875673 0.047095235
0.05826001 -0.07070087 0.0926546 -0.08271456 0.012387506 0.007174827 0.06880673 0.07340781
-0.04177314 -0.07171351 -0.075810105 0.043972634 0.029427752 -0.0016204938 -0.06248146 -0.06578091
0.07014748 0.019604258 0.03832554 -0.042293895 0.004357271 -0.033343352 0.060066514 -0.08066652
-0.030558888 -0.07758171 -0.073998466 0.08026115 -0.08509261 -0.073787294 -0.0075157024 -0.05901568
0.016200766 -0.08737483 0.048306588 0.08228161 0.038465314 -0.011033105 -0.015319422 0.05167673
-0.07017932 -0.00012944639 0.08014212 0.036495354 0.008932683 0.08748823 0.059614263 0.07088904
-0.04602353 -0.016750373 -0.02866533 -0.05860333 -0.05027301 0.033002228 -0.06795856 -0.083039805
0.01757391 0.002841397 0.08841133 0.079481564 -0.07761912 0.068606906 0.073105745 0.004509006
0.014445499 -0.059839644 0.092786685 0.02753713 0.02262102 0.019045627 0.011549189 -0.08261901
0.08944382 0.016290128 -0.038534906 0.045832343 -0.06198086 -0.077626884 0.0661305 0.06716083
0.078956 0.04503035 -0.07731246 -0.024341777 -0.050148733 0.05114322 -0.07210127 0.008205932
-0.036114506 0.067929395 0.032159343 0.07489356 0.06588913 -0.08410723 0.04986316 -0.07495991
0.07003736 -0.01878831 -0.08013784 0.061704166 -0.056408092 0.009090833 -0.061992664 0.04984556
-0.047228366 -0.034833476 -0.0752138 0.06507829 -0.022023238 0.0028987676 0.056821425 -0.0511129
-0.070021056 -0.010651581 -0.076333284 -0.06189203 -0.015808038 -0.024217714 -0.04545607 -0.0004125999
00000000: 2057 5a3c dd2d 85bd 07f4 963d 39af 97bd
00000010: 262d a5bd 40a5 553c f20a 173d efe6 403d
00000020: 0ca2 6e3d 9ecb 90bd b2c1 bd3d 4066 a9bd
00000030: f7f4 4a3c d01a eb3b 8bea 8c3d d556 963d
00000040: 501a 2bbd 88de 92bd 5442 9bbd a61c 343d
00000050: 7812 f13c c066 d4ba 8fec 7fbd 24b8 86bd
00000060: 7ba9 8f3d 1c99 a03c 3efb 1c3d 5d3c 2dbd
00000070: 70c7 8e3b 0a93 08bd 4e08 763d 7d34 a5bd
00000080: a256 fabc 29e3 9ebd 828c 97bd f55f a43d
00000090: 0945 aebd cb1d 97bd 4846 f6bb 6dba 71bd
000000a0: 78b7 843c 93f1 b2bd 21dd 453d 4383 a83d
000000b0: ce8d 1d3d 32c4 34bc 50fe 7abc fbaa 533d
000000c0: 2dba 8fbd 00bc 07b9 8d21 a43d 277c 153d
000000d0: 635a 123c 072d b33d 162e 743d 462e 913d
000000e0: 2b83 3cbd 1438 89bc 8ed3 eabc 0c0a 70bd
000000f0: 12eb 4dbd 582d 073d dc2d 8bbd c610 aabd
00000100: 29f7 8f3c bb36 3a3b 0011 b53d 3bc7 a23d
00000110: c6f6 9ebd c781 8c3d 77b8 953d 49c0 933b
00000120: d0ac 6c3c 6a1a 75bd f206 be3d 8c95 e13c
00000130: b84f b93c 9305 9c3c cf38 3d3c 2834 a9bd
00000140: 522e b73d e072 853c c7d6 1dbd b2ba 3b3d
00000150: a4df 7dbd d8fa 9ebd 6d6f 873d 9e8b 893d
00000160: afb3 a13d bf71 383d ff55 9ebd 6868 c7bc
00000170: c268 4dbd 8e7b 513d d5a9 93bd 2c72 063c
00000180: ceec 13bd 911e 8b3d 84b9 033d cb61 993d
00000190: e1f0 863d 6940 acbd 503d 4c3d 9584 99bd
000001a0: bf6f 8f3d f1e9 99bc 4f1f a4bd 82bd 7c3d
000001b0: 2c0c 67bd b8f1 143c 05ec 7dbd dc2a 4c3d
000001c0: 8872 41bd 8cad 0ebd b109 9abd c447 853d
000001d0: 146a b4bc 40f9 3d3b 95bd 683d c35b 51bd
000001e0: 3367 8fbd f883 2ebc a054 9cbd 7f82 7dbd
000001f0: dc7f 81bc 3a64 c6bc 2530 3abd 3952 d8b9
